checkpoints/patchtst_1769067303.pth (torch, 531028 bytes, 97 tensors)

positional f4 [1, 7, 64]
0	0x3be52030	0.0069923624
1	0x3d0886c3	0.033331644
2	0x3cd3d1e4	0.02585692
3	0x3cfa0b36	0.030522924
4	0x3bb3416b	0.005470445
5	0x3bcdcd00	0.0062805414
6	0x3a9ae5fb	0.0011817807
7	0xbcfe9521	-0.03107697
8	0x3c0dcfdb	0.008655514
9	0xbca16bae	-0.019704666
10	0xbce0a230	-0.027421087
11	0xbb231ce7	-0.0024889053
12	0xbc8af5f4	-0.016962983
13	0xbc91e1c2	-0.017807845
14	0xbc23d36e	-0.009999139
15	0x3b44aa54	0.003000875
16	0xba09f033	-0.0005261928
17	0x3c49cd47	0.012317008
18	0x3c2b0601	0.010438443
19	0xbbc58c76	-0.006028707
20	0x3adf38a5	0.0017030431
21	0x3c0982a0	0.00839296
22	0xbc4d2ad5	-0.012522419
23	0xbc9537ce	-0.018215086
24	0xbc9119b1	-0.017712446
25	0x3b98db61	0.004664824
26	0x3ca19929	0.019726353
27	0x3d187955	0.037225086
28	0xbc8befd6	-0.017082136
29	0xbc1075ec	-0.008817177
30	0xbc868226	-0.016419481
31	0x3b1ad376	0.0023624576
32	0x3bb381af	0.005478106
33	0xbd1e56eb	-0.03865711
34	0x3c0432b7	0.008068732
35	0x3cda1bfd	0.026624674
36	0x3c84e61a	0.016223002
37	0xbc363947	-0.011122054
38	0x3c335fdc	0.010948148
39	0xbb6f5384	-0.0036518285
40	0x3ce67a92	0.028134618
41	0xbc5c590d	-0.013448966
42	0xbca1523d	-0.019692535
43	0xbc2bcd0d	-0.0104859
44	0xbbc62c66	-0.006047773
45	0xbc98b43b	-0.018640628
46	0xbb14a129	-0.0022679067
47	0xbc688153	-0.01419099
48	0xba99bca7	-0.0011729196
49	0x3c5c4432	0.013443993
50	0xbce0d681	-0.027446033
51	0x3b54d259	0.003247401
52	0x39e02829	0.0004275453
53	0x3caeebc5	0.021352658
54	0x3b9549d7	0.0045559215
55	0xbc866f59	-0.016410517
56	0x3ca3987f	0.019970177
57	0x3cf311dc	0.029671602
58	0xbc6a6e42	-0.014308514
59	0xbcfade01	-0.030623438
60	0x3c4a700f	0.012355818
61	0x3d140b30	0.03614348
62	0x3d0dcf32	0.034621425
63	0x3d0af83e	0.03392815
64	0x3cc86885	0.024463901
65	0x3cfb2d05	0.030661115
66	0x3aea5496	0.0017877992
67	0x3cffd0bc	0.031227462
68	0xbd1212be	-0.035662405
69	0xbb809ae7	-0.003924716
70	0xb9290eb0	-0.00016122567
71	0xbbe10d80	-0.0068680644
72	0xbbe6c801	-0.0070428853
73	0x3aa1a59d	0.0012332682
74	0xbc27454a	-0.010209391
75	0x3bb7e205	0.0056116604
76	0xbc8abfa5	-0.016937086
77	0x3c9e8602	0.01935101
78	0x3d724714	0.059149817
79	0xbd0a3b36	-0.033747874
80	0xbd1fbbc0	-0.03899741
81	0xbb7d51ac	-0.0038653417
82	0xbc4c8cff	-0.012484788
83	0x3bd5896c	0.006516626
84	0xbc39f0ee	-0.011348946
85	0xbbe039b7	-0.0068428176
86	0x3c616d6c	0.013758998
87	0xbc72d29e	-0.014820723
88	0x3cbafe46	0.022826325
89	0xbc0ef690	-0.008725777
90	0x3cfd8ff2	0.030952428
91	0xbc397b96	-0.011320969
92	0x3bd223e2	0.006412969
93	0x3d33cbbc	0.043895468
94	0x3d66c864	0.05634345
95	0xbac5e781	-0.0015098901
96	0x3d027a30	0.03185481
97	0x3c9b360d	0.018946672
98	0xbc286c70	-0.01027976
99	0x3c8ff187	0.017571224
100	0xbc0e04ee	-0.0086681675
101	0xbc356af2	-0.011072861
102	0xbb2db0e2	-0.0026503135
103	0x3b4db709	0.0031389615
104	0x3cc5c75b	0.024142912
105	0x3c8d339e	0.017236527
106	0x3ca680bb	0.020325055
107	0xbce80772	-0.028323863
108	0xbd008fef	-0.031387266
109	0x39b350fc	0.0003420188
110	0xbccda046	-0.025100838
111	0x3d1d5c67	0.0384182
112	0xbc8c4db8	-0.017126903
113	0xbc553ed9	-0.013015472
114	0xbd226203	-0.039644253
115	0xbc9359c6	-0.017987143
116	0x3c0b8948	0.008516617
117	0x3d33d8b5	0.04390784
118	0xbb0207e6	-0.0019841134
119	0x3c841b33	0.01612625
120	0x3cbab8bc	0.022793166
121	0xbbfc3c2c	-0.0076976027
122	0x3bbde9a9	0.0057956767
123	0xbbb0d4ea	-0.005396475
124	0xbc53be35	-0.012923767
125	0x3b7ca6b6	0.0038551516
126	0x3d23813c	0.03991817
127	0x3c8f80b3	0.017517423
128	0xbcd6d199	-0.02622299
129	0xbc05c0a8	-0.008163609
130	0xbc99c399	-0.018770026
131	0x3c7b8231	0.015350864
132	0x3d828c66	0.06374435
133	0x3c903cef	0.01760718
134	0x3b81fd4e	0.003966964
135	0xbbb81d70	-0.0056187436
136	0xbc2b12a7	-0.010441459
137	0xbbbaa269	-0.0056956303
138	0xbcefb754	-0.029262222
139	0xbce60590	-0.028078824
140	0xbb4a6997	-0.003088569
141	0x3c99b604	0.01876355
142	0x3cd77418	0.026300475
143	0x3ce1ff7f	0.02758765
144	0xbc0ccd2f	-0.008593841
145	0xbcee41fd	-0.0290842
146	0x3ad7473b	0.0016424427
147	0x3c11324a	0.0088620875
148	0x3b9dc92f	0.0048152427
149	0x3ba810dc	0.005128963
150	0xbbbbff27	-0.0057372036
151	0x3c1a05a1	0.009400756
152	0x3c26dfcc	0.010185193
153	0x3c4965ff	0.012292384
154	0x3cf868de	0.030323442
155	0x3b8dcbc6	0.00432727
156	0xbc27d89d	-0.010244516
157	0xbc678162	-0.014129968
158	0x3bdae198	0.006679725
159	0x3cba4881	0.02273965
160	0xba833c9c	-0.001001257
161	0xbc878407	-0.016542448
162	0x39f51cd8	0.00046751532
163	0x3cc98430	0.024599165
164	0x3c9348aa	0.017978985
165	0x3c350c3d	0.011050281
166	0x3ca32589	0.01991536
167	0x3cdd0d95	0.026984015
168	0xbd4b195f	-0.049584743
169	0xbcbae5dd	-0.022814685
170	0xbbc07599	-0.0058733937
171	0xbd0da582	-0.03458167
172	0xbbde8a05	-0.0067913556
173	0x3cddcbeb	0.027074775
174	0xbcb9ff8e	-0.022704866
175	0x3bdfb667	0.006827164
176	0x3d0bfb24	0.034175053
177	0x3c083bba	0.008315021
178	0xbc8126cd	-0.015765572
179	0x3bf55d6b	0.007487943
180	0xbca60ad2	-0.020268831
181	0x3c0113e6	0.007878279
182	0xbd3df179	-0.046372864
183	0xbc99ab50	-0.018758446
184	0xbc998e85	-0.018744716
185	0xbd3b55ef	-0.04573625
186	0x3c535125	0.012897764
187	0x3ba6badb	0.005088193
188	0x3b9f26b7	0.00485691
189	0xbbdf33e0	-0.006811604
190	0x3b4ccdc6	0.003125058
191	0xbbaa6190	-0.0051996186
192	0x3c6732ba	0.014111215
193	0xbcc482d8	-0.023988172
194	0x3c80fcf8	0.015745625
195	0x3c145cc7	0.009055323
196	0xbb2664bf	-0.002538964
197	0xbcac78d8	-0.021053717
198	0xbca09968	-0.0196044
199	0x3cbfa84a	0.023395676
200	0xbca10679	-0.019656407
201	0xbc5b0d96	-0.013369938
202	0x3d27f4e1	0.04100502
203	0x3c688536	0.014191916
204	0xbca46011	-0.02006534
205	0xbca92672	-0.020648215
206	0x3ca11e31	0.019667717
207	0xbd0144c0	-0.031559706
208	0xbcf95ccd	-0.030439759
209	0xbba48904	-0.0050212163
210	0x39df379e	0.00042575313
211	0x3bce77bd	0.006300895
212	0xbc26d6d2	-0.010183053
213	0xbb57d82e	-0.003293525
214	0x3c7f869f	0.015596061
215	0xbb9afa21	-0.0047295247
216	0x3c5c4c8d	0.0134459855
217	0xbcf86d47	-0.030325545
218	0xbb339fc7	-0.0027408467
219	0xbc36deff	-0.011161565
220	0x3cbbd5ba	0.022929061
221	0x3c11b72e	0.008893771
222	0xba551a40	-0.0008129217
223	0x3d11c7c8	0.035590917
224	0x3b850d0b	0.0040603927
225	0x3b9bc011	0.0047531207
226	0x3ca26edb	0.01982825
227	0xbd4e9649	-0.05043629
228	0xbd1f3a89	-0.038874183
229	0x3ae36975	0.0017350154
230	0xbb685c01	-0.003545523
231	0xbc91a5dd	-0.017779285
232	0x3d1fbd78	0.03899905
233	0x3b81df14	0.0039633606
234	0xbbf5d4fc	-0.0075021964
235	0xbae41d79	-0.0017403803
236	0xbbffddae	-0.0078084087
237	0xbcc727b6	-0.024310928
238	0xbb5b889c	-0.0033498174
239	0x3cc523ff	0.024065016
240	0x3c0a7d26	0.008452689
241	0x3bf21a35	0.007388378
242	0xbc205752	-0.009786444
243	0x3c2dd9d3	0.010611015
244	0xbd2bdd21	-0.04195893
245	0xbd57ed2d	-0.052716423
246	0x3b960c04	0.004579069
247	0x3bf32323	0.00741996
248	0xbc3c0bba	-0.011477405
249	0x3c7fbc9e	0.015608935
250	0x3bc8e379	0.0061306325
251	0x3aef195c	0.0018241811
252	0x3ca25f43	0.019820815
253	0xbd184110	-0.037171423
254	0x3a7ce1e4	0.00096466974
255	0xbd3273d8	-0.04356751

patch_embed.0.weight f4 [64, 16]
0	0x3d9334e6	0.07187824
1	0x3e0a507f	0.1350727
2	0x3e81c1c1	0.25343135
3	0xbdd583cd	-0.1042553
4	0xbe0ead34	-0.13933259
5	0x3dc96f66	0.09835701
6	0xbe79573f	-0.24349688
7	0xbe5ecc3f	-0.21757601
8	0xbcf3348f	-0.029688148
9	0x3e43c132	0.19116667
10	0xbdf02930	-0.11726606
11	0x3e3c115d	0.18365999
12	0xbe74158f	-0.23836349
13	0xbe1eb673	-0.15499286
14	0xbe716a5a	-0.23575726
15	0xbe3d8392	-0.18507221
16	0x3e05b48c	0.13057154
17	0x3e7e6c86	0.24846086
18	0xbdccf378	-0.100073755
19	0x3da0965e	0.0784118
20	0x3e1c99c6	0.15293035
21	0xbe715d09	-0.23570646
22	0xbda2f5aa	-0.07957013
23	0x3e451d89	0.19249548
24	0xbe58df39	-0.21178903
25	0x3e64e6d6	0.22353682
26	0xbdc5a2f8	-0.096502244
27	0xbd58b550	-0.052907288
28	0xbc824c51	-0.015905531
29	0xbe0bbaec	-0.13645524
30	0xbc54255b	-0.012948359
31	0xbe12420d	-0.14283009
32	0x3e6c6f38	0.23089302
33	0xbdbf11cd	-0.09329567
34	0xbdcb9a29	-0.09941513
35	0x3e611db9	0.21983995
36	0xbdbcabe0	-0.0921247
37	0xbe25e542	-0.16200736
38	0xbdc4afee	-0.096038684
39	0x3e3c5982	0.1839352
40	0xbde1ff7d	-0.11035059
41	0x3dd0077b	0.10157677
42	0x3da29de9	0.07940275
43	0x3c864a64	0.016392894
44	0xbd49416b	-0.049134653
45	0xbd32d394	-0.043658808
46	0x3d5d21e9	0.053987417
47	0x3e186f51	0.14886214
48	0x3d894982	0.06703474
49	0xbdfefb31	-0.12450255
50	0x3d82b557	0.06382244
51	0xbe4c358c	-0.19942302
52	0x3e548f1a	0.20757714
53	0xbe17bd76	-0.14818367
54	0x3e51f630	0.2050407
55	0xbc4ca556	-0.012490591
56	0x3e1bf266	0.15229186
57	0xbe25620f	-0.16150688
58	0xbe334190	-0.17505479
59	0xbe17d2ae	-0.14826462
60	0xbe42284c	-0.18960685
61	0x3cc8f669	0.02453156
62	0xbc879fed	-0.01655575
63	0xbd89989c	-0.06718561
64	0xbbf097ea	-0.0073423283
65	0x3e6ebb85	0.2331372
66	0x3cf466fc	0.029834263
67	0xbdace857	-0.08442753
68	0x3e2821a7	0.16419087
69	0xbac0e82c	-0.001471763
70	0xbd5d41a5	-0.05401768
71	0x3ac8d046	0.0015320859
72	0xbe318b88	-0.17338383
73	0x3e13282c	0.14370793
74	0xbe6a6ecd	-0.2289383
75	0xbdb6ad9e	-0.089198336
76	0x3e5d430e	0.2160761
77	0xbb6e758e	-0.0036385986
78	0xbc775817	-0.015096686
79	0xbcb79cb5	-0.02241359
80	0xbe28df13	-0.16491346
81	0x3e24a14f	0.1607716
82	0x3cdc5721	0.026897015
83	0x3dcddf95	0.100524105
84	0xbc210a9c	-0.00982919
85	0xbdf58029	-0.11987335
86	0x3debd351	0.11514915
87	0xbc0890ee	-0.008335335
88	0x3e59b09b	0.21258776
89	0x3db3bad6	0.087758705
90	0x3c1d5ae2	0.009604188
91	0xbd491e92	-0.04910142
92	0xbc933e71	-0.01797411
93	0xbe70c106	-0.23511133
94	0xbe5e4c6e	-0.21708843
95	0xbcbf5918	-0.023357913
96	0x3e1d26dd	0.15346856
97	0x3e521241	0.20514776
98	0xbce6dd1b	-0.028181603
99	0x3e4e87f8	0.20169055
100	0x3e4a6e05	0.19768532
101	0x3e543dd2	0.20726708
102	0x3df0cb99	0.11757583
103	0xbe18be14	-0.14916259
104	0xbd9f9bd3	-0.07793393
105	0x3d0c6b6a	0.034282126
106	0xbda797a3	-0.08183219
107	0x3e0e73e5	0.13911398
108	0xbe6c37d9	-0.23068179
109	0xbd87e670	-0.06635749
110	0xbe3f3146	-0.1867114
111	0x3e2bcb23	0.1677671
112	0xbdb17600	-0.08665085
113	0x3c95bf5c	0.018279724
114	0xbe606332	-0.2191284
115	0xbe6295b5	-0.22127421
116	0xbe258f6e	-0.16167995
117	0xbe43b37b	-0.19111435
118	0xbe37431b	-0.17896692
119	0x3ba18677	0.0049293595
120	0xbda310d8	-0.07962197
121	0x3dea30c1	0.1143508
122	0xbe52c30e	-0.2058222
123	0xbd13dd68	-0.03609982
124	0x3bddc2e8	0.0067676194
125	0x3e056cec	0.13029832
126	0xbd6af1a7	-0.057359364
127	0xbd2e0655	-0.042486507
128	0xbdbd24a1	-0.09235502
129	0x3e10aa55	0.14127477
130	0xbd3baae1	-0.04581726
131	0xbda40892	-0.08009447
132	0xbe787000	-0.24261475
133	0x3d7a7aa1	0.061152104
134	0xbbc50e02	-0.0060136328
135	0xbe7ce444	-0.24696451
136	0x3e482e81	0.1954899
137	0xbdcc2661	-0.09968258
138	0x3e3b2e76	0.18279442
139	0x3e436d0d	0.19084568
140	0x3e334d9c	0.17510074
141	0xbe7bbfd4	-0.24584895
142	0xbe461e18	-0.19347417
143	0xbe41d121	-0.18927433
144	0x3e4d0bf6	0.20024094
145	0x3e0822ef	0.13294576
146	0xbdd7e1d4	-0.1054112
147	0x3d6cd501	0.057820324
148	0xbe3b0ad9	-0.18265857
149	0x3e63fc4c	0.22264212
150	0xbe67873e	-0.22610185
151	0x3dde5f5a	0.108580306
152	0xbdab6361	-0.083685644
153	0x3e60323a	0.2189416
154	0x3b4638e2	0.0030246307
155	0xbe6fb5a3	-0.23409133
156	0x3c4da1aa	0.012550751
157	0xbba47cc7	-0.0050197574
158	0xbe5e9b37	-0.21738897
159	0xbe13d79c	-0.14437717
160	0x3d0ba975	0.034097154
161	0x3e20d440	0.15705967
162	0xbbe0ef8f	-0.006864495
163	0xbe14e4a2	-0.14540341
164	0xbb9472f3	-0.0045303046
165	0x3e05a249	0.13050188
166	0x3e1a4bc2	0.15067962
167	0xbd943d1d	-0.07238219
168	0x3e118ea7	0.14214574
169	0x3b126b99	0.0022341965
170	0xbc91a32f	-0.017778007
171	0xbda42c6b	-0.080162846
172	0xbe050eed	-0.12993975
173	0xbe32dc8d	-0.17466946
174	0x3d390473	0.04517026
175	0xbdf3893f	-0.11891412
176	0x3d5b4701	0.05353451
177	0x3d02fae5	0.031977553
178	0xbd0fd573	-0.03511567
179	0xbe584fd9	-0.2112421
180	0xbd8d05a8	-0.068858445
181	0xbdeb26ed	-0.11482034
182	0xbe6cc698	-0.23122633
183	0xbe51511c	-0.20441097
184	0xbdf728c8	-0.12068325
185	0x3d5e25c8	0.05423525
186	0x3de8837d	0.113532044
187	0xbccbe3fa	-0.024888981
188	0xbdae5ddc	-0.08513996
189	0xbd3017c0	-0.0429914
190	0x3e5755c6	0.21028814
191	0xbde5ace2	-0.112146154
192	0x3e66fbfe	0.22557065
193	0x3dac91c0	0.08426237
194	0x3e7a5ff3	0.24450664
195	0xbe6dca7b	-0.23221771
196	0x3ddf3dce	0.1090046
197	0xbdaf2029	-0.08551056
198	0xbdc5fc7b	-0.096672975
199	0xbc778729	-0.015107908
200	0x3e7bc056	0.24585089
201	0xbe4cea21	-0.20011188
202	0x3d96b987	0.07359605
203	0xbe67292a	-0.22574297
204	0x3e0531e3	0.13007312
205	0xbe3fee50	-0.18743253
206	0xbdf59912	-0.119920865
207	0x3e183629	0.1486441
208	0x3d39b613	0.045339655
209	0x3e56f86e	0.20993206
210	0xbe32f0ca	-0.17474666
211	0xbe5d889a	-0.2163414
212	0x3e7ba8a8	0.24576056
213	0x3d7ac2bb	0.061220866
214	0x3d54bdbb	0.051938754
215	0xbe254de5	-0.16142996
216	0xbdf7114a	-0.120638445
217	0xbdb2340f	-0.08701336
218	0x3da214e9	0.079141445
219	0x3e1d530a	0.15363708
220	0xbe2b8653	-0.1675046
221	0xbe234097	-0.15942608
222	0x3c7a5df5	0.01528119
223	0x3e69d87f	0.22836493
224	0x3db9033e	0.090338215
225	0xbdadf37b	-0.08493706
226	0x3def7dd4	0.11693922
227	0x3dcd49f1	0.10023869
228	0xbd869a4f	-0.06572401
229	0xbc35bb08	-0.011091955
230	0xbce170a7	-0.027519537
231	0xbe0da3a5	-0.13831957
232	0x3e435f2c	0.19079274
233	0x3e2ac567	0.16676866
234	0x3e31bada	0.17356434
235	0xbd07c00b	-0.03314213
236	0xbe67635c	-0.22596496
237	0xbe0e112b	-0.13873737
238	0xbe4e2e9a	-0.20134965
239	0x3e0cf8e2	0.13766816
240	0xbd4f9e1d	-0.050687898
241	0x3d586740	0.052832842
242	0xbe4ef405	-0.20210274
243	0xbcc4fbd9	-0.024045872
244	0x3df9575a	0.12174864
245	0x3e171195	0.14752801
246	0x3e02aa34	0.1276024
247	0x3d67d244	0.05659701
248	0xbd722922	-0.05912126
249	0x3e394fcb	0.18096845
250	0x3e272bfa	0.1632537
251	0x3cdc0f6a	0.026862819
252	0x3c8651f1	0.016396495
253	0xbe620716	-0.22073016
254	0x3dce37e3	0.10069253
255	0x3e082a5b	0.13297407

patch_embed.0.bias f4 [64]
0	0xbc8a3cde	-0.016874727
1	0x3dd6d6d4	0.10490194
2	0xbe21567d	-0.15755649
3	0x3dc0feb3	0.0942358
4	0x3e338b0a	0.17533508
5	0x3e654c8e	0.22392485
6	0x3d84085e	0.064469084
7	0xbdc566f0	-0.096387744
8	0x3e4a93b4	0.19782907
9	0xbddf9ac5	-0.10918192
10	0x3e2b68e8	0.16739237
11	0xbd328d75	-0.043591935
12	0x3d949983	0.072558425
13	0xbe49bb88	-0.19700444
14	0x3e4cdd79	0.2000636
15	0x3d8ab3ae	0.067725524
16	0x3dbb4000	0.091430664
17	0xbd81439d	-0.06311724
18	0xbce68174	-0.0281379
19	0xbe06ea5a	-0.13175336
20	0x3c9aeee4	0.01891274
21	0xbe72b505	-0.23701866
22	0x3d9e7e7d	0.077389695
23	0xbe58b49d	-0.21162648
24	0xbbb4dc75	-0.0055194446
25	0x3e65f6e8	0.22457469
26	0x3e22c5b5	0.15895732
27	0x3d6fbd25	0.05852999
28	0xbd9a3875	-0.075302996
29	0xbc80370f	-0.015651254
30	0x3d3f2980	0.046670437
31	0x3e5f01a2	0.21777967
32	0x3ce89160	0.028389633
33	0x3e004c83	0.12529187
34	0x3d67d76a	0.05660192
35	0xbe463d9a	-0.19359437
36	0xbdab6685	-0.083691634
37	0x3e23087b	0.15921204
38	0x3c808b37	0.015691383
39	0x3e0ecad8	0.13944566
40	0xbe781cdc	-0.24229759
41	0x3db9c3df	0.090705626
42	0xbe2b70c3	-0.16742234
43	0xbd630747	-0.055426862
44	0xbe594b91	-0.21220233
45	0xbd601534	-0.05470772
46	0x3e34d7eb	0.17660491
47	0xbe1de08c	-0.15417689
48	0xbe3c391d	-0.18381162
49	0x3dd7abcf	0.10530817
50	0xbd596a70	-0.053080022
51	0x3c9b1b32	0.018933866
52	0x3cdfa4ed	0.027300322
53	0x3e0ed8a3	0.13949828
54	0x3c5893e7	0.013218856
55	0x3d70efa6	0.058822297
56	0xbe49ed09	-0.19719328
57	0xbe2b1552	-0.16707352
58	0x3ca52d6e	0.020163264
59	0xbc300bbd	-0.010744986
60	0xbcf78b76	-0.030217867
61	0xbe2ebda0	-0.17064524
62	0xbe78e4fe	-0.24306104
63	0x3d9e794c	0.07737979

patch_embed.1.weight f4 [64, 16]
0	0x3e528b5a	0.20560971
1	0xbe344cc4	-0.17607409
2	0x3da66556	0.08124797
3	0xbd6a34bb	-0.057179194
4	0x3e39feba	0.18163577
5	0xbe5df577	-0.21675669
6	0xbdec0c52	-0.115257874
7	0xbd82c609	-0.063854285
8	0x3e317521	0.17329837
9	0x3e4b2dec	0.19841737
10	0x3e01b7e6	0.12667808
11	0x3dbc637f	0.09198665
12	0x3dc6fcc1	0.09716178
13	0x3e26cad0	0.16288304
14	0xbdc30b7c	-0.09523675
15	0xbd02daf3	-0.031947087
16	0xbe5fc372	-0.218519
17	0x3d5683e8	0.05237189
18	0x3daa9b4e	0.08330403
19	0x3ddd24d3	0.10798039
20	0x3c350970	0.011049613
21	0xbe60eb61	-0.2196479
22	0xbcdb7587	-0.02678944
23	0x3e010e5e	0.12603137
24	0xbe143e21	-0.14476825
25	0x3ddf5eb8	0.10906738
26	0x3cf5521e	0.029946383
27	0xbe5f8b33	-0.21830444
28	0xbe81b964	-0.25336754
29	0xbdabaf8b	-0.083830915
30	0x3e609474	0.2193163
31	0xbe0d06d7	-0.1377214
32	0x3e17c5bd	0.14821525
33	0xbd058792	-0.032599993
34	0xbd8776d8	-0.066144645
35	0x3e0c8d89	0.13725866
36	0x3e0c2db5	0.13689311
37	0x3ca18d83	0.019720798
38	0xbde298ea	-0.11064322
39	0x3d71c705	0.05902769
40	0x3b3cf56e	0.002883281
41	0x3db4f3b4	0.08835545
42	0x3e2e3f65	0.1701637
43	0xbda27151	-0.0793177
44	0xbe07ceb3	-0.13262443
45	0xbd897f64	-0.06713751
46	0xbe1e9f46	-0.15490445
47	0x3d131406	0.035907768
48	0xbcf02544	-0.029314645
49	0x3d8bf689	0.06834132
50	0xbb93b28f	-0.00450737
51	0xbe44c3d7	-0.19215332
52	0x3d7484b4	0.059696868
53	0xbe3712f7	-0.17878328
54	0x3e3f2fca	0.18670574
55	0x3e0584c4	0.13038927
56	0x3a91c6d0	0.0011121873
57	0x3e0a2a52	0.13492706
58	0x3dd8acd5	0.1057984
59	0x3c687677	0.0141884005
60	0x3dacf304	0.08444789
61	0xbde9d684	-0.11417869
62	0xbe4ba2ec	-0.19886369
63	0x3ccae7d0	0.02476874
64	0x3e79c517	0.2439159
65	0x3e780e5b	0.24224226
66	0x3e7dbbf4	0.2477873
67	0xbcaa7fb7	-0.020812852
68	0xbe2ee345	-0.17078884
69	0x3ca76985	0.020436058
70	0x3dc7b94d	0.0975214
71	0x3e00786e	0.1254594
72	0x3dea2ed9	0.11434717
73	0x3e2ff65d	0.17183824
74	0x3e381099	0.17975082
75	0x3e70c34a	0.23511997
76	0xbd934e71	-0.07192696
77	0x3dce4e02	0.100734726
78	0x3dd676fa	0.10471912
79	0x3d3c3041	0.045944456
80	0xbc96688e	-0.018360402
81	0x3e78361a	0.24239388
82	0x3e1df710	0.15426278
83	0xbe439f80	-0.19103813
84	0xbe6a6a0e	-0.22892019
85	0xbd0a29ea	-0.03373138
86	0xbe07b31f	-0.13251923
87	0xbdbe84b4	-0.09302655
88	0xbdd8159b	-0.10550996
89	0x3dfef0c4	0.12448266
90	0x3e0b13bb	0.13581745
91	0xbdd571ae	-0.10422073
92	0xbdc44159	-0.095827766
93	0x3e2f7818	0.17135656
94	0x3c8b8a4e	0.017033722
95	0x3d8385ff	0.06422042
96	0x3d1e0b6a	0.038585104
97	0x3dc7d2f7	0.09757035
98	0x3dcdf6eb	0.100568615
99	0xbe45cd4e	-0.19316599
100	0xbca9499a	-0.020664979
101	0xbe08a143	-0.13342766
102	0x3e70ce3d	0.23516174
103	0xbdf7a142	-0.12091304
104	0xbc625190	-0.013813391
105	0xbe511afa	-0.20420447
106	0x3bae9315	0.005327592
107	0xbe2ea8e8	-0.1705662
108	0xbe077fdc	-0.13232368
109	0x3d5a09a7	0.05323186
110	0xbe42cdea	-0.19023862
111	0xbd830bd3	-0.0639874
112	0xbe133a99	-0.14377822
113	0x3e2fab2e	0.17155144
114	0x3e4c7316	0.19965777
115	0x3e1a8dac	0.15093106
116	0xbe020d7c	-0.12700456
117	0x3d9bcdd5	0.07607619
118	0xbc6f2e81	-0.01459849
119	0xbd3df96b	-0.04638044
120	0x3df6c45e	0.12049173
121	0xbdfbdcf6	-0.12298004
122	0x3dc3edaa	0.09566815
123	0x3e741d96	0.23839411
124	0x3e568ee4	0.20952946
125	0xbe14b049	-0.14520372
126	0xbe64b461	-0.22334434
127	0xbe18aadd	-0.14908929
128	0xbe44a13f	-0.19202136
129	0xbe5d23d0	-0.21595693
130	0x3c83c626	0.016085695
131	0x3cb2b2d1	0.021813782
132	0xbe187757	-0.14889275
133	0x3db5fd4c	0.08886203
134	0x3c520d43	0.012820545
135	0x3d977766	0.0739582
136	0xbdc5ad4b	-0.09652194
137	0xbe73059d	-0.2373261
138	0x3cccd237	0.025002582
139	0x3e1a2473	0.15052967
140	0x3c4cdae8	0.012503363
141	0xbe137434	-0.14399797
142	0xbcdc1ce5	-0.026869247
143	0x3cc22e08	0.02370359
144	0xbe10f904	-0.14157492
145	0x3d9a1101	0.075227745
146	0x3df6df7c	0.12054345
147	0x3e76e38d	0.24110241
148	0xbdbce991	-0.09224237
149	0xbe173875	-0.1476763
150	0xbe07e412	-0.13270596
151	0xbda7dbce	-0.08196221
152	0x3e4aa4b9	0.19789399
153	0xbd497ab3	-0.04918928
154	0xbe5af70d	-0.21383305
155	0xbe6ba38a	-0.23011604
156	0x3c8961b6	0.016770225
157	0x3e24e4c3	0.1610289
158	0xbd7438ad	-0.059624363
159	0x3dbc1378	0.09183401
160	0xbbb38b73	-0.00547927
161	0xbdf3a361	-0.118963964
162	0xbdf93d3c	-0.12169883
163	0xbd597fa3	-0.05310024
164	0xbd90ac16	-0.07064073
165	0xbe7c3be1	-0.24632217
166	0xbe119dda	-0.14220372
167	0xbe0bad87	-0.13640414
168	0xbd964879	-0.07338042
169	0xbe4a5dfd	-0.19762416
170	0xbddf779a	-0.10911484
171	0xbe1a8e0c	-0.15093249
172	0x3dc6a508	0.09699446
173	0xbd494c08	-0.049144775
174	0x3e67922c	0.22614354
175	0xbdc05697	-0.09391516
176	0x3e15e7f3	0.14639263
177	0xbd832ed0	-0.06405413
178	0xbdf0531a	-0.117346
179	0xbe57bd7e	-0.2106838
180	0x3e678fa0	0.22613382
181	0x3db6c658	0.0892455
182	0xbd474169	-0.048646364
183	0x3ccab9cd	0.0247468
184	0xbe6d0f9c	-0.23150486
185	0x3c8ee843	0.017444735
186	0xbe77cc7c	-0.24199098
187	0x3cd4447d	0.025911564
188	0x3dd457eb	0.103683315
189	0x3e02df0f	0.12780403
190	0x3e27736c	0.16352624
191	0x3d6c8d1e	0.057751767
192	0xbe282539	-0.1642045
193	0x3c01dfd0	0.007926896
194	0x3dd5712a	0.10421975
195	0x3d6c1e19	0.05764589
196	0xbd2111f2	-0.039323755
197	0x3dec4db3	0.115382574
198	0x3e1138ca	0.1418182
199	0xbce6a53d	-0.028154964
200	0xbe57143c	-0.21003813
201	0xbe01c39c	-0.12672275
202	0x3d21a03f	0.039459463
203	0xbe33d51c	-0.17561764
204	0x3c044df6	0.008075228
205	0x3de942b1	0.113896735
206	0xbd9eb07c	-0.077485055
207	0xbe1b0eb1	-0.15142323
208	0x3a188a78	0.00058189733
209	0x3d593c25	0.053035874
210	0x3db19a65	0.086720265
211	0xbe332cbc	-0.17497534
212	0xbdef2ceb	-0.11678489
213	0x3e1740eb	0.14770858
214	0x3e0d82b6	0.13819394
215	0xbdb6417d	-0.0889921
216	0xbe70fc2e	-0.23533699
217	0xbdd1d023	-0.10244777
218	0xbe1a38da	-0.1506075
219	0x3e3a6a1c	0.1820454
220	0x3e17e014	0.14831573
221	0x3dae66bd	0.085156895
222	0xbe193a12	-0.14963558
223	0xbe13813e	-0.1440477
224	0x3d73556c	0.059407637
225	0xbe619300	-0.22028732
226	0x3e762cc1	0.2404051
227	0x3dc8e324	0.09808949
228	0x3d2810e3	0.04103173
229	0xbbbac673	-0.0056999265
230	0x3e742d44	0.23845392
231	0xbcc0009d	-0.023437792
232	0x3b4f9844	0.003167645
233	0xbdaaf750	-0.08347952
234	0x3e3e1c49	0.18565477
235	0x3d6bfbc2	0.05761314
236	0xbe4c56fd	-0.19955058
237	0xbda2c80b	-0.079483114
238	0x3d548c7c	0.05189179
239	0xbe6d9f81	-0.23205377
240	0x3da3fd6c	0.08007321
241	0xbe204f40	-0.15655231
242	0xbdeda86b	-0.11604389
243	0xbd130780	-0.035895824
244	0x3e6e4af2	0.23270777
245	0xbdd8c649	-0.10584695
246	0xbd3974fb	-0.045277577
247	0x3d0ded11	0.034649912
248	0xbda0e924	-0.07856968
249	0xbe799e7f	-0.24376868
250	0x3e18c50f	0.14918922
251	0x3e2729ea	0.16324583
252	0xbe4a3aba	-0.19748965
253	0xbe66d630	-0.22542644
254	0x3d334813	0.043769907
255	0x3d8aa812	0.06770338

patch_embed.1.bias f4 [64]
0	0xbdc326e8	-0.09528905
1	0xbc1a84fe	-0.009431122
2	0xbc9ca101	-0.019119741
3	0xbe004348	-0.12525666
4	0x3d8e226c	0.06940159
5	0xbe6953a0	-0.22785807
6	0xbe145456	-0.14485297
7	0x3e0865ff	0.13320158
8	0xbe1c5255	-0.15265782
9	0x3e7a1bc3	0.24424653
10	0x3e71c690	0.23610902
11	0xbe6b1743	-0.22958092
12	0xbc3dd4ba	-0.0115863625
13	0xbdc93c8b	-0.09826001
14	0xbd331ccb	-0.04372863
15	0x3e45627b	0.19275849
16	0x3e5e51c6	0.21710882
17	0xbda671c6	-0.08127169
18	0xbe7a1141	-0.24420644
19	0xbddf21cf	-0.1089512
20	0xbdd7a9d4	-0.10530439
21	0x3d461ff6	0.048370324
22	0x3e2a87a9	0.16653313
23	0xbd14cea8	-0.036329895
24	0xbcbb7706	-0.022883903
25	0xbe369eca	-0.1783401
26	0x3e6754f5	0.22591002
27	0xbe4ebe70	-0.20189834
28	0xbceffb56	-0.029294651
29	0xbdb8677f	-0.09004115
30	0x3dd534a5	0.10410432
31	0x3e0877c1	0.13326932
32	0xbe5d9fba	-0.21642962
33	0x3e4574c5	0.19282825
34	0x3e032251	0.1280606
35	0xbd906154	-0.07049814
36	0x3dcb7b75	0.09935657
37	0xbd3eff94	-0.046630457
38	0x3e6fb253	0.23407869
39	0xbd8e720f	-0.06955349
40	0xbe3bc616	-0.18337283
41	0xbcb9be1e	-0.022673663
42	0xbda4233b	-0.08014532
43	0xbe102d5d	-0.14079805
44	0x3e0b26be	0.13588998
45	0x3e34d18e	0.17658064
46	0xbdebbecb	-0.11511
47	0x3e7ace38	0.24492729
48	0x3df97fe9	0.121826
49	0x3e2f19ea	0.17099729
50	0xbdb3239f	-0.087470286
51	0xbc8c8c95	-0.017156878
52	0x3ddb78a1	0.107163675
53	0xbe724056	-0.23657355
54	0xbe4c6715	-0.19961198
55	0xbe32c131	-0.17456509
56	0xbdc8ca5d	-0.09804223
57	0xbe1f7263	-0.15570979
58	0x3c97945e	0.018503364
59	0x3d91eb7d	0.07124994
60	0xbd8a6892	-0.067582265
61	0x3e3a03ec	0.18165559
62	0x3e28d345	0.16486843
63	0x3da877e5	0.08225993

patch_embed.2.weight f4 [64, 16]
0	0x3e4504d7	0.19240128
1	0xbe08b7d2	-0.13351372
2	0xbe2bdc69	-0.16783299
3	0xbda3788d	-0.079819776
4	0xbe0e4033	-0.13891678
5	0x3e1812df	0.14850949
6	0x3d2eab91	0.042644087
7	0x3e57d2d6	0.21076521
8	0xbe34aafd	-0.17643352
9	0x3e396b45	0.18107326
10	0xbc896b6e	-0.01677486
11	0x3db1d79f	0.086837046
12	0xbcacee1e	-0.021109637
13	0x3e6c0117	0.2304729
14	0xbe3cb47d	-0.18428226
15	0x3e6d89a8	0.23197043
16	0xbdec5267	-0.115391545
17	0xbe18a59a	-0.14906922
18	0xbda1bd80	-0.078974724
19	0xbe774e82	-0.24151042
20	0xbe8077b2	-0.2509132
21	0xbd6678c6	-0.056267522
22	0xbe6e7b0b	-0.23289125
23	0xbe3fc0d6	-0.18725905
24	0x3e2f08a2	0.17093137
25	0xbdcefe51	-0.10107101
26	0xbe0b1da3	-0.13585524
27	0x3d2304f4	0.039799646
28	0xbdd2f1c4	-0.103000194
29	0x3dd0677c	0.10175988
30	0x3dbb5572	0.09147157
31	0x3d88401f	0.06652855
32	0x3e249573	0.16072635
33	0x3e2dd357	0.16975151
34	0x3ca9184e	0.020641472
35	0xbb00550b	-0.001958194
36	0x3e65b07f	0.22430609
37	0x3e31e6f7	0.17373262
38	0x3c744c59	0.014910781
39	0x3e008f3f	0.12554644
40	0xbc9fda52	-0.019513283
41	0xbceca154	-0.028885521
42	0x3b6376fe	0.0034708376
43	0xbe526a09	-0.20548262
44	0xbd204631	-0.03912944
45	0x3e0c48e7	0.13699685
46	0x3df2aae6	0.118490025
47	0x3e32f1bf	0.17475031
48	0xbe1b8737	-0.15188299
49	0x3e0183f9	0.12648
50	0x3e458ce8	0.19292033
51	0xbe24be77	-0.16088282
52	0xbe28fb91	-0.16502215
53	0xbe210eee	-0.15728351
54	0xbdd2b4c5	-0.10288385
55	0x3c8740eb	0.016510447
56	0xbe546b84	-0.20744139
57	0x3d675ddb	0.056485992
58	0xbe09c80f	-0.13455223
59	0x3e3cbebb	0.18432133
60	0xbe07f57f	-0.13277243
61	0x3dec2146	0.11529784
62	0x3e0e2e73	0.13884906
63	0xbde5b1f7	-0.11215585
64	0x3e5aab67	0.21354447
65	0x3e4b75cd	0.19869156
66	0x3e27fdf7	0.16405474
67	0x3e1c9bf8	0.15293872
68	0xbd2a97e6	-0.041648768
69	0xbdeff57e	-0.11716746
70	0xbe055438	-0.13020408
71	0x3e732e2e	0.23748085
72	0xbdc77b11	-0.0974027
73	0xbd1587e6	-0.036506556
74	0x3e67b7be	0.22628686
75	0xbe274d32	-0.16338041
76	0x3e7605d6	0.24025664
77	0x3e7a3e54	0.24437839
78	0xbd5d7dca	-0.05407504
79	0x3de88bdd	0.11354802
80	0xbba998bb	-0.0051756776
81	0xbd52ce82	-0.051466472
82	0xbe75501a	-0.23956338
83	0xbe50b77b	-0.20382492
84	0xbdcad9b5	-0.099048056
85	0xbded5d18	-0.11590022
86	0x3e386d4e	0.18010446
87	0x3e29c460	0.16578817
88	0xbe319472	-0.17341784
89	0x3d6292a7	0.05531564
90	0x3e3e4282	0.18580058
91	0xbd1e0d6f	-0.03858703
92	0xbdf1c036	-0.118042395
93	0x3e6ad234	0.22931749
94	0x3e47ef12	0.19524792
95	0x3d4e348b	0.050343078
96	0xbe6fb9a7	-0.23410664
97	0x3d1b5b6e	0.03792899
98	0xbe627a85	-0.2211705
99	0xbd72ff3c	-0.05932544
100	0xbe0abb7b	-0.1354808
101	0xbdf91c03	-0.12163546
102	0xbcfac583	-0.030611759
103	0x3e1563ce	0.14588854
104	0xbe627644	-0.22115427
105	0x3dc0be42	0.09411289
106	0xbddda255	-0.10821978
107	0x3dcf57c7	0.10124164
108	0x3cea9fec	0.02864071
109	0xbe3cd7f6	-0.18441758
110	0x3d1e4053	0.038635563
111	0xbc406e1f	-0.011745005
112	0x3d9d3a80	0.076771736
113	0x3d138468	0.036014944
114	0xbd856dda	-0.06515093
115	0x3e671ed2	0.22570351
116	0xbe112448	-0.14173996
117	0x3c6e1cfa	0.014533276
118	0x3e662278	0.22474086
119	0xbe31656a	-0.17323843
120	0xbce63845	-0.028103003
121	0x3e70fca0	0.23533869
122	0x3e07c67f	0.13259314
123	0x3e1bef04	0.15227896
124	0xbdd106dd	-0.10206387
125	0x3e1a9669	0.1509644
126	0x3e2c9c41	0.16856481
127	0xbd21fd8d	-0.039548445
128	0xbe2c76ba	-0.16842166
129	0x3cac530a	0.02103569
130	0x3e02f2a0	0.12787867
131	0xbd5f2271	-0.054476205
132	0x3e0e749d	0.13911672
133	0x3d1557bf	0.036460634
134	0xbd206299	-0.03915653
135	0x3e3e5812	0.18588284
136	0x3e4b361d	0.19844861
137	0xbdfa4760	-0.12220645
138	0x3e178a90	0.14798951
139	0x3da7288b	0.0816203
140	0xbe292400	-0.16517639
141	0x3d6c991e	0.05776321
142	0xbe3f924b	-0.1870815
143	0x3e41ec0a	0.18937698
144	0x3caefdcf	0.02136126
145	0x3e469699	0.19393386
146	0x3e4853f8	0.19563282
147	0x3d75b498	0.05998668
148	0x3e0a561c	0.1350941
149	0xbde5c5b5	-0.1121935
150	0x3d7c68b8	0.061623305
151	0x3e1cf2d3	0.15327005
152	0xbd289292	-0.041155405
153	0x3e22ade3	0.15886645
154	0x3db47055	0.08810488
155	0x3e0ddd21	0.13853885
156	0xbe6a63d7	-0.22889648
157	0xbe51b3a8	-0.2047869
158	0x3e77acbf	0.24186991
159	0x3db6a6b8	0.08918518
160	0x3e513f5b	0.20434324
161	0x3e631e0a	0.22179428
162	0xbe68ab32	-0.22721556
163	0x3df8bf29	0.12145836
164	0x3cd44ca6	0.025915455
165	0x3e6300f9	0.2216834
166	0x3df41d3b	0.11919638
167	0x3dc43d59	0.09582014
168	0xbe2d85f5	-0.16945632
169	0xbd222ec5	-0.039595384
170	0xbb0e51b1	-0.0021716172
171	0x3e388875	0.18020804
172	0xbd9dc7ac	-0.077041
173	0xbe2f8f6a	-0.17144552
174	0xbd9d29a5	-0.07673959
175	0xbcdda8df	-0.027058063
176	0xbe66a0b7	-0.22522245
177	0x3d94a480	0.072579384
178	0xbd72f886	-0.05931904
179	0xbde9b6a9	-0.11411793
180	0x3dcc2f42	0.09969951
181	0xbcdf5985	-0.027264366
182	0x3dfe4352	0.12415184
183	0xbd736981	-0.05942679
184	0x3d95a5ab	0.07306989
185	0x3d887fbc	0.066649884
186	0xbe4a5bc7	-0.19761573
187	0x3e21d674	0.15804464
188	0x3d22f574	0.039784864
189	0x3e5709ed	0.2099988
190	0x3dc0b216	0.09408967
191	0x3dd6b915	0.1048452
192	0x3d39d07f	0.045364853
193	0x3d750e4d	0.05982809
194	0x3e6cbb95	0.23118432
195	0x3da1f39c	0.07907793
196	0xbe5f7341	-0.2182131
197	0xbd25e01e	-0.040496938
198	0x3e0b9d19	0.13634147
199	0x3df2e073	0.118592165
200	0xbd2e5e39	-0.042570326
201	0x3ca32083	0.019912964
202	0x3de403d5	0.111335434
203	0x3d9b9720	0.07597184
204	0x3e458a8d	0.19291134
205	0xbe345963	-0.17612223
206	0x3e7122d6	0.23548445
207	0xbd40651f	-0.046971437
208	0xbe321d44	-0.17393976
209	0xbe2a862d	-0.16652746
210	0x3d0ef411	0.03490073
211	0xbe5b9af5	-0.2144583
212	0xbde99c31	-0.11406744
213	0xbccfdd3d	-0.02537405
214	0xbe80d24e	-0.2516045
215	0xbe7702e2	-0.24122193
216	0xbe596a7c	-0.21232027
217	0xbe12c6bd	-0.14333625
218	0xbe2d6ef1	-0.16936852
219	0x3c6194ee	0.013768418
220	0x3d2805f6	0.04102131
221	0x3d3902dc	0.045168743
222	0x3e16e024	0.1473394
223	0x3e274243	0.1633387
224	0xbddf5dff	-0.109066
225	0xbe7d655b	-0.24745695
226	0x3d8449da	0.064593986
227	0x3e1d0ce4	0.15336949
228	0x3e33b67b	0.1755008
229	0x3d3ee212	0.046602316
230	0xbe6bc56e	-0.23024532
231	0xbdf4b5ca	-0.11948736
232	0xbd3f7842	-0.046745546
233	0x3e2147f6	0.15750107
234	0x3e2c375f	0.16817997
235	0x3b730c63	0.003708624
236	0xbe78b1c7	-0.24286567
237	0xbc4838c0	-0.0122205615
238	0x3e1a44d7	0.15065323
239	0x3e25a200	0.1617508
240	0x3e776086	0.24157915
241	0xbc1a1464	-0.009404276
242	0xbe28ae3c	-0.16472715
243	0xbdf530fb	-0.11972233
244	0x3db5ab09	0.08870513
245	0x3e17fa1c	0.14841503
246	0x3e12a644	0.14321238
247	0xbe1829cb	-0.14859693
248	0xbe3de159	-0.18542995
249	0xbd2face9	-0.04288951
250	0xbe1667fd	-0.14688106
251	0xbe63e072	-0.22253588
252	0x3c39c656	0.011338791
253	0x3cf37a10	0.02972129
254	0x3e35f00c	0.17767352
255	0x3db941e7	0.09045773

patch_embed.2.bias f4 [64]
0	0x3e60f2e8	0.21967661
1	0x3cc1e2a8	0.023667648
2	0x3e3305f3	0.17482738
3	0x3caa90b8	0.02082096
4	0x3d893f7e	0.06701563
5	0xbe1e93d4	-0.1548608
6	0xbe612182	-0.21985438
7	0x3e3f113f	0.18658923
8	0x3e4893e3	0.19587664
9	0x3de41b5d	0.11138032
10	0xbd794734	-0.06085892
11	0xbe153ba0	-0.14573526
12	0xbe4ebaa0	-0.2018838
13	0x3dcf0139	0.10107655
14	0x3e2b3e40	0.16722965
15	0xbd57debd	-0.052702654
16	0xbe36e7b9	-0.17861833
17	0x3da3978c	0.0798789
18	0x3e713fa0	0.23559427
19	0x3d8eb9d2	0.06969036
20	0xbe266277	-0.16248499
21	0x3e1f80d8	0.15576494
22	0xbe77e042	-0.24206641
23	0xbda1503d	-0.07876632
24	0x3c93d612	0.018046413
25	0xbe423991	-0.18967272
26	0xbdba95c9	-0.091106005
27	0xbe19bad0	-0.1501267
28	0xbd187d27	-0.03722873
29	0x3dd25f05	0.1027203
30	0x3e634923	0.22195868
31	0xbe0a87ad	-0.13528319
32	0x3e5e9479	0.21736325
33	0xbe22c40e	-0.15895101
34	0x3e74ef79	0.23919477
35	0xbc52c7ce	-0.01286502
36	0xbcad8602	-0.021182064
37	0x3d0494f1	0.032368604
38	0xbda78586	-0.081797644
39	0x3d9645b3	0.07337513
40	0xbd73025c	-0.059328422
41	0x3e1f2d1d	0.15544553
42	0x3bd189b4	0.0063945893
43	0x3d98bcd5	0.07457892
44	0xbe620840	-0.2207346
45	0x388558b1	6.358454e-05
46	0x3e09b582	0.13448146
47	0x3d974981	0.07387067
48	0xbe010443	-0.12599282
49	0x3e785869	0.24252476
50	0x3e1f3e9b	0.15551226
51	0xbe244ec8	-0.16045678
52	0xbbcdbcfd	-0.0062786327
53	0xbda5ac23	-0.08089473
54	0xbe551cfb	-0.20811836
55	0xbe34936e	-0.17634365
56	0x3d1d8c1f	0.038463708
57	0xbe311092	-0.17291477
58	0x3e013b4a	0.12620273
59	0xbdba0b88	-0.09084231
60	0xbd48df0a	-0.04904083
61	0xbcebeaaa	-0.02879842
62	0xbe5b5251	-0.2141812
63	0xbc6a31f9	-0.014294141

patch_embed.3.weight f4 [64, 16]
0	0x3e081c24	0.13291985
1	0x3e62924e	0.22126123
2	0xbe2750e0	-0.16339445
3	0xbc1b09df	-0.009462803
4	0xbe263093	-0.16229467
5	0xbcdd6419	-0.02702527
6	0xbe6d407a	-0.23169127
7	0x3e4744a7	0.19459783
8	0x3e2109ac	0.15726346
9	0x3d0afffb	0.03393553
10	0x3c674a4b	0.014116834
11	0x3cbec002	0.023284916
12	0x3e3737ac	0.17892331
13	0x3c4e8be1	0.012606592
14	0xbd0f8f0c	-0.03504853
15	0x3e506640	0.20351505
16	0x3e5db927	0.21652661
17	0xbd30254f	-0.04300433
18	0x3e398c09	0.18119825
19	0x3dd206ee	0.10255228
20	0x3d94484d	0.07240353
21	0xbe2a495a	-0.16629544
22	0x3e4baffb	0.1989135
23	0xbd1b664d	-0.03793936
24	0xbe05502a	-0.13018861
25	0xbdda7874	-0.10667506
26	0xbe696cea	-0.22795454
27	0x3deec58d	0.116587736
28	0x3e283ec3	0.16430192
29	0x3e6970e9	0.22796978
30	0xbdfd694b	-0.12373599
31	0x3e1334a2	0.14375547
32	0xbd494927	-0.04914203
33	0xbdf40abb	-0.11916109
34	0x3dedcc34	0.11611214
35	0x3d9cf2ba	0.07663484
36	0xbe0ae83a	-0.1356515
37	0x3e18f4e5	0.1493717
38	0xbe2e7b7a	-0.1703929
39	0x3e57217a	0.21008864
40	0x3d9bcae9	0.076070614
41	0xbd6f7807	-0.058464076
42	0x3dd2ce98	0.10293311
43	0x3e3daf2b	0.18523853
44	0x3d916eac	0.07101187
45	0xbd0c5a45	-0.034265775
46	0x3d939645	0.07206396
47	0xbe2553fa	-0.16145316
48	0x3e55ae49	0.20867266
49	0x3e2962d8	0.16541612
50	0x3e28a413	0.1646884
51	0xbe60cbee	-0.21952793
52	0xbe0b6484	-0.13612562
53	0x3e7683d5	0.24073727
54	0xbce1ee45	-0.027579436
55	0x3e6f0f68	0.23345721
56	0x3d99565b	0.07487174
57	0x3dc72102	0.097230926
58	0x3c165252	0.0091749
59	0x3b6a1728	0.0035719369
60	0x3de193eb	0.11014541
61	0x3e1612f3	0.14655666
62	0xbe50a557	-0.20375572
63	0xbe56a96c	-0.20963067
64	0xbc950fb7	-0.01819597
65	0xbe59ff07	-0.21288691
66	0xbe2b4ad8	-0.1672777
67	0x3d2e2a07	0.04252055
68	0xbc50fd8c	-0.012755763
69	0xbe108309	-0.14112486
70	0x3e60b67d	0.21944614
71	0x3e59da12	0.21274593
72	0xbdd41fab	-0.10357603
73	0xbe1d2a2b	-0.15348117
74	0xbe4acb3a	-0.19804087
75	0xbe5184d3	-0.20460825
76	0xbd9bfba8	-0.07616359
77	0x3e106c15	0.1410373
78	0xbd19da8f	-0.03756195
79	0xbc58b2de	-0.013226239
80	0x3e6f11ac	0.23346585
81	0xbbfd96ad	-0.007738909
82	0xbd6fb23b	-0.058519583
83	0xbc99b496	-0.018762868
84	0x3e335b9c	0.17515415
85	0xbc204fa1	-0.00978461
86	0x3e0145b4	0.12624246
87	0x3deb2173	0.11480989
88	0xbd306e17	-0.04307374
89	0xbd968178	-0.07348913
90	0x3e2d9412	0.16951016
91	0xbd98de85	-0.07464317
92	0x3e6b67b3	0.22988777
93	0x3dfce0a3	0.123475336
94	0x3a02f732	0.00049959414
95	0xbd96dea9	-0.07366688
96	0x3e2da52f	0.16957544
97	0xbe80bf26	-0.25145835
98	0xbc68dd39	-0.0142129
99	0x3e6f2956	0.23355612
100	0x3cb7daf3	0.02244327
101	0xbe341845	-0.17587383
102	0x3e5a47b4	0.21316415
103	0xbe30cc58	-0.17265451
104	0x3e0b33e8	0.1359402
105	0x3d8631c7	0.06552463
106	0x3d92e398	0.07172316
107	0x3dfb1cdf	0.12261366
108	0xbe6542c7	-0.22388755
109	0x3e323e37	0.17406546
110	0xbdb5fc9a	-0.088860705
111	0xbda55df7	-0.08074563
112	0x3e1cda30	0.15317607
113	0xbdfbe6e8	-0.12299901
114	0xbd8d8ce0	-0.069116354
115	0x3e70a5c6	0.23500738
116	0x3e6e05fb	0.23244469
117	0x3e5ff3d1	0.21870352
118	0xbd9fc75c	-0.07801697
119	0xbe57117b	-0.21002762
120	0xbdb710ea	-0.08938773
121	0xbe12b3d2	-0.14326409
122	0xbe75cbb5	-0.2400349
123	0x3d64187c	0.055687413
124	0x3ddb81f7	0.10718148
125	0x3d589877	0.052879777
126	0x3c34ca27	0.011034525
127	0xbe2ffae2	-0.17185548
128	0xbde9982b	-0.11405977
129	0x3dbf56e6	0.093427464
130	0x3da96ba9	0.08272488
131	0x3e4d1901	0.2002907
132	0xbca557be	-0.02018344
133	0xbcc45747	-0.023967398
134	0xbe7aca78	-0.24491298
135	0x3e644423	0.22291617
136	0xbd025fd3	-0.031829666
137	0x3e66b2cf	0.22529148
138	0x3d7d04c5	0.061772127
139	0x3e38dd10	0.18053079
140	0xbe561824	-0.20907646
141	0x3d948f49	0.07253892
142	0x3e70e053	0.23523073
143	0x3e26cdc3	0.1628943
144	0x3e59ce92	0.21270207
145	0xbe36290b	-0.17789094
146	0xbe0f7604	-0.14009863
147	0xbe6ac976	-0.22928414
148	0x3d2ded92	0.042462893
149	0x3e20117e	0.15631673
150	0xbd8a38bb	-0.06749102
151	0x3d900704	0.07032588
152	0x3e3e2b81	0.18571283
153	0x3e77c14d	0.24194832
154	0x3e467a28	0.19382536
155	0x3e7f1e29	0.24913849
156	0x3b9dd1a9	0.004816253
157	0xbe44b850	-0.19210935
158	0xbdee267e	-0.116284356
159	0xbe1af676	-0.1513308
160	0x3d84713c	0.0646691
161	0x3e0a29a4	0.13492447
162	0x3e1a05a1	0.1504121
163	0xbe5f2735	-0.217923
164	0xbd0eb316	-0.03483876
165	0xbe74cdb0	-0.23906589
166	0xbe14df3d	-0.14538284
167	0x3e0e86e9	0.13918652
168	0xbe18358a	-0.14864174
169	0x3d715f6a	0.058928885
170	0x3d9e06c4	0.07716134
171	0xbe2bb79e	-0.16769263
172	0x3df92998	0.121661365
173	0xb994f1ad	-0.00028408822
174	0xbe3aafed	-0.18231173
175	0xbda2f551	-0.07956947
176	0x3e39fa86	0.18161973
177	0xbd4d591f	-0.05013382
178	0x3c3aa597	0.011392019
179	0xbde18e9b	-0.11013528
180	0x3e78b03d	0.2428598
181	0xbe45aa5d	-0.1930327
182	0x3da1cd5d	0.07900498
183	0x3e1819d3	0.14853601
184	0xbd7d6563	-0.061864268
185	0xbe2ffbd7	-0.17185913
186	0x3d5be897	0.05368861
187	0xbd1a1318	-0.037615865
188	0x3e6a7696	0.228968
189	0x3c9d108b	0.019172927
190	0xbe64db84	-0.22349364
191	0x3d47ce2e	0.048780613
192	0xbe0fb566	-0.14034042
193	0xbe087c2b	-0.13328616
194	0xbd92d7fe	-0.071701035
195	0xbe0ebb59	-0.13938655
196	0x3e35ce7b	0.17754547
197	0x3db177d4	0.086654335
198	0xbe169546	-0.14705381
199	0x3db2e59b	0.087352
200	0x3e370134	0.17871553
201	0xbe08eaaa	-0.13370767
202	0x3e06de26	0.1317068
203	0x3d11d905	0.035607357
204	0x3cf95292	0.03043488
205	0x3e649275	0.22321494
206	0x3e0094b3	0.12556724
207	0xbe46915e	-0.1939139
208	0x3c865970	0.016400069
209	0x3a8f2408	0.0010920772
210	0xbe0e5db2	-0.1390293
211	0xbe65a7a7	-0.22427236
212	0xbe0c29f4	-0.13687879
213	0xbe0ff62b	-0.1405875
214	0xbda99a17	-0.082813434
215	0x3d4cb56c	0.049977705
216	0xbdb1368e	-0.086529836
217	0x3e444b6e	0.19169399
218	0xbe6aeefc	-0.22942728
219	0x390f45d6	0.00013663559
220	0xbd8dee7b	-0.06930252
221	0xbe602ec2	-0.21892837
222	0xbc8a4ae6	-0.016881417
223	0xbe4f71c7	-0.20258246
224	0xbe4dcc6d	-0.20097513
225	0x3e19494b	0.14969365
226	0xbe6d62e8	-0.23182261
227	0x3e35e777	0.17764078
228	0x3dcc09ab	0.099627815
229	0xbcec59fd	-0.028851504
230	0x3e0f1c52	0.13975647
231	0x3e678224	0.22608238
232	0xbddf4292	-0.10901369
233	0x3e5282bf	0.20557688
234	0x3e1e1239	0.15436639
235	0x3e453fa9	0.19262566
236	0xbd856ba7	-0.06514674
237	0x3e77c586	0.24196443
238	0x3e74b6b0	0.23897815
239	0xbe6a03a4	-0.22852951
240	0x3e246fb4	0.16058236
241	0x3cf4ec8e	0.029897954
242	0x3d79017e	0.06079244
243	0x3e145d5c	0.14488739
244	0x3dd41b8f	0.10356819
245	0x3e77c3b4	0.24195749
246	0xbe78e619	-0.24306525
247	0x3e1ac9d0	0.15116048
248	0x3e6048c7	0.21902762
249	0xbe2d9dae	-0.16954681
250	0xbd0f4ce2	-0.03498543
251	0x3db4f024	0.08834866
252	0x3d483364	0.048877135
253	0x3c9a8ca7	0.018865896
254	0xbd245a6c	-0.040125296
255	0x3d1aba10	0.0377751

patch_embed.3.bias f4 [64]
0	0x3e2a13de	0.16609141
1	0xbdfbcd82	-0.12295057
2	0x3e4987f0	0.19680762
3	0xbc17377e	-0.009229539
4	0x3e3edbd1	0.18638541
5	0xbe2ff16f	-0.17181943
6	0x3e392a38	0.18082511
7	0x3de5f8dc	0.11229107
8	0xbd5d0485	-0.05395939
9	0xbe16688d	-0.1468832
10	0xbe2d0ea2	-0.16900113
11	0xbd293c1f	-0.0413171
12	0xbe37ae19	-0.17937507
13	0xbda0d776	-0.07853596
14	0x3db4699f	0.08809208
15	0xbe09c0cd	-0.13452454
16	0xbdd76792	-0.10517801
17	0xbde621e4	-0.11236933
18	0xbdc75e89	-0.09734828
19	0xbe1eda2d	-0.15512915
20	0x3e50aa72	0.2037752
21	0xbe30759a	-0.17232361
22	0x3daf1f7f	0.08550929
23	0xbe0c3434	-0.13691789
24	0x3e471e16	0.1944507
25	0x3e1a8e56	0.1509336
26	0x3e3e6542	0.18593314
27	0x3ce3142a	0.027719576
28	0xbe3d201e	-0.18469283
29	0xbd5ad375	-0.053424317
30	0x3e0172e6	0.12641487
31	0xbe2a3714	-0.16622573
32	0xbd769299	-0.0601984
33	0x3e4a1bff	0.19737242
34	0xbde644a9	-0.11243565
35	0xbe3b1240	-0.1826868
36	0x3e2e5768	0.1702553
37	0x3e70249a	0.23451462
38	0xbe65caac	-0.22440594
39	0xbdaa2ec0	-0.08309698
40	0x3da53775	0.08067218
41	0x3ded278b	0.11579808
42	0x3e0edda0	0.1395173
43	0x3d0bf2c9	0.034167085
44	0x3d1f5ff7	0.03890988
45	0x3e4889a6	0.19583759
46	0xbe808d76	-0.25107926
47	0xbe1e0776	-0.15432534
48	0x3dec89c0	0.11549711
49	0x3dd87c16	0.105705425
50	0x3d00c0d9	0.031433914
51	0xbcf26b86	-0.029592287
52	0x3df65e3e	0.12029694
53	0xbe07a678	-0.13247097
54	0x3dd37fde	0.10327123
55	0x3cf3a37f	0.029741047
56	0xbd08f9a5	-0.033441205
57	0xbe0fe531	-0.14052273
58	0xbdd3d857	-0.10343998
59	0x3e4cc58b	0.19997232
60	0xbd84ea33	-0.064899825
61	0x3cbacefa	0.022803772
62	0x3e0b8bed	0.13627596
63	0x3e2d61f1	0.16931893

patch_embed.4.weight f4 [64, 16]
0	0xbdd795b0	-0.105265975
1	0xbe5fca9e	-0.21854636
2	0x3e805ae3	0.2506934
3	0xbd38ae51	-0.045088116
4	0x3e251b24	0.16123635
5	0xbda9c9a3	-0.08290412
6	0x3c81c63f	0.015841601
7	0xbb808310	-0.003921874
8	0x3e8146df	0.25249383
9	0xbda7daae	-0.08196007
10	0x3d34d037	0.04414388
11	0xbdcfee70	-0.101529
12	0x3e6ebd9d	0.23314519
13	0xbe70b9cc	-0.23508376
14	0x3dae9395	0.08524243
15	0xbd5f7fde	-0.054565303
16	0xbe7a70ce	-0.24457094
17	0x3d80958e	0.06278525
18	0x3d0ed3e8	0.03487006
19	0xbd9712eb	-0.07376655
20	0xbe75ffd9	-0.2402338
21	0x3e515a5e	0.20444629
22	0xbd4cff19	-0.050047968
23	0x3d36c342	0.044619806
24	0xbe268f5a	-0.16265622
25	0xbdd54497	-0.10413473
26	0xbd80c39c	-0.062873095
27	0x3e73d60b	0.2381212
28	0xbe6e0986	-0.2324582
29	0x3e1ffbf4	0.15623456
30	0x3e753b73	0.2394846
31	0x3d438584	0.047734752
32	0x3dd7eb7d	0.10542963
33	0xbe407aa2	-0.1879678
34	0x3e54a833	0.20767288
35	0x3e274624	0.1633535
36	0xbe041149	-0.12897219
37	0x3d9b24db	0.07575389
38	0x3db36cb6	0.08760969
39	0x3e7af5e3	0.24507861
40	0xbd95bfca	-0.073119715
41	0xbcb3f591	-0.021967681
42	0x3e524322	0.20533422
43	0x3e40a317	0.18812214
44	0x3e08b56f	0.13350461
45	0x3de2af13	0.11068549
46	0x3e1352dd	0.14387079
47	0x3e0f03fe	0.13966367
48	0xbe653e7c	-0.22387117
49	0xbe5c7b97	-0.21531521
50	0x3e177b92	0.14793232
51	0x3e633477	0.22187982
52	0xbe40040a	-0.18751541
53	0xbcdcf8b9	-0.026974069
54	0x3e171bd5	0.14756711
55	0x3e3d96cc	0.18514556
56	0xbe79abb3	-0.24381904
57	0x3d3685f9	0.04456136
58	0x3e1feb7a	0.15617171
59	0x3dc0f11c	0.09420988
60	0x3e552e27	0.20818387
61	0x3e5432cd	0.20722504
62	0x3d8129d2	0.06306805
63	0xbe206665	-0.1566406
64	0x3cd97f06	0.026549827
65	0x3e404b0d	0.1877863
66	0x3d5de7d3	0.054176163
67	0xbc84925d	-0.016183073
68	0xbe677f8f	-0.22607253
69	0xbe577f4a	-0.2104465
70	0x3e5a9a66	0.21347961
71	0xbe021308	-0.12702572
72	0xbd0623bf	-0.032748934
73	0x3e18c3b8	0.14918411
74	0xbdd09928	-0.10185462
75	0x3d1e78d6	0.038689457
76	0x3e0c0d30	0.13676906
77	0x3e45046e	0.19239971
78	0x3e0021a8	0.12512839
79	0x3d1ba935	0.038003165
80	0xbe708fea	-0.23492399
81	0x3e028e44	0.12749583
82	0x3c1a7955	0.009428342
83	0x3e1b0f0b	0.15142457
84	0xbde34536	-0.11097185
85	0xbe808220	-0.25099277
86	0xbe5bd565	-0.21468122
87	0xbe25aa1f	-0.16178177
88	0x3d3b8bbd	0.04578756
89	0xbdffae16	-0.12484376
90	0x3e3bff0f	0.18359016
91	0xbe2061e5	-0.15662344
92	0x3e54e915	0.20792039
93	0xbc910ef7	-0.017707331
94	0xbdddfb35	-0.108389296
95	0xbdff1fed	-0.12457261
96	0x3deac513	0.1146337
97	0x3d9cdf72	0.07659806
98	0x3d6593e4	0.056049243
99	0xbd7aaaad	-0.061197925
100	0xbda08964	-0.07838705
101	0xbe30f902	-0.17282489
102	0x3c14df50	0.009086445
103	0x3e6d088e	0.23147795
104	0x3dc7a1bd	0.09747646
105	0xbd5ab3a3	-0.05339397
106	0x3dff4645	0.12464575
107	0x3d5c1e3f	0.053739782
108	0x3de72a3a	0.11287351
109	0xbd71a983	-0.05899955
110	0x3c594e41	0.013263286
111	0x3e7da1ba	0.24768725
112	0xbe4c067f	-0.19924353
113	0xbdad7f6c	-0.084715694
114	0x3e0cf18e	0.13764021
115	0xbcf7de61	-0.030257406
116	0x3e2ad3c3	0.16682343
117	0x3e5657e2	0.20931962
118	0xbe293cfb	-0.16527168
119	0xbd066735	-0.03281327
120	0x3dbf28a2	0.09333922
121	0xbe45f4c9	-0.1933166
122	0xbcf6b3fa	-0.030115116
123	0x3de711c3	0.11282685
124	0x3e6c66b4	0.23086053
125	0x3bfc817b	0.007705865
126	0x3da8c814	0.08241287
127	0x3e2b123e	0.16706178
128	0xbd996524	-0.07489994
129	0x3e5abd40	0.21361256
130	0xbe18b019	-0.14910926
131	0xbe659f61	-0.2242408
132	0x3c18e205	0.009331231
133	0xbe44cce1	-0.1921878
134	0xbe284fcf	-0.16436695
135	0x3cf96ff8	0.030448899
136	0xbe623c6e	-0.22093365
137	0x3e1b734e	0.15180704
138	0x3d8a7f06	0.06762509
139	0xbe7a02f4	-0.24415189
140	0x3e415fb6	0.18884167
141	0xbe5c6eb8	-0.21526611
142	0xbcb259fd	-0.021771425
143	0x3e35578f	0.17709182
144	0x3d69f10f	0.057114657
145	0x3e22ed00	0.15910721
146	0xbd292e08	-0.041303664
147	0xbe4bddb1	-0.19908787
148	0xbe7b86da	-0.2456316
149	0x3e68208a	0.22668663
150	0xbe0e6dcb	-0.1390907
151	0xbd6af04d	-0.057358075
152	0xbe1a2c35	-0.15055926
153	0x3e7983fb	0.24366753
154	0x3dc3f1de	0.09567617
155	0x3e3e422d	0.18579932
156	0xbe4269e6	-0.1898571
157	0xbdac28d9	-0.084062286
158	0x3e6eba2b	0.23313205
159	0xbe6c3d86	-0.23070344
160	0x3e141029	0.1445929
161	0x3e01d5a7	0.12679158
162	0x3e70177c	0.23446459
163	0xbde97bd6	-0.11400573
164	0x3de52fbf	0.111907475
165	0x3d03d177	0.032182183
166	0xbe019e03	-0.12657933
167	0xbaf5c215	-0.0018749858
168	0x3e629b0e	0.22129461
169	0xbe1f8759	-0.15578975
170	0xbe3766d9	-0.17910327
171	0xbb23bc66	-0.002498412
172	0xbe20aad2	-0.15690163
173	0xbe60067d	-0.21877475
174	0xbe3cde2d	-0.18444128
175	0x3e333470	0.17500472
176	0x3e6e9c6e	0.2330186
177	0xbd8ff381	-0.070288666
178	0xbe7d6665	-0.24746092
179	0xbdda7e17	-0.10668581
180	0x3d446c61	0.04795492
181	0x3e71ecb2	0.23625448
182	0x3cb7359b	0.022364428
183	0xbe1fddec	-0.15612
184	0x3e56f69e	0.20992514
185	0xbe037516	-0.12837633
186	0xbcb8963d	-0.022532577
187	0x3dd4f65c	0.10398552
188	0xbe2c997e	-0.16855428
189	0x3e2a6fe5	0.16644247
190	0x3de628d3	0.11238255
191	0x3dad2025	0.08453397
192	0xbe652f95	-0.22381432
193	0xbe02a76c	-0.12759179
194	0xbe706a8d	-0.23478146
195	0xbe0fbbe5	-0.1403652
196	0xbe5e7c1f	-0.21727036
197	0x3ceb4496	0.028719228
198	0xbe78623b	-0.24256222
199	0x3e2f97de	0.17147776
200	0xbdf85e50	-0.12127364
201	0xbe128b2c	-0.14310902
202	0xbe44d2b9	-0.1922101
203	0x3e6bf1bc	0.23041433
204	0xbd93bfd5	-0.072143234
205	0x3c9b1950	0.018932968
206	0xbe7edb3b	-0.24888317
207	0x3ce36672	0.02775881
208	0xbd5ec744	-0.054389253
209	0xbd5957f8	-0.05306241
210	0xbce7a68a	-0.028277654
211	0xbc6da124	-0.014503751
212	0xbd1d73bc	-0.03844045
213	0xbd8b9d30	-0.068170905
214	0xbe1d28b5	-0.1534756
215	0x3e63923b	0.22223751
216	0xbe14c585	-0.14528473
217	0xbdbbe650	-0.09174788
218	0x3e0dc99c	0.13846439
219	0xbdee2100	-0.11627388
220	0xbbb3ad5d	-0.005483313
221	0xbe60b819	-0.21945228
222	0xbe827727	-0.2548153
223	0xbe664de8	-0.22490656
224	0x3e47db81	0.19517328
225	0x3bb91492	0.005648204
226	0x3de81313	0.11331763
227	0xbe704205	-0.23462684
228	0xbe4648cc	-0.19363707
229	0xbd5e5677	-0.054281678
230	0xbdea2de6	-0.11434536
231	0x3e510508	0.20412076
232	0xbe675970	-0.22592711
233	0xbe1151cd	-0.14191361
234	0xbc90af6f	-0.017661778
235	0xbe11deaf	-0.14245103
236	0x3d492306	0.049105667
237	0x3db154a6	0.086587235
238	0x3d37a6a5	0.04483666
239	0x3e556f23	0.20843177
240	0xbb7ebe83	-0.0038870878
241	0x3e5e4736	0.21706852
242	0xbc1ab91b	-0.009443547
243	0xbe1e9998	-0.15488279
244	0xbd4a3375	-0.04936548
245	0xbe1fdb7c	-0.1561107
246	0xbdb094de	-0.08622144
247	0xbe051f3e	-0.13000199
248	0x3ddc0e9d	0.10744975
249	0xbda24e6b	-0.07925113
250	0x3cfcfd8b	0.030882617
251	0x3d5f627b	0.054537278
252	0xbd55447c	-0.052067265
253	0x3ba292f4	0.004961366
254	0xbe574936	-0.21024022
255	0x3e63fc40	0.22264194

patch_embed.4.bias f4 [64]
0	0x3d4a30bd	0.049362887
1	0xbe5d92ae	-0.21637985
2	0x3b8cfde0	0.004302725
3	0x3d2f37a8	0.042777687
4	0x3df16c23	0.117882036
5	0x3e0af28f	0.13569091
6	0x3e3eec28	0.18644774
7	0x3cea189e	0.028576192
8	0xbe48aedf	-0.19597958
9	0x3e4e070b	0.20119874
10	0xbc73859e	-0.0148634
11	0x3e033bf1	0.12815835
12	0x3d38fcbf	0.045162912
13	0xbd66ac25	-0.056316514
14	0xbdbe515a	-0.0929286
15	0xbe4973d6	-0.19673094
16	0x384a7c58	4.8276357e-05
17	0xbe543742	-0.20724204
18	0x3da12ec7	0.0787025
19	0xbe00af53	-0.12566881
20	0xbc9f8a6c	-0.019475184
21	0x3d174115	0.0369273
22	0x3d8ccfd4	0.068755776
23	0x3da7da04	0.0819588
24	0x3e03534c	0.12824744
25	0xbe023e21	-0.12719013
26	0x3d37ad37	0.044842925
27	0xbe667fe7	-0.22509728
28	0xbdb37d29	-0.08764107
29	0x3e22345e	0.15840289
30	0x3dae0fbf	0.08499097
31	0xbe2cf844	-0.16891581
32	0xbdb7dc6c	-0.08977589
33	0xbdce529d	-0.10074351
34	0x3d777c73	0.06042142
35	0xbe2316c8	-0.15926659
36	0xbd051ae5	-0.03249635
37	0xbdcf9a81	-0.10136891
38	0xbe7dba20	-0.24778032
39	0xbe4a4edd	-0.19756646
40	0x3d40482b	0.046943825
41	0xbe730067	-0.23730622
42	0xbe7d34e9	-0.24727215
43	0xbdffd9da	-0.12492724
44	0xbe25cfdf	-0.16192578
45	0x3b8edcb7	0.0043598074
46	0x3bde9b66	0.0067934273
47	0xbe4ad8ec	-0.19809312
48	0xbd4d790e	-0.050164275
49	0x3dbab6d4	0.09116903
50	0x3daa14cb	0.08304747
51	0xbe179c3d	-0.14805694
52	0xb94e2488	-0.000196593
53	0x3e70c5d4	0.23512965
54	0xbe6bc5d0	-0.23024678
55	0x3e6572a7	0.22407018
56	0x3dfe4279	0.124150224
57	0xbd3f702d	-0.04673784
58	0x3e0bc23e	0.13648316
59	0x3e4cd5a4	0.20003372
60	0x3dceb27a	0.100926355
61	0x3e062262	0.13099054
62	0x3e0340c4	0.12817675
63	0xbe381a2b	-0.17978732
