checkpoints/patchtst_1769146826.pth (torch, 531028 bytes, 97 tensors)

positional f4 [1, 7, 64]
-0.004797208 -0.0014541374 -0.016795998 -0.033936035 0.02013035 0.01435298 0.027323361 -0.044119623
0.016922785 -0.0043148743 0.0013922623 -0.03579635 -0.023309752 0.023607435 -0.025516711 0.029447833
-0.0021762094 -0.029226348 -0.026969047 -0.005930933 0.016449252 0.004250622 0.048166156 0.016385706
-0.006334393 -0.0062051928 0.05183228 0.007829997 0.005778146 -0.017709477 0.009443323 -0.0168627
0.0016749386 -0.022708189 -0.0038774798 -0.029940166 0.0035361026 -0.000434643 0.05241986 0.011802798
0.021097172 -0.018783005 0.03789833 -0.01416529 0.018347958 -0.03776831 0.00036766744 0.039229818
-0.031520154 0.037783023 0.04254035 0.003938864 -0.010048212 -0.03894524 -0.035791613 -0.0064319246
-0.017383872 -0.024197903 0.012582788 0.040410887 0.025429968 0.011192096 0.03320943 -0.011491181
-0.0027362315 -0.019664 -0.03305511 0.040270995 -0.012718905 0.012316853 -0.026923586 0.0110770585
0.021354644 -0.011786809 -0.013898076 0.036291678 0.023433808 -0.039526857 0.020467862 0.0107013825
-0.0012787926 0.002103026 0.006334451 -0.029717183 0.032490827 0.008166353 0.011505708 0.00869717
-0.013832767 0.029122092 -0.01922187 -0.006446921 0.021332541 0.025948465 0.0036938894 0.036330067
0.013011682 0.009328768 0.027193008 0.017509207 0.014597057 -0.011305371 -0.017219946 -0.0030038347
-0.031176368 0.0054821135 0.0062056435 -0.0203845 0.024345268 -0.004573582 0.0047569983 0.046060033
0.031849034 0.019322969 0.020349272 -0.016668368 0.015563868 0.019037696 0.008929944 -0.009066325
-0.014199187 0.012659017 -0.014728535 -0.010386247 -0.009544157 0.020409979 0.006600572 0.016471555
0.0026660103 -0.008555069 0.009457967 0.0038519588 -0.0013505948 0.03301636 0.0063949195 -0.019810654
0.023466406 -0.017062087 -0.01682795 0.021735316 0.0064789737 -0.026753316 0.033737287 0.023748582
-0.021323416 -0.017331624 0.0073236153 -0.001583391 0.006190687 -0.01139975 -0.005729015 -0.012858763
-0.011490596 -0.021125251 -0.012176348 -0.00055827654 -0.033934947 0.004048581 -0.012609575 0.0028025366
-0.0026397284 -0.0153198615 -0.013520811 -0.013633687 0.02433303 0.0031732053 0.04748733 -0.03868591
0.020385733 0.066085614 -0.018000409 0.027747944 0.0017535731 -0.04086265 -0.0036472064 0.038570486
0.022862654 -0.0031534368 -0.013364971 0.0044610184 0.0012578372 -0.011606159 -0.0075323484 -0.031103756
0.011722061 0.005146834 0.018974412 -0.008489799 -0.017687421 0.039787963 -0.0028135206 0.046529263
-0.004564097 0.0072903545 -0.036982086 -5.99347e-05 0.014386959 0.020353649 -0.014606871 0.0050372398
0.00083939306 -0.03167298 -0.0036145668 0.025125217 -0.024894498 -0.029543178 -0.0138986055 -0.0006658849
0.0018056668 0.042563546 -0.014191439 0.010907338 -0.017691696 0.054155566 0.0011978652 0.021585153
-0.022811443 -0.023340818 0.00029901293 0.015440861 -0.027575089 0.021754969 -0.022769546 -0.0072836503
-0.026893351 -0.0040053544 -0.052676678 0.0015067022 -0.010679536 -0.0053775827 -0.022364952 -0.009954042
-0.007361546 0.018578779 -0.0031706824 0.011605803 -0.011980798 -0.005839454 0.0021726156 0.0051188325
-0.01532013 0.016161023 -0.027858889 0.0074899825 0.0015463476 0.0309684 0.0076699695 -0.023023501
-0.018523756 0.02220764 0.0030441685 0.009989753 -0.020414708 -0.024157023 0.010338861 -0.01783841
00000000: e631 9dbb c198 beba c397 89bc 8300 0bbd
00000010: 67e8 a43c c328 6b3c 3ed5 df3c c7b6 34bd
00000020: a7a1 8a3c ca63 8dbb 927c b63a 329f 12bd
00000030: 18f4 bebc 6164 c13c 6c08 d1bc 953c f13c
00000040: bc9e 0ebb 186c efbc 31ee dcbc 4658 c2bb
00000050: 95c0 863c cd48 8b3b e049 453d 513b 863c
00000060: bd90 cfbb ee54 cbbb 164e 543d 6349 003c
00000070: 9a56 bd3b 7713 91bc 2bb8 1a3c a523 8abc
00000080: 9d89 db3a 8606 babc 511d 7ebb 1445 f5bc
00000090: f5bd 673b cce0 e3b9 35b6 563d 8660 413c
000000a0: fad3 ac3c d1de 99bc 473b 1b3d 8815 68bc
000000b0: 754e 963c f2b2 1abd 7dc3 c039 72af 203d
000000c0: 471b 01bd 5fc2 1a3d ca3e 2e3d 9611 813b
000000d0: 41a1 24bc 0b85 1fbd 3a9a 12bd e5c2 d2bb
000000e0: 9f68 8ebc ae3a c6bc 0a28 4e3c e385 253d
000000f0: 8252 d03c 0e5f 373c 9c06 083d 8245 3cbc
00000100: 5952 33bb 6616 a1bc cc64 07bd 33f3 243d
00000110: f462 50bc a0cc 493c da8e dcbc 8d7c 353c
00000120: efef ae3c 761d 41bc c1b4 63bc 95a6 143d
00000130: 42f8 bf3c eae6 21bd 38ac a73c da54 2f3c
00000140: 299d a7ba ecd2 093b 3a91 cf3b 7371 f3bc
00000150: 1a15 053d 2bcc 053c 7082 3c3c 937e 0e3c
00000160: d4a2 62bc 7491 ee3c 2f77 9dbc b140 d3bb
00000170: 95c1 ae3c e091 d43c 2e15 723b d6ce 143d
00000180: f32e 553c b0d7 183c dfc3 de3c 786f 8f3c
00000190: 7f28 6f3c 2a3a 39bc d810 8dbc fcdb 44bb
000001a0: 9565 ffbc 4da3 b33b b658 cb3b 65fd a6bc
000001b0: ba6f c73c fddd 95bb 98e0 9b3b 72a9 3c3d
000001c0: 2274 023d 344b 9e3c 84b3 a63c 1a8c 88bc
000001d0: 98ff 7e3c f1f4 9b3c e64e 123c ec8a 14bc
000001e0: b5a3 68bc c467 4f3c f44f 71bc 142b 2abc
000001f0: 195f 1cbc d432 a73c 9c49 d83b 5bef 863c
00000200: 3bb8 2e3b 8f2a 0cbc 97f5 1a3c 2571 7c3b
00000210: 7106 b1ba 2a3c 073d 798c d13b f449 a2bc
00000220: 9f3c c03c cac5 8bbc c5da 89bc 430e b23c
00000230: 924d d43b c529 dbbc 1c30 0a3d 638c c23c
00000240: 72ae aebc 0dfb 8dbc f0fa ef3b c989 cfba
00000250: 3fdb ca3b 04c6 3abc 76ba bbbb 90ad 52bc
00000260: 0e43 3cbc dd0e adbc 4e7f 47bc 4e59 12ba
00000270: 5fff 0abd f5a9 843b 6498 4ebc c3aa 373b
00000280: 4bff 2cbb 2800 7bbc 6486 5dbc d45f 5fbc
00000290: 1056 c73c 8df5 4f3b 1382 423d 1e75 1ebd
000002a0: fbff a63c e557 873d 9875 93bc a84f e33c
000002b0: 26d8 e53a 985f 27bd f805 6fbb 16fc 1d3d
000002c0: 764a bb3c e4a9 4ebb c0f8 5abc bc2d 923b
000002d0: 03de a43a c227 3ebc ebd1 f6bb 4ecd febc
000002e0: e30d 403c c6a6 a83b 3a70 9b3c cc18 0bbc
000002f0: 36e5 90bc b4f8 223d 0b63 38bb 7895 3e3d
00000300: 6c8e 95bb ede3 ee3b 877a 17bd 6562 7bb8
00000310: 48b7 6b3c b2bc a63c a851 6fbc 6e0f a53b
00000320: b70a 5c3a 87bb 01bd 5ee2 6cbb 66d3 cd3c
00000330: 8cef cbbc 8904 f2bc fab6 63bc c78e 2eba
00000340: 20ac ec3a 1d57 2e3d 3683 68bc b1b4 323c
00000350: 2dee 90bc 3ad2 5d3d b001 9d3a 59d3 b03c
00000360: 10df babc 3e35 bfbc d6c4 9c39 aafb 7c3c
00000370: 27e5 e1bc 7a37 b23c 3387 babc b0ab eebb
00000380: 724f dcbc 593f 83bb 80c3 57bd 897c c53a
00000390: 38f9 2ebc 6f36 b0bb b436 b7bc 4716 23bc
000003a0: 2039 f1bb 8632 983c 39cb 4fbb 4426 3e3c
000003b0: 1c4b 44bc e458 bfbb 7162 0e3b e1bb a73b
000003c0: 4801 7bbc 1f64 843c 5338 e4bc 876e f53b
000003d0: d1ae ca3a 71b1 fd3c 5e54 fb3b c89b bcbc
000003e0: 22bf 97bc ccec b53c ac80 473b 10ac 233c
000003f0: bf3c a7bc f3e4 c5bc 5364 293c db21 92bc

patch_embed.0.weight f4 [64, 16]
-0.009431022 0.17012139 -0.2018783 -0.120362595 0.08519981 -0.2148235 0.122733235 0.06426275
-0.07280925 0.23239906 0.1721636 -0.23185922 0.11536051 0.22059827 0.16325617 -0.22046168
0.058596514 0.05959383 0.19487235 0.0010502889 -0.048578374 0.20722085 0.19014375 -0.1817283
-0.2083291 0.05016424 0.25444147 -0.09939022 0.25234744 0.13129257 -0.20756224 0.045058943
0.14543821 -0.04775787 0.1765416 0.14004031 -0.20093688 0.19064042 -0.023816735 0.109453276
0.045063052 0.030561037 0.06692687 0.010209354 -0.14571251 0.09634106 -0.10477802 0.20814411
-0.1799466 0.15782769 0.11880802 -0.068980694 -0.19958691 -0.14217779 0.049027026 -0.12762266
0.06527708 -0.0035698388 0.22412129 0.18109918 -0.16895314 -0.12643111 -0.025469994 -0.08522841
0.19776152 -0.049083028 0.106158726 0.17058589 0.040713225 -0.03205988 0.13328928 -0.0495322
0.23485638 -0.1885434 -0.24271101 0.12577663 0.20779371 0.21881492 -0.2453496 0.17545757
0.11679195 -0.08378442 0.09644062 -0.062849395 -0.16677259 0.02649372 0.236784 0.009700913
-0.14970048 -0.034109026 0.12619622 0.16865233 0.07364862 0.14652003 0.036041882 0.15899985
0.13421325 0.2348535 -0.097845025 0.2023396 -0.24135292 0.24930784 0.1505406 0.2287439
0.07650273 -0.031158201 -0.16913643 0.19631624 0.03162553 0.21808982 0.112968326 0.07594118
0.020298664 0.0033975823 0.2160452 -0.10477313 -0.16496164 -0.13887203 0.22710513 0.13693833
0.17298007 -0.13102056 0.07235462 -0.091815464 -0.11914367 -0.15258853 0.19485016 -0.08721412
0.11945949 -0.07614767 0.03489997 0.07307812 0.065888084 -0.1672206 -0.13490152 0.041468203
-0.030684259 -0.19921933 0.232356 -0.00652602 -0.0792615 0.03848606 0.15169944 0.028182292
0.055405572 0.03570716 -0.22800389 0.06474409 0.20384449 -0.23936759 -0.01934981 0.103741884
-0.23942447 0.22983536 0.023007696 -0.041075427 0.108913936 -0.022444285 0.04742517 0.008053675
-0.07770042 -0.058340866 -0.21422063 0.05207475 0.046390817 0.03558438 0.07195984 0.24957542
-0.09943724 0.22005385 0.12114387 -0.21140409 0.11292215 0.01691306 -0.13314901 0.18852417
-0.13273364 -0.14964558 0.2107575 0.08541134 0.1956063 -0.020087315 0.058189448 -0.06050607
0.064797424 -0.033119924 0.09369025 0.081970654 0.18288381 -0.083614685 -0.22205888 0.03548307
0.17304698 0.049920376 0.14355636 -0.034394704 -0.07726147 -0.14148293 -0.13003641 0.050004914
-0.10797517 -0.24305822 0.04636885 -0.009048524 -0.17297195 -0.114443235 0.241191 0.24957502
-0.12639822 -0.11956411 0.20433322 0.17167203 0.06342211 -0.01389605 -0.063021936 -0.04972107
-0.1421981 0.13246478 0.22917631 -0.071509406 0.10815078 -0.08203175 0.13403776 0.09267157
0.02721554 0.19530009 0.012233276 -0.17863752 -0.19435239 0.044934534 -0.099504635 0.0090920525
-0.19685061 -0.12710476 0.12936588 0.23010446 -0.15817301 -0.11629981 0.13186279 0.20753652
0.11927877 -0.13665406 0.1963245 -0.10093651 0.05091631 0.19699815 -0.24012324 0.082698055
0.045406725 0.08965241 -0.20814191 0.13161993 -0.13594027 -0.019025795 0.033274677 -0.18558133
00000000: 9384 1abc 4d34 2e3e 2fb9 4ebe aa80 f6bd
00000010: 3d7d ae3d b1fa 5bbe 905b fb3d 309c 833d
00000020: 041d 95bd 05fa 6d3e a84b 303e 816c 6dbe
00000030: 2242 ec3d 83e4 613e a02c 273e b5c0 61be
00000040: e602 703d a918 743d 9e8c 473e d9a9 893a
00000050: 1efa 46bd b431 543e 0bb5 423e fc16 3abe
00000060: 3954 55be 0579 4d3d 2746 823e 1a8d cbbd
00000070: af33 813e 8f71 063e 328b 54be ba8f 383d
00000080: c1ed 143e c29d 43bd 52c7 343e ba66 0f3e
00000090: 66c2 4dbe 3e37 433e 501b c3bc 0a29 e03d
000000a0: 0994 383d 245b fa3c f410 893d 2245 273c
000000b0: a935 15be 764e c53d dc95 d6bd bb23 553e
000000c0: ec43 38be 959d 213e 9f51 f33d c045 8dbd
000000d0: 8360 4cbe 0e97 11be 90d0 483d 84af 02be
000000e0: fdaf 853d f5f3 69bb 0d80 653e 1072 393e
000000f0: 0d02 2dbe 2877 01be 73a6 d0bc 3c8c aebd
00000100: ff81 4a3e 490b 49bd bf69 d93d 11ae 2e3e
00000110: e9c2 263d 3951 03bd fc7c 083e 47e2 4abd
00000120: 317e 703e 8511 41be 3c89 78be 97cb 003e
00000130: e0c7 543e 0511 603e ed3c 7bbe 26ab 333e
00000140: 9e30 ef3d 2a97 abbd a982 c53d 2fb7 80bd
00000150: 6fc6 2abe 5c09 d93c 8177 723e 94f0 1e3c
00000160: 154b 19be e8b5 0bbd 9539 013e 32b3 2c3e
00000170: 16d5 963d 5909 163e a7a0 133d dbd0 223e
00000180: 336f 093e 707d 703e f962 c8bd 1d32 4f3e
00000190: 3825 77be 8e4a 7f3e 5127 1a3e d73b 6a3e
000001a0: 77ad 9c3d 7c3f ffbc 1a32 2dbe 2007 493e
000001b0: c689 013d f052 5f3e f05b e73d 0d87 9b3d
000001c0: 6249 a63c f9a9 5e3b f43a 5d3e 4b93 d6bd
000001d0: b4eb 28be 7834 0ebe 3f8e 683e 9039 0c3e
000001e0: b021 313e 412a 06be a92e 943d bf09 bcbd
000001f0: 9901 f4bd 2b40 1cbe cd86 473e 519d b2bd
00000200: 2da7 f43d 4ff3 9bbd 45f3 0e3d fba9 953d
00000210: 55f0 863d e13b 2bbe a023 0abe 90da 293d
00000220: 8e5d fbbc 2700 4cbe bbee 6d3e 39d8 d5bb
00000230: da53 a2bd 8fa3 1d3d 1957 1b3e 8dde e63c
00000240: f4f0 623d ac41 123d da79 69be 8d98 843d
00000250: 9cbc 503e c71c 75be 7e83 9ebc a076 d43d
00000260: b02b 75be f659 6b3e a37a bc3c b53e 28bd
00000270: 450e df3d 14dd b7bc e540 423d 90f3 033c
00000280: 6621 9fbd d5f6 6ebd a75c 5bbe 554c 553d
00000290: 4c04 3e3d edc0 113d ae5f 933d b390 7f3e
000002a0: c0a5 cbbd cc55 613e 471a f83d 507a 58be
000002b0: ba43 e73d 428d 8a3c 3758 08be 7b0c 413e
000002c0: 54eb 07be b13c 19be d0d0 573e 24ec ae3d
000002d0: 054d 483e 278e a4bc 0f58 6e3d 36d5 77bd
000002e0: 83b4 843d c2a8 07bd ace0 bf3d 3be0 a73d
000002f0: e545 3b3e 2d3e abbd 6763 63be b256 113d
00000300: 3a33 313e 4f79 4c3d 7000 133e 76e1 0cbd
00000310: 433b 9ebd e7e0 10be 4428 05be f4d1 4c3d
00000320: 1622 ddbd 41e4 78be 43ed 3d3d 4340 14bc
00000330: 8f1f 31be 3761 eabd c6fa 763e 9890 7f3e
00000340: 896e 01be 07de f4bd ba3c 513e cbca 2f3e
00000350: 74e3 813d 42ac 63bc a511 81bd 52a8 4bbd
00000360: 619c 11be d9a4 073e 32ad 6a3e 8673 92bd
00000370: 287e dd3d 4300 a8bd 3241 093e 98ca bd3d
00000380: 20f3 de3c bffc 473e 146e 483c c1ec 36be
00000390: 5004 47be 460d 383d 16c9 cbbd d5f6 143c
000003a0: 3593 49be c027 02be 7d78 043e 81a0 6b3e
000003b0: 1bf8 21be 982e eebd 0a07 073e 7484 543e
000003c0: 6e48 f43d 0bef 0bbe 4a09 493e cdb7 cebd
000003d0: 9f8d 503d e2b9 493e dee2 75be 995d a93d
000003e0: 67fc 393d af9b b73d 2723 55be 60c7 063e
000003f0: ed33 0bbe fcdb 9bbc 074b 083d 0809 3ebe

patch_embed.0.bias f4 [64]
-0.2082269 0.08545542 -0.10544874 0.18548319 0.17833707 -0.0031960646 0.12836672 0.121856
0.18951406 0.08629644 -0.087470554 -0.24850528 -0.014120206 0.24890655 0.07721039 0.015766256
0.0008297203 0.1743668 -0.120533794 -0.043910105 -0.115687005 -0.23713681 0.0057252767 -0.13324493
-0.015355472 0.06238518 -0.18322986 -0.17287405 0.25311226 0.04547956 -0.12373695 0.00046340877
0.13424364 -0.17914306 0.18739411 0.12253066 0.12985903 -0.2514559 0.16247769 0.13685681
-0.0022898158 -0.23162092 -0.1796246 -0.21275903 0.206323 0.21734276 -0.024998063 0.1100357
-0.0183329 -0.24299645 -0.097236685 0.088575505 0.24004021 0.22580819 -0.23651633 -0.0007238672
0.13748263 0.24120878 -0.08861221 0.0030775135 -0.035037536 0.15358914 0.037314277 0.19478315
00000000: 6f39 55be 4003 af3d 82f5 d7bd 4eef 3d3e
00000010: fe9d 363e 1175 51bb 9172 033e a38f f93d
00000020: f90f 423e 30bc b03d c323 b3bd 2b78 7ebe
00000030: 7058 67bc 5ce1 7e3e 7b20 9e3d 3c28 813c
00000040: 9681 593a 368d 323e 6cda f6bd 15db 33bd
00000050: 4fed ecbd fed3 72be 1a9b bb3b 5c71 08be
00000060: 8595 7bbc 9a87 7f3d 9ca0 3bbe e505 31be
00000070: ee97 813e c648 3a3d cc69 fdbd acf5 f239
00000080: 2a77 093e 4771 37be 3ee4 3f3e 5bf1 fa3d
00000090: c4f9 043e d4be 80be 8d60 263e 3124 0c3e
000000a0: bc10 16bb 092e 6dbe 83ef 37be 81dd 59be
000000b0: 5646 533e 1a8f 5e3e bdc8 ccbc 665a e13d
000000c0: e12e 96bc 10d4 78be 0724 c7bd 1367 b53d
000000d0: 1acd 753e 433a 673e 5631 72be e8c1 3dba
000000e0: 3fc8 0c3e 6fff 763e 517a b5bd 1cb0 493b
000000f0: 8583 0fbd 7946 1d3e dbd6 183d 3c75 473e

patch_embed.1.weight f4 [64, 16]
-0.16339746 -0.24784558 -0.18490978 0.15878612 0.16889583 0.12961063 -0.16445069 0.24733357
0.22727062 -0.06939873 0.11943188 -0.10006497 0.22080442 0.08639534 -0.17609005 0.043836933
0.03493046 0.23075895 -0.18733269 -0.0035343424 -0.060336687 -0.063941665 -0.038017247 0.06423272
-0.07929433 0.23054594 -0.1400647 -0.1833473 -0.0080789905 0.119116664 -0.12441795 -0.1713174
-0.07399595 0.18843609 -0.08936352 0.059069596 0.09653733 -0.064561404 -0.06352435 -0.031367775
-0.22147869 -0.06139086 0.0659156 -0.09287128 0.14902905 0.18100676 -0.017383432 -0.014081176
0.22873217 -0.09988899 -0.10263743 -0.22937062 -0.028050477 -0.033501167 -0.0057450593 -0.051587347
0.07897979 0.11174046 -0.10876181 0.19413045 0.10431994 0.2403911 -0.027773878 -0.18982495
-0.19772771 0.17311418 -0.06592655 0.015948119 -0.18573605 0.10606269 0.03039309 -0.1932061
0.0052879406 0.18150745 -0.0504408 0.1224602 -0.08372467 -0.13502294 0.13195024 -0.07052066
0.18763986 -0.04985728 -0.06832321 0.15905276 -0.06573929 0.08765818 0.1702695 -0.20241871
0.19754517 0.1860855 0.08821295 0.07040563 -0.2368328 0.07226779 0.11100772 0.09962861
-0.10013458 0.17759286 -0.012761439 -0.22831519 0.05715374 -0.019817643 -0.13029477 -0.25303298
-0.043799244 0.030528817 -0.16913633 -0.07718266 -0.025646998 0.12725896 -0.12227757 0.108500585
0.24970491 -0.17700264 -0.22694619 -0.16234075 0.004974114 -0.042659923 -0.10877732 -0.033538673
0.036838654 -0.24432465 0.17060564 -0.14730263 0.03213679 -0.15464091 -0.15563698 0.093212105
0.07385808 0.19873083 0.14612126 0.21096082 -0.13527521 0.1960518 -0.1535937 -0.20337151
-0.13186264 -0.24665943 -0.08690884 0.01482179 -0.2550758 -0.11017468 -0.24927543 -0.02954811
0.22339295 0.015293244 0.15168816 0.14230734 0.07383836 -0.07530331 -0.23210071 0.1918797
0.13211404 0.051111303 0.22762693 -0.21998265 -0.014713647 0.09165638 -0.0649478 0.018903518
-0.032125913 0.23896556 0.13825002 -0.20098674 -0.09287303 0.06744229 0.13144878 0.22967514
0.08310391 -0.17087135 -0.012139324 0.17033428 0.042327 -0.05894951 0.13426903 0.036043346
-0.12840754 -0.0033379393 -0.05419792 -0.2036368 0.044488046 0.014452625 -0.09475738 -0.07278973
-0.2507211 -0.029020622 -0.008361211 0.19944677 -0.037757605 -0.012498656 -0.1540006 0.1822372
-0.13095838 -0.17888293 0.19524916 -0.23288573 -0.026328761 0.16872297 0.24930847 -0.19884057
0.22895685 0.12905389 -0.23183793 0.2531315 -0.0593085 -0.090036444 0.11498482 0.16513321
0.18559884 0.033182703 -0.11197081 0.056142855 -0.11494971 0.18859252 0.10806259 0.15559177
0.1185956 -0.078390405 -0.065477096 0.12274128 -0.12506542 -0.17165507 -0.1737707 0.072991416
-0.025305983 0.012724742 0.23168106 0.027800642 0.2142109 -0.14641201 0.07740931 -0.16409045
0.04950305 -0.1937971 -0.16513416 -0.014421924 0.16592297 -0.19011302 0.13384178 -0.23246157
0.04773929 0.13602869 0.102098264 -0.12696603 -0.23897973 -0.21473348 -0.06392209 -0.033056173
-0.21748848 -0.020458205 0.2467672 0.020280194 -0.08464795 -0.22658074 -0.21571317 -0.12069213
00000000: aa51 27be 3bcb 7dbe fd58 3dbe d498 223e
00000010: 07f3 2c3e a6b8 043e c365 28be 0345 7d3e
00000020: a1b9 683e ec20 8ebd b498 f43d ddee ccbd
00000030: 8e1a 623e 0af0 b03d f350 34be 5b8e 333d
00000040: 3e13 0f3d 134c 6c3e 24d4 3fbe 6da0 67bb
00000050: 9a23 77bd d9f3 82bd f9b7 1bbd 728c 833d
00000060: 1165 a2bd 3c14 6c3e 1f6d 0fbe 65bf 3bbe
00000070: be5d 04bc 70f3 f33d d7ce febd d46d 2fbe
00000080: 308b 97bd 64f5 403e 3904 b7bd f6f2 713d
00000090: 5db5 c53d c538 84bd 0e19 82bd 7f7b 00bd
000000a0: 4fcb 62be fb74 7bbd c2fe 863d 4c33 bebd
000000b0: 129b 183e d659 393e b367 8ebc bcb4 66bc
000000c0: c438 6a3e 9992 ccbd 9333 d2bd 22e0 6abe
000000d0: 1dca e5bc 8538 09bd 0d41 bcbb 414d 53bd
000000e0: 28c0 a13d 2fd8 e43d 83be debd 22ca 463e
000000f0: b1a5 d53d 1629 763e 0b86 e3bc 7961 42be
00000100: 2279 4abe d844 313e 8004 87bd a1a5 823c
00000110: 9731 3ebe 6537 d93d eefa f83c d2d7 45be
00000120: 7646 ad3b 17dd 393e 039b 4ebd 6acc fa3d
00000130: d777 abbd 7443 0abe f71d 073e 236d 90bd
00000140: aa24 403e 2637 4cbd 0aed 8bbd bade 223e
00000150: 52a2 86bd 2286 b33d 215b 2e3e da46 4fbe
00000160: 4849 4a3e 338d 3e3e fea8 b43d d430 903d
00000170: 4c84 72be 2301 943d 0458 e33d 160a cc3d
00000180: 5c13 cdbd e7da 353e 5b15 51bc 75cb 69be
00000190: 0a1a 6a3d 9c58 a2bc fe6b 05be 8a8d 81be
000001a0: d666 33bd 9217 fa3c 1332 2dbe f111 9ebd
000001b0: a719 d2bc 2c50 023e aa6c fabd 8e35 de3d
000001c0: a5b2 7f3e 2e40 35be 9564 68be a73c 26be
000001d0: e4fd a23b 2cbc 2ebd a5c6 debd d95f 09bd
000001e0: 21e4 163d 3e30 7abe 3fb3 2e3e 80d6 16be
000001f0: dea1 033d 305a 1ebe 4d5f 1fbe fde5 be3d
00000200: e842 973d 1880 4b3e d0a0 153e 1d06 583e
00000210: 9685 0abe cec1 483e ab47 1dbe 9f40 50be
00000220: 0007 07be 4a94 7cbe 43fd b1bd 18d7 723c
00000230: 4c99 82be 43a3 e1bd 0f42 7fbe e10e f2bc
00000240: 1fc1 643e 8490 7a3c 2454 1b3e 04b9 113e
00000250: 9138 973d 9f38 9abd cfab 6dbe 1d7c 443e
00000260: e748 073e 165a 513d 0917 693e 2243 61be
00000270: 8211 71bc 57b6 bb3d 5a03 85bd 8ddb 9a3c
00000280: 7696 03bd 63b3 743e 6a91 0d3e 78cf 4dbe
00000290: 3734 bebd 2f1f 8a3d 829a 063e f62f 6b3e
000002a0: 6232 aa3d e6f8 2ebe 04e4 46bc 1c6c 2e3e
000002b0: 145f 2d3d 0b75 71bd d27d 093e 30a2 133d
000002c0: 447d 03be 54c1 5abb a3fe 5dbd 2a86 50be
000002d0: 1939 363d b4ca 6c3c 2810 c2bd c812 95bd
000002e0: 845e 80be a8bc edbc 76fd 08bc c63b 4c3e
000002f0: b8a7 1abd 2ac7 4cbc 55b2 1dbe 639c 3a3e
00000300: f419 06be 162d 37be 65ef 473e 9979 6ebe
00000310: 6aaf d7bc b7c5 2c3e b84a 7f3e dd9c 4bbe
00000320: aa73 6a3e b426 043e ec66 6dbe 749a 813e
00000330: 78ed 72bd 0765 b8bd 297d eb3d ae18 293e
00000340: 9f0d 3e3e 96ea 073d f450 e5bd 0df6 653d
00000350: c16a ebbd 661e 413e eb4f dd3d 7353 1f3e
00000360: 40e2 f23d 268b a0bd db18 86bd c85f fb3d
00000370: 2611 00be 59c6 2fbe f2f0 31be 867c 953d
00000380: 7e4e cfbc 707b 503c cd3d 6d3e 2cbe e33c
00000390: 1a5a 5b3e 08ed 15be c688 9e3d 5407 28be
000003a0: b6c3 4a3d bf72 46be ee18 29be ef49 6cbc
000003b0: b6e7 293e fdac 42be d20d 093e 680a 6ebe
000003c0: 468a 433d 1b4b 0b3e e518 d13d 6203 02be
000003d0: 1ab7 74be 18e3 5bbe 96e9 82bd e965 07bd
000003e0: 4db5 5ebe f797 a7bc 8ab0 7c3e a622 a63c
000003f0: e85b adbd c804 68be eae3 5cbe 6f2d f7bd

patch_embed.1.bias f4 [64]
-0.019256316 -0.12157927 -0.18636791 0.028253533 0.114113085 -0.103309445 -0.149846 0.10081773
0.1294339 -0.06660736 -0.15714112 -0.12634929 -0.10290636 -0.23074675 -0.005912118 -0.05668147
0.103527 -0.14033426 -0.13242443 -0.15542284 0.16008198 0.16373895 0.087303855 0.057800874
0.06685103 -0.17890239 0.05798394 0.10079596 0.037016362 0.13581055 0.09333128 0.10709373
0.2101385 -0.029730646 -0.025672564 0.22460678 -0.0320701 0.20917518 0.09855149 0.1858237
-0.06073179 0.04143767 0.17559177 -0.2470263 0.10037253 -0.22230889 0.24172533 -0.21729614
-0.17495345 -0.20408177 0.058474325 0.11923673 -0.14215192 -0.14028399 0.24989924 -0.04436906
-0.01738994 -0.14579016 -0.12598553 -0.03452598 0.0022259282 -0.1873758 -0.15772896 0.07814763
00000000: 6cbf 9dbc 8dfe f8bd 3bd7 3ebe f473 e73c
00000010: 1fb4 e93d e793 d3bd 3b71 19be 8779 ce3d
00000020: 528a 043e 7169 88bd 9ae9 20be b561 01be
00000030: 92c0 d2bd e048 6cbe 71ba c1bb d42a 68bd
00000040: f705 d43d c9b3 0fbe 459a 07be 2a27 1fbe
00000050: 88ec 233e 2fab 273e 5dcc b23d 9cc0 6c3d
00000060: 31e9 883d 3032 37be 9180 6d3d 1d6e ce3d
00000070: 789e 173d ec11 0b3e 7824 bf3d f553 db3d
00000080: 8c2e 573e af8d f3bc 454f d2bc 52ff 653e
00000090: f05b 03bd 0532 563e 5dd5 c93d 9148 3e3e
000000a0: e6c1 78bd 8cba 293d 54ce 333e 76f4 7cbe
000000b0: 1d90 cd3d f1a4 63be d886 773e e182 5ebe
000000c0: ff26 33be d0fa 50be c682 6f3d 6332 f43d
000000d0: 4690 11be 9ba6 0fbe 96e5 7f3e 55bc 35bd
000000e0: 5975 8ebc 044a 15be 5a02 01be 1d6b 0dbd
000000f0: e1e0 113b 71df 3fbe b383 21be dd0b a03d

patch_embed.2.weight f4 [64, 16]
0.16191775 0.027083937 -0.09695941 0.10097818 -0.20331974 0.07009859 -0.16767132 0.0734486
0.03596376 -0.23719415 0.23519935 -0.12642948 0.096881494 0.053442545 0.018695418 0.06824121
-0.079938695 -0.17448509 -0.2343673 0.11804712 -0.14389543 0.03534173 0.19287701 0.17869446
-0.017607156 0.24168979 -0.05760169 0.11535192 -0.11366248 -0.13897961 -0.050735928 -0.10480041
-0.1296287 0.2249994 -0.20984177 -0.22424032 0.08095644 0.025753967 0.08977361 0.12618639
-0.11419139 -0.11935023 0.19181713 0.10493436 -0.20846786 0.23945563 -0.16770935 -0.12873629
-0.024227552 -0.23153476 0.15900964 0.07787776 0.19163097 -0.099510334 0.12403438 -0.08446994
0.25052196 -0.012956061 0.21925479 -0.0855073 -0.17710947 -0.19689217 0.15911557 0.19482142
-0.108876936 0.21655291 -0.03708606 0.0063203485 -0.09926098 0.043939944 0.16958643 0.057223495
0.06202524 -0.003755731 -0.22670032 -0.048487518 -0.16958117 -0.071700014 -0.17397705 -0.23373467
-0.09568821 -0.11409613 0.037327994 0.024567673 -0.08752687 -0.10572559 0.10127709 0.045036793
0.11255293 -0.06451329 -0.22869617 0.016942468 -0.24552423 0.17894742 0.02288544 0.17653014
0.100231856 -0.19314164 -0.22893281 0.11945108 0.07229581 0.0036137728 -0.062434748 0.10270074
-0.22707142 0.037372023 -0.1486681 0.21260333 0.05606182 -0.0033580572 -0.06446221 -0.24126267
-0.072651416 0.15598631 -0.13410242 0.119598635 -0.0130808465 0.16027504 -0.24911578 0.18103969
0.11129068 -0.028627114 -0.1617719 -0.09315334 -0.050416715 -0.11559766 0.00846694 -0.01337753
-0.13599475 0.24054784 0.030355612 0.13686354 -0.20194468 -0.04417835 0.10404641 0.09142238
-0.19784768 0.04460872 0.021473253 -0.079410866 -0.20868061 0.12636212 0.07229638 0.2457213
-0.12738158 -0.15748665 0.1524321 0.007997734 0.013361701 -0.2104438 0.19580409 -0.22731625
-0.032667506 0.16624379 -0.057541285 -0.24696651 0.22317924 -0.113060914 -0.17751805 0.06378846
0.07900659 0.14018449 0.12999497 -0.115791954 -0.15973574 -0.11172295 -0.15870339 -0.1153631
0.06559244 0.052204423 -0.069678225 -0.13622873 0.078822024 -0.047884855 -0.08797184 0.014651313
0.07909778 -0.06254763 -0.05390979 -0.120911285 -0.086499 0.11443272 -0.162199 -0.14187741
0.23512442 -0.09688815 0.053828362 0.21058269 0.22990009 0.22473489 -0.079859674 0.22084773
0.06081329 0.055190872 0.032970075 -0.0069849407 0.08615673 0.06601814 0.052793 0.11352165
-0.16277777 -0.10334987 -0.15198882 0.14059815 0.08483064 0.21037449 0.22953807 0.12566344
-0.20596413 -0.12111506 0.07374406 -0.13807864 -0.20375587 -0.23758765 -0.037547816 -0.2213836
-0.029819073 -0.2139457 0.008290764 -0.17119154 0.081947625 0.14817739 -0.063701995 -0.11443656
-0.20092769 -0.23386943 0.13459148 0.031366017 -0.19490884 -0.072249226 0.10341951 0.18021661
-0.09906861 0.040036917 0.050639242 0.248352 -0.2199007 0.25056687 -0.11140221 -0.06255968
0.07695427 0.08672619 0.23829998 -0.1624113 0.16901663 0.053447507 0.19655892 0.07444116
-0.04197526 -0.11996839 -0.16303805 0.13841203 -0.017867833 0.036340166 0.013374072 -0.15816236
00000000: c4cd 253e 22df dd3c a892 c6bd a6cd ce3d
00000010: 0d33 50be d98f 8f3d 08b2 2bbe 386c 963d
00000020: bc4e 133d 06e3 72be 19d8 703e bb76 01be
00000030: ce69 c63d 92e6 5a3d 2227 993c 0cc2 8b3d
00000040: e6b6 a3bd 38ac 32be fbfd 6fbe b0c2 f13d
00000050: 5359 13be 7dc2 103d 8d81 453e aefb 363e
00000060: e23c 90bc 877d 773e c0ef 6bbd a13d ec3d
00000070: e0c7 e8bd ac50 0ebe 7ad0 4fbd 99a1 d6bd
00000080: 63bd 04be 3e66 663e c3e0 56be 419f 65be
00000090: 7dcc a53d fcf9 d23c 3adb b73d 0137 013e
000000a0: 2ddd e9bd e56d f4bd b66b 443e d3e7 d63d
000000b0: 9978 55be db33 753e 00bc 2bbe 72d3 03be
000000c0: dc78 c6bc 7317 6dbe 6cd3 223e 607e 9f3d
000000d0: e93a 443e 13cc cbbd bd05 fe3d 93fe acbd
000000e0: 6a44 803e a945 54bc 5484 603e 741e afbd
000000f0: 2f5c 35be 1a9e 49be 31ef 223e 447f 473e
00000100: dffa debd 0cc0 5d3e 8de7 17bd ed1a cf3b
00000110: 5749 cbbd 5ffa 333d 11a8 2d3e 2f63 6a3d
00000120: 2e0e 7e3d b622 76bb 2124 68be d99a 46bd
00000130: b0a6 2dbe 75d7 92bd 0a27 32be 2458 6fbe
00000140: 2ef8 c3bd 3bab e9bd 3de5 183d 2542 c93c
00000150: 4a41 b3bd a886 d8bd 5d6a cf3d 8078 383d
00000160: 2782 e63d 8b1f 84bd 542f 6abe eeca 8a3c
00000170: b46a 7bbe fe3d 373e 3f7a bb3c 51c4 343e
00000180: 5c46 cd3d ecc6 45be 5d6d 6abe c5a2 f43d
00000190: d30f 943d 0cd5 6c3b 94bb 7fbd c454 d23d
000001a0: 6985 68be 6813 193d 733c 18be b0b4 593e
000001b0: 14a1 653d da12 5cbb c304 84bd 900d 77be
000001c0: 44ca 94bd e0ba 1f3e 2552 09be 21f0 f43d
000001d0: 0c51 56bc 241f 243e 3518 7fbe 7862 393e
000001e0: 5eec e33d 6983 eabc 88a7 25be 2ec7 bebd
000001f0: c281 4ebd 77be ecbd ecb8 0a3c 6d2d 5bbc
00000200: 3542 0bbe 2c52 763e 55ac f83c f525 0c3e
00000210: 96ca 4ebe 5cf4 34bd 4916 d53d a83b bb3d
00000220: 9598 4abe a2b7 363d ade8 af3c 2aa2 a2bd
00000230: 5fb0 55be 1265 013e 2010 943d 5d9e 7b3e
00000240: 5170 02be 2e44 21be 2917 1c3e ed08 033c
00000250: 09eb 5a3c 947e 57be de80 483e 97c5 68be
00000260: 5dce 05bd d03b 2a3e 69b0 6bbd cae4 7cbe
00000270: 1989 643e 7b8c e7bd 4bc7 35be 86a3 823d
00000280: 35ce a13d 868c 0f3e 671d 053e 5524 edbd
00000290: c491 23be 01cf e4bd 2483 22be 7d43 ecbd
000002a0: 5455 863d 4ed4 553d 75b3 8ebd 8b7f 0bbe
000002b0: 716d a13d e922 44bd 942a b4bd 100c 703c
000002c0: 04fe a13d f918 80bd 83d0 5cbd 56a0 f7bd
000002d0: 6326 b1bd b45b ea3d 7f17 26be 5048 11be
000002e0: 75c4 703e 4b6d c6bd 217b 5c3d fda2 573e
000002f0: ee6a 6b3e e720 663e 788d a3bd e825 623e
00000300: 5b17 793d d30f 623d a10b 073d eee1 e4bb
00000310: f172 b03d 8534 873d 793d 583d 0a7e e83d
00000320: 37af 26be 19a9 d3bd f5a2 1bbe f6f8 0f3e
00000330: b0bb ad3d 696c 573e 070c 6b3e ebad 003e
00000340: 43e8 52be 2c0b f8bd 2007 973d 7d64 0dbe
00000350: 61a5 50be 2d4a 73be bdcb 19bd 62b2 62be
00000360: 2147 f4bc 9514 5bbe fcd5 073c d64c 2fbe
00000370: 28d4 a73d d0bb 173e 3176 82bd b75d eabd
00000380: fdbf 4dbe 787b 6fbe 59d2 093e a779 003d
00000390: 2f96 47be 67f7 93bd 9ccd d33d b48a 383e
000003a0: 7ce4 cabd c0fd 233d 186b 4f3d fd4f 7e3e
000003b0: a62d 61be 4d4a 803e d826 e4bd 4a1f 80bd
000003c0: 339a 9d3d 809d b13d e904 743e 264f 26be
000003d0: b212 2d3e c6eb 5a3d be46 493e 9b74 983d
000003e0: 40ee 2bbd fdb1 f5bd 72f3 26be e2bb 0d3e
000003f0: 905f 92bc 6dd9 143d ec1e 5b3c 50f5 21be

patch_embed.2.bias f4 [64]
0.010505883 -0.044152517 0.18914099 0.053598847 0.24912149 0.001735376 0.121218905 -0.21823284
0.23874052 -0.009630834 -0.20508349 0.14723259 0.19089025 0.08372024 0.042540796 -0.17617685
0.048936192 -0.20907144 0.18269733 -0.02476516 -0.06610014 -0.123528644 0.22338761 0.06532722
-0.04031684 0.15524694 0.010752301 0.17873843 -0.21117158 -0.019835794 -0.21653816 -0.21553114
0.009063515 -0.06279552 -0.24607621 0.011057544 0.17331503 -0.1160617 -0.21884842 -0.006944156
-0.17180304 0.095222004 0.10318241 -0.009361596 0.13378209 -0.10443027 -0.13601263 -0.027100027
0.04494688 -0.17896089 0.0045185755 -0.02905615 0.14902844 -0.11072308 0.1898338 -0.09592889
0.04278924 -0.004513321 0.08999852 -0.031652395 -0.010157194 -0.2444604 -0.19638869 -0.18268818
00000000: de20 2c3c 45d9 34bd 2dae 413e 778a 5b3d
00000010: b419 7f3e 8e75 e33a 9e41 f83d 6e78 5fbe
00000020: 6578 743e a5ca 1dbc 6801 52be 24c4 163e
00000030: bc78 433e 8475 ab3d 423f 2e3d b467 34be
00000040: 5171 483d d316 56be 0215 3b3e 4ee0 cabc
00000050: 835f 87bd 96fc fcbd b9bf 643e 47ca 853d
00000060: 4523 25bd 0ef9 1e3e 6b2a 303c 3507 373e
00000070: 5d3d 58be ad7e a2bc 2ebc 5dbe 32b4 5cbe
00000080: 237f 143c f09a 80bd 67fb 7bbe b32a 353c
00000090: 7f79 313e c2b1 edbd cd19 60be cd8b e3bb
000000a0: 23ed 2fbe c103 c33d 4d51 d33d 6161 19bc
000000b0: 2cfe 083e 8adf d5bd e546 0bbe e000 debc
000000c0: 381a 383d 8641 37be 8f10 943b 2a07 eebc
000000d0: e99a 183e c8c2 e2bd cb63 423e 5e76 c4bd
000000e0: c543 2f3d 7be4 93bb 2551 b83d f1a5 01bd
000000f0: 5c6a 26bc d453 7abe 1e1a 49be 9c12 3bbe

patch_embed.3.weight f4 [64, 16]
0.12944901 -0.10236789 0.15947352 -0.055562403 0.03324177 0.032791097 -0.022638109 0.17075196
-0.056597218 0.18758886 0.10367751 0.13298793 0.1898412 0.14753018 0.20136471 -0.18939912
-0.09695703 -0.11676475 -0.2055948 -0.11553422 -0.0017946291 -0.18973571 0.23537318 0.10698705
0.22134992 0.05593894 0.12916943 0.16219327 -0.15410283 0.0979398 0.20804296 -0.109039694
0.018417053 -0.03545171 0.04779513 -0.055546347 -0.042850435 0.07145863 0.1915679 -0.18201952
-0.03561293 -0.099475674 0.18873093 -0.0074531194 -0.17144462 -0.14834231 -0.045946427 0.22761413
0.0767176 0.030336821 -0.0008147266 -0.07870539 -0.1518302 0.2326602 -0.065095216 0.09487208
0.0016450852 0.1526541 -0.06900347 -0.029420832 -0.11570404 0.23633756 -0.11739982 0.2418879
-0.17850105 -0.028075168 0.18848144 -0.16791257 0.2015172 0.15140313 -0.11378433 -0.1788169
0.12046532 -0.1899024 -0.08384195 0.24292397 -0.25227788 -0.19959697 0.051278006 -0.10689374
-0.030290887 -0.13893254 0.030825038 0.087143995 0.12118565 0.13179697 0.14906923 0.0022035402
-0.01940607 0.23239517 0.03273516 -0.1155781 0.060144767 0.036947303 -0.0964464 -0.069831185
-0.24644789 0.14756037 0.20612942 0.075849816 -0.2482119 0.20162998 -0.17977688 -0.21818702
-0.1524139 0.2188371 -0.017234966 -0.06913994 -0.2519053 -0.09975522 -0.12391417 0.13903958
-0.23806393 -0.06794785 0.092211656 0.13169223 0.04198232 -0.06491898 0.13278328 -0.20601887
0.106659375 -0.19749178 0.20107302 0.20025745 -0.2412296 -0.1033149 0.24193855 0.101411775
-0.23593909 -0.18870477 0.095577866 0.12846434 0.052463572 0.12782481 -0.21512161 0.2205539
-0.1275584 -0.17817734 -0.011641495 -0.18879904 0.23565465 -0.21541034 -0.073401086 -0.20824212
-0.11587034 -0.18118481 -0.078928135 0.17983304 0.029320423 -0.121781126 0.22064903 -0.19261236
0.020636497 -0.04223114 -0.030795444 0.21287481 -0.17916574 -0.13729893 0.10406087 0.18570015
0.22281471 -0.20277855 -0.088888474 -0.0039424812 -0.11996641 0.21164879 -0.01299856 0.045396585
-0.06983726 0.069257624 -0.08956377 0.17323561 -0.14349483 0.19721392 0.077336505 0.18627396
0.20994177 -0.17402133 -0.21365497 -0.21300465 0.13337041 0.1135971 -0.21675439 0.20587292
0.12400873 0.2384981 0.034552265 -0.16847308 0.13710544 0.077084936 -0.020739628 0.14905821
-0.032913994 0.24568777 -0.03271437 -0.17023642 0.2083841 0.031665463 -0.16050526 0.060667463
-0.22099686 -0.1578843 0.06355424 0.11708059 0.062647134 -0.22933502 -0.1701111 0.085213386
0.027932588 0.01938538 0.08160834 0.083115436 0.16682145 0.044981215 0.010648624 0.15002051
-0.003886417 0.2301872 -0.054096814 0.02809194 0.16247422 0.09782305 -0.08726185 0.035588313
0.09318989 0.0007163188 0.03326364 -0.14016134 -0.19896597 0.060864627 -0.19765116 0.045798443
0.11419404 -0.10667467 -0.12894513 -0.105956174 0.1037344 -0.024411451 -0.03911963 -0.0083953
-0.10818383 0.14341106 -0.18737197 -0.20663673 -0.21255143 0.12876531 -0.17200896 -0.19236232
0.103891194 0.0070649646 -0.12808481 0.03255586 -0.07698131 0.20281109 -0.015168948 -0.09404837
00000000: 488e 043e 42a6 d1bd 074d 233e 6795 63bd
00000010: 8628 083d f54f 063d 8e73 b9bc 9ad9 2e3e
00000020: 7cd2 67bd 4b17 403e e054 d43d fd2d 083e
00000030: bb65 423e 2712 173e 8d32 4e3e d8f1 41be
00000040: 6891 c6bd 5b22 efbd 7187 52be 359d ecbd
00000050: c339 ebba 144a 42be ab05 713e 071c db3d
00000060: 8ea9 623e 3b20 653d fe44 043e fe15 263e
00000070: 22cd 1dbe a994 c83d 3709 553e 3450 dfbd
00000080: 5cdf 963c d035 11bd d4c4 433d 9184 63bd
00000090: f083 2fbd e758 923d 602a 443e 5363 3abe
000000a0: ddde 11bd e7b9 cbbd ae42 413e 4c39 f4bb
000000b0: 2e8f 2fbe 0ce7 17be 5232 3cbd ae13 693e
000000c0: 1e1e 9d3d ed84 f83c 6093 55ba 4b30 a1bd
000000d0: 6079 1bbe 7a3e 6e3e a450 85bd 4b4c c23d
000000e0: e69f d73a 5b51 1c3e b151 8dbd f503 f1bc
000000f0: 3df6 ecbd 7902 723e 516f f0bd 76b1 773e
00000100: fbc8 36be e5fd e5bc 4701 413e 46f1 2bbe
00000110: 865a 4e3e 6c09 1b3e c207 e9bd c71b 37be
00000120: 86b6 f63d c675 42be 54b5 abbd 10c1 783e
00000130: 912a 81be 2663 4cbe e308 523d 1beb dabd
00000140: 9824 f8bc 5544 0ebe ca84 fc3c 8d78 b23d
00000150: 2f30 f83d c9f5 063e 9ba5 183e 4569 103b
00000160: 7af9 9ebc 00f9 6d3e 4e15 063d 36b4 ecbd
00000170: 5c5a 763d 0e56 173d b185 c5bd a703 8fbd
00000180: d65c 7cbe 111a 173e 9713 533e 2657 9b3d
00000190: 432b 7ebe 1778 4e3e 6e17 38be 6b6c 5fbe
000001a0: 6412 1cbe d516 603e 5830 8dbc 3e99 8dbd
000001b0: bbf9 80be 774c ccbd b6c6 fdbd 6460 0e3e
000001c0: 08c7 73be 3e28 8bbd 77d9 bc3d 54da 063e
000001d0: a7f5 2b3d 3ef4 84bd 57f8 073e 9cf6 52be
000001e0: 3b70 da3d 493b 4abe 16e6 4d3e 4a10 4d3e
000001f0: e404 77be c396 d3bd bdbe 773e fab0 cf3d
00000200: 049a 71be d33b 41be 54be c33d 288c 033e
00000210: 0be4 563d 82e4 023e d748 5cbe e2d8 613e
00000220: ab9e 02be 1f74 36be f8bb 3ebc 8954 41be
00000230: 744f 713e 8794 5cbe 4f53 96bd 6c3d 55be
00000240: 6e4d edbd 8388 39be 13a5 a1bd 2726 383e
00000250: 6231 f03c 6268 f9bd d2f1 613e 2d3c 45be
00000260: df0d a93c 8ffa 2cbd ba46 fcbc dbfb 593e
00000270: 3977 37be 1798 0cbe de1d d53d 2e28 3e3e
00000280: 8a29 643e 2ea5 4fbe 290b b6bd ee2f 81bb
00000290: f3b0 f5bd 76ba 583e eaf7 54bc c5f1 393d
000002a0: d606 8fbd f1d6 8d3d 366d b7bd ad64 313e
000002b0: 4ff0 12be 72f2 493e 9a62 9e3d 9abe 3e3e
000002c0: fafa 563e a632 32be 5ec8 5abe e41d 5abe
000002d0: 4192 083e 99a5 e83d ddf4 5dbe 5ad0 523e
000002e0: 4af8 fd3d d938 743e ad86 0d3d 3584 2cbe
000002f0: 5e65 0c3e b5de 9d3d 27e6 a9bc b7a2 183e
00000300: d3d0 06bd 9395 7b3e 81ff 05bd 7552 2ebe
00000310: a462 553e a5b3 013d 7e5b 24be 727e 783d
00000320: 004d 62be 6cac 21be ba28 823d f3c7 ef3d
00000330: 244d 803d cdd6 6abe 9b31 2ebe 5b84 ae3d
00000340: e2d2 e43c 17ce 9e3c 4622 a73d 6d38 aa3d
00000350: 3ed3 2a3e 393e 383d 9177 2e3c fa9e 193e
00000360: 42b3 7ebb 31b6 6b3e 9f94 5dbd 1121 e63c
00000370: a45f 263e 7457 c83d 57b6 b2bd 0dc5 113d
00000380: 57da be3d 57c7 3b3a 743f 083d 7486 0fbe
00000390: bcbd 4bbe 304d 793d 1165 4abe 2697 3b3d
000003a0: 91de e93d 4078 dabd 310a 04be 8dff d8bd
000003b0: b372 d43d 86fa c7bc e83b 20bd 718c 09bc
000003c0: 7c8f ddbd 59da 123e 70de 3fbe 9498 53be
000003d0: 15a7 59be 0edb 033e 1e23 30be a1fa 44be
000003e0: e8c4 d43d 3881 e73b aa28 03be 4b59 053d
000003f0: 61a8 9dbd b6ad 4f3e 2e87 78bc 6f9c c0bd

patch_embed.3.bias f4 [64]
0.09160828 -0.11667791 -0.07324848 -0.07429657 -0.11076557 0.17984675 0.03936335 -0.079651706
-0.16281162 -0.16546832 -0.2031206 0.12105776 0.12565029 0.006391415 -0.004782651 -0.10641931
0.1664608 -0.18990837 -0.21019463 -0.24658552 0.05388303 0.1886116 0.0027934737 -0.23147762
-0.1069654 0.07550941 -0.024524812 0.22065222 0.07868012 -0.21690889 -0.19083603 0.16302383
-0.049442977 0.17627901 -0.03403853 -0.18177623 -0.06821146 0.08531187 -0.14987457 0.11000456
0.18658486 -0.24303465 -0.15895154 0.04322163 0.22348113 -0.21215357 -0.2222608 -0.05968473
0.07335886 -0.2248654 -0.039532244 0.24507108 -0.0045516603 0.025909564 0.18738611 0.019839056
0.055023383 0.1730384 -0.21852918 -0.039102472 0.039398465 0.22206736 0.105639786 -0.20742558
00000000: 1f9d bb3d d4f4 eebd 4d03 96bd cd28 98bd
00000010: 0fd9 e2bd bf29 383e 773b 213d 6f20 a3bd
00000020: 17b8 26be 8770 29be d9fe 4fbe 22ed f73d
00000030: 78aa 003e 136f d13b c9b7 9cbb 5ef2 d9bd
00000040: b374 2a3e 5777 42be 433d 57be ea80 7cbe
00000050: 74b4 5c3d 6623 413e b612 373b 7808 6dbe
00000060: ad10 dbbd ada4 9a3d 42e8 c8bc a8f2 613e
00000070: 0b23 a13d 5d1d 5ebe 856a 43be b8ef 263e
00000080: b884 4abd 7c82 343e fc6b 0bbd 8c23 3abe
00000090: 73b2 8bbd fdb7 ae3d b878 19be 124a e13d
000000a0: 1a10 3f3e 13de 78be 31c4 22be 2a09 313d
000000b0: 3dd8 643e c93e 59be 5698 63be fa77 74bd
000000c0: 2c3d 963d 1e43 66be 90ec 21bd eaf3 7a3e
000000d0: 1826 95bb 4b40 d43c 25e2 3f3e 8485 a23c
000000e0: 3360 613d fa30 313e 1dc6 5fbe ea29 20bd
000000f0: 4960 213d a065 633e ac59 d83d 5f67 54be

patch_embed.4.weight f4 [64, 16]
-0.15406121 0.16159216 -0.15757939 0.17986785 -0.1648915 -0.04564064 0.23963104 -0.018553669
-0.028285358 -0.16556674 0.1757702 -0.24154279 -0.16666892 -0.13207953 0.10477575 0.17566407
0.020816594 0.23407005 0.058579516 0.18549445 -0.00073316327 0.0942172 -0.070553094 0.065763734
0.22702938 0.16032499 -0.21579735 0.18936096 -0.09925162 -0.22791368 -0.13429181 -0.15444158
-0.18235388 0.15925795 0.04214742 0.12006734 -0.07881852 -0.00394953 0.023938106 -0.03413978
-0.0023978057 -0.18039143 0.21022685 0.14903457 -0.05157187 -0.11520574 -0.059640948 0.21928091
0.094220586 0.064590566 0.13692503 0.03559395 -0.15063204 -0.12365161 -0.20939417 -0.09118723
-0.078048244 0.23770793 -0.15796027 0.19820486 -0.16598637 0.1772574 0.07625317 -0.027811823
-0.24441476 -0.086825766 0.22077224 -0.15613045 -0.028269108 -0.15555666 0.10279699 0.002388533
-0.17850402 -0.006760039 -0.0061697196 -0.10024543 -0.23208837 -0.03090558 -0.007988468 0.108152725
0.21329089 -0.123783454 0.025721135 -0.24835087 -0.13937864 -0.2516884 0.05936028 -0.087327905
0.14407225 0.13533987 -0.22824548 0.24219945 0.15028928 -0.19519347 0.009186195 -0.21935101
0.21183118 0.050821964 -0.09836567 0.082127795 -0.14007929 0.2100449 0.032456223 0.122414686
0.060174022 0.016671047 0.23188248 -0.13039045 -0.20432432 -0.1990315 0.23644589 -0.18827283
-0.12892102 0.2504845 -0.14288084 0.048651718 -0.21317376 -0.20180286 -0.09467166 0.07052089
-0.0038096716 0.06683374 0.085345164 0.14321825 -0.038563818 -0.22399947 -0.21667421 0.14786915
0.042086456 0.178483 -0.18312578 -0.11934335 -0.23285629 -0.04155694 -0.025378402 0.12640496
-0.0809009 -0.0027936671 0.19856508 0.19444099 -0.011686742 0.07236272 -0.012821004 -0.084900044
-0.105530694 -0.21006332 0.25574514 0.081671566 -0.035959627 -0.19632743 0.13659598 -0.22974539
-0.04653672 0.08115042 -0.0054461285 -0.1947301 -0.079084896 -0.23726189 0.2342822 0.008437312
-0.15978271 0.048000097 0.08328978 -0.18402538 -0.028048003 0.12087502 -0.17457575 0.15469855
0.08586984 0.15867814 0.06256221 -0.06272329 0.15584575 0.04473532 0.11120051 0.13171181
0.12310911 -0.089349836 -0.2045608 -0.23889454 0.075463586 0.06313961 0.06552297 -0.09847654
-0.059344374 -0.16652645 -0.14661616 0.21987467 0.21948914 0.1675216 0.19975036 0.20944497
0.19681786 0.043441124 0.18501736 0.06598029 -0.10218453 -0.16104521 0.094733275 0.22497705
-0.14372118 -0.13617708 0.071452186 -0.1539082 0.1920132 0.1427693 -0.25540474 -0.09561959
0.03409544 -0.057199433 0.15944453 0.07159125 -0.004040429 -0.03843519 -0.04544347 -0.16510521
0.20741409 -0.10574879 0.00963842 -0.10009594 0.10496138 0.22365537 0.2103577 0.20108049
-0.10184681 -0.008061881 -0.18598364 -0.23872241 -0.03269627 0.19342273 0.15917853 -0.1840824
-0.030573262 0.03437306 0.0012386709 0.057177626 0.13695279 0.22055897 -0.036193047 0.14805597
0.103848316 0.026021551 -0.10173817 -0.1547617 0.061920337 0.10138051 -0.18888581 -0.026829422
0.011660043 0.13491201 -0.12693839 0.16662829 -0.019369436 -0.09195633 -0.1307236 -0.10856636
00000000: 39c2 1dbe 6a78 253e 7e5c 21be 472f 383e
00000010: 51d9 28be aef1 3abd d761 753e ddfd 97bc
00000020: b2b6 e7bc 548a 29be 1afd 333e fe56 77be
00000030: 42ab 2abe db3f 07be ab94 d63d 48e1 333e
00000040: 9087 aa3c 0fb0 6f3e 13f1 6f3d 42f2 3d3e
00000050: c131 40ba f3f4 c03d 247e 90bd 23af 863d
00000060: 647a 683e 3c2c 243e fbf9 5cbe d7e7 413e
00000070: 6f44 cbbd 3462 69be cb83 09be ef25 1ebe
00000080: faba 3abe 8414 233e c6a2 2c3d dee5 f53d
00000090: 9b6b a1bd 0f6b 81bb d919 c43c 27d6 0bbd
000000a0: 8124 1dbb 88b8 38be b545 573e 859c 183e
000000b0: 063d 53bd fdf0 ebbd 114a 74bd 2d8b 603e
000000c0: b9f6 c03d 0f48 843d 1336 0c3e f6ca 113d
000000d0: 493f 1abe 0e3d fdbd 6d6b 56be 5fc0 babd
000000e0: c2d7 9fbd b569 733e 56c0 21be 37f6 4a3e
000000f0: 55f8 29be f782 353e 9f2a 9c3d 9fd5 e3bc
00000100: dd47 7abe b5d1 b1bd 1e12 623e a9e0 1fbe
00000110: 9e94 e7bc 3f4a 1fbe 3a87 d23d ef88 1c3b
00000120: c2c9 36be 5183 ddbb 5c2b cabb 7a4d cdbd
00000130: 93a8 6dbe b32d fdbc 10e2 02bc 2d7f dd3d
00000140: ed68 5a3e 2e82 fdbd 21b5 d23c b14f 7ebe
00000150: 46b9 0ebe 4ddd 80be c423 733d f9d8 b2bd
00000160: ad87 133e 8996 0a3e 2fb9 69be 2203 783e
00000170: 6fe5 193e cce0 47be b281 163c 8d9d 60be
00000180: 46ea 583e b12a 503d f173 c9bd 9e32 a83d
00000190: f270 0fbe 0316 573e d1f0 043d 8db4 fa3d
000001a0: 0979 763d b891 883c 9a72 6d3e 1385 05be
000001b0: 653a 51be eace 4bbe df1e 723e 98ca 40be
000001c0: df03 04be 813f 803e 5b4f 12be 0647 473d
000001d0: 394a 5abe 69a5 4ebe 37e3 c1bd 426d 903d
000001e0: afab 79bb 21e0 883d 72c9 ae3d cea7 123e
000001f0: 18f5 1dbd 1e60 65be d8df 5dbe 036b 173e
00000200: d962 2c3d 3fc4 363e 5385 3bbe 496a f4bd
00000210: e171 6ebe 9c37 2abd 5ee6 cfbc 4d70 013e
00000220: 5faf a5bd f515 37bb a554 4b3e 8a1b 473e
00000230: c079 3fbc e832 943d 300f 52bc 13e0 adbd
00000240: 7a20 d8bd d71a 57be 07f1 823e 6c43 a73d
00000250: 674a 13bd 0f0a 49be d1df 0b3e 6042 6bbe
00000260: 4a9d 3ebd 3132 a63d 7075 b2bb 5467 47be
00000270: 43f7 a1bd c8f4 72be ace7 6f3e a73c 0a3c
00000280: 149e 23be c09b 443d d593 aa3d 2671 3cbe
00000290: edc4 e5bc 538d f73d fcc3 32be 4c69 1e3e
000002a0: 87dc af3d 867c 223e 9e20 803d 1175 80bd
000002b0: 0796 1f3e 623c 373d 18bd e33d 76df 063e
000002c0: a120 fc3d 0cfd b6bd 6378 51be c5a0 74be
000002d0: a78c 9a3d 574f 813d e830 863d 11ae c9bd
000002e0: 1613 73bd e985 2abe 8c22 16be d326 613e
000002f0: c3c1 603e c88a 2b3e 5c8b 4c3e be78 563e
00000300: 9f8a 493e 52ef 313d 3175 3d3e ad20 873d
00000310: 1f46 d1bd 09e9 24be 8503 c23d 6260 663e
00000320: a52b 13be 0172 0bbe 8655 923d 1c9a 1dbe
00000330: 1c9f 443e 1e32 123e 69c4 82be 34d4 c3bd
00000340: a9a7 0b3d f449 6abd 6d45 233e 6f9e 923d
00000350: 9365 84bb 386e 1dbd ef22 3abd 5711 29be
00000360: 5c64 543e d292 d8bd 77ea 1d3c 1aff ccbd
00000370: fef5 d63d ea05 653e 0268 573e 0be8 4d3e
00000380: 0f95 d0bd fb15 04bc 7f72 3ebe a673 74be
00000390: 86ec 05bd 9c10 463e b2ff 223e 1980 3cbe
000003a0: c774 fabc c4ca 0c3d e65a a23a 1633 6a3d
000003b0: 5a3d 0c3e 36da 613e 293f 14bd fc9b 173e
000003c0: 6dae d43d 262b d53c 1a5c d0bd da79 1ebe
000003d0: 2ea0 7d3d 96a0 cf3d 486b 41be 60c9 dbbc
000003e0: c409 3f3c 6026 0a3e 23fc 01be 9ba0 2a3e
000003f0: a7ac 9ebc 9a53 bcbd 68dc 05be 0a58 debd

patch_embed.4.bias f4 [64]
0.011430339 -0.033303626 -0.095798895 0.17899927 -0.1826404 0.13682057 -0.1581614 -0.13707547
-0.23205408 -0.23958431 -0.06113962 -0.1380245 0.13407993 -0.18158634 0.2455334 -0.17559619
0.2113581 -0.050006587 0.23412858 -0.19812317 0.17821251 -0.019642366 -0.044959385 -0.12770775
0.04436518 -0.12594557 -0.12875734 -0.14663266 0.23709485 -0.022017248 -0.20894632 -0.21993318
0.025943203 -0.0045746607 0.22525904 0.16677323 0.18059064 0.091054775 -0.082728624 0.23946743
-0.22943182 0.14152563 0.03678708 0.12617381 -0.15348099 -0.20497766 -0.0932487 -0.046441752
0.24004449 0.015907379 -0.18163432 -0.067631826 -0.13450639 0.15398192 -0.21925686 0.008605833
-0.24895225 0.07762272 -0.23252659 -0.1324542 -0.15441497 -0.1854769 -0.08742086 -0.1322713
00000000: 5146 3b3c 6269 08bd 3632 c4bd 964b 373e
00000010: 1606 3bbe b11a 0c3e 10f5 21be 835d 0cbe
00000020: 969f 6dbe 9755 75be 8a6d 7abd 4b56 0dbe
00000030: 404c 093e c5f1 39be 1c6d 7b3e 7dcf 33be
00000040: 426e 583e b5d3 4cbd 67bf 6f3e cde0 4abe
00000050: 577d 363e 07e9 a0bc 5527 38bd d2c5 02be
00000060: 43b8 353d e0f7 00be f7d8 03be df26 16be
00000070: fec8 723e 845d b4bc 06f6 55be 2a36 61be
00000080: d786 d43c 09e7 95bb 4eaa 663e 9ac6 2a3e
00000090: c1ec 383e ed7a ba3d a06d a9bd f336 753e
000000a0: 2df0 6abe 18ec 103e 0dae 163d b533 013e
000000b0: 1f2a 1dbe aae5 51be 2df9 bebd b539 3ebd
000000c0: 39ce 753e 3150 823c 59fe 39be 8e82 8abd
000000d0: 0bbc 09be 70ad 1d3e df84 60be 7bff 0c3c
000000e0: 57ed 7ebe a9f8 9e3d 731b 6ebe 13a2 07be
000000f0: f51e 1ebe a8ed 3dbe b509 b3bd 2172 07be
