checkpoints/patchtst_1769066975.pth (torch, 444672 bytes, 45 tensors)

positional f4 [1, 7, 64]
0	0x3b12506e	0.0022325772
1	0xbc8adb2b	-0.01695021
2	0xbd5f9047	-0.054580953
3	0x3c78d6cf	0.015187933
4	0x3cc58c74	0.024114825
5	0x3c73f9eb	0.014891128
6	0xbc397ddb	-0.01132151
7	0xbcb2192d	-0.02174052
8	0x3cacb026	0.021080088
9	0xbb6ff824	-0.003661641
10	0x3c9f1a93	0.019421851
11	0xbae28310	-0.0017281491
12	0xbc7cf8b8	-0.015440159
13	0xb9ec4722	-0.00045066426
14	0xbcc9b78c	-0.024623655
15	0xbbe937a0	-0.0071172267
16	0xbcc5a915	-0.024128476
17	0x3c3f95c7	0.011693425
18	0xbc5cf698	-0.013486527
19	0xbd1eb5d0	-0.03874761
20	0x3c33619f	0.010948568
21	0x3c83d598	0.01609306
22	0x3b7801b2	0.0037842807
23	0x3cf18ff1	0.029487582
24	0xbd1b90b2	-0.03797979
25	0x3c91179a	0.01771145
26	0xbb60ab75	-0.0034281884
27	0x3cc2b29f	0.023766814
28	0xbb72fb65	-0.0037076112
29	0x3c457bc0	0.01205343
30	0x3d02c9ec	0.03193085
31	0xbc2777ed	-0.010221464
32	0xbc521a13	-0.012823599
33	0x3c4cd535	0.012502004
34	0xbce2e5c5	-0.027697453
35	0xbb0cabe1	-0.0021464752
36	0xbc352515	-0.011056204
37	0x3ca2bdb3	0.019865846
38	0x3c8f59c4	0.017498858
39	0xbb431802	-0.0029768948
40	0x3d05e6a1	0.032690648
41	0x3c022549	0.00794346
42	0xbc92a5ba	-0.01790129
43	0x3d13e6b5	0.03610869
44	0x3d14c0a4	0.03631653
45	0xbc9097cb	-0.017650506
46	0xbb81aa46	-0.0039570658
47	0xbb97fda3	-0.00463839
48	0xbcd601f4	-0.026123978
49	0xbcaf0a65	-0.021367261
50	0x3c901714	0.01758913
51	0x3c550ad4	0.01300307
52	0xbc0b5c6a	-0.00850592
53	0x3c1ec376	0.009690156
54	0x3ccfda7c	0.025372736
55	0xbb3559be	-0.0027671899
56	0xbcb72276	-0.0223553
57	0xbc682b73	-0.014170515
58	0x3cc2a48f	0.023760108
59	0xbc9c65a6	-0.019091439
60	0xbc93522e	-0.017983522
61	0x3d350a53	0.0441993
62	0xbc801dff	-0.015639303
63	0x3c0d8755	0.008638223
64	0xbc155f14	-0.009116907
65	0x3c99d401	0.01877785
66	0xbd01254d	-0.031529713
67	0xba0ac008	-0.0005292897
68	0xbc98523a	-0.018593896
69	0xbd48390c	-0.04888253
70	0x3b6271ec	0.0034552766
71	0x3c0f9fa7	0.008766091
72	0xbcd7e997	-0.026356502
73	0x3c9d61ef	0.019211737
74	0x3c4c0fb2	0.012454914
75	0x3d2fb373	0.042895745
76	0xbc739f49	-0.0148695195
77	0xbbcbfd37	-0.006225254
78	0xbc40a4e8	-0.011758067
79	0x3b384ea4	0.0028123045
80	0xbc80b3bc	-0.015710704
81	0x3c559aea	0.013037423
82	0x3a8a7db1	0.0010566023
83	0x3c96ddcb	0.018416306
84	0xbb1891c7	-0.002328025
85	0xbc06ca7f	-0.00822699
86	0x3b5f4b7f	0.0034072099
87	0x3cd87263	0.026421731
88	0x3b17af07	0.0023145096
89	0x3d0b92d1	0.034075562
90	0xbba2144d	-0.0049462677
91	0xbac61ece	-0.0015115382
92	0x3ae87c08	0.001773716
93	0xbd2afff6	-0.04174801
94	0x3c836680	0.016040087
95	0xbcab208e	-0.020889547
96	0xbb25888f	-0.0025258397
97	0x3c9c54b0	0.01908335
98	0x3cd8e064	0.026474185
99	0xbc2d704c	-0.010585856
100	0xbca7904d	-0.02045455
101	0xbc92f480	-0.017938852
102	0x3c767067	0.015041447
103	0x3a66b62e	0.00088009506
104	0x3cbbd7a3	0.022929972
105	0x3c8250ad	0.01590761
106	0xbba631e7	-0.005071867
107	0xbd22acd2	-0.039715596
108	0xbbe4e27a	-0.006985006
109	0xbd32a374	-0.043612912
110	0x3c2c939d	0.010533241
111	0x3cba6d8e	0.022757318
112	0x3c993470	0.018701762
113	0xbbc14e87	-0.0058992538
114	0xbd30f8af	-0.043205913
115	0xbd6a963d	-0.057272185
116	0xbc6a19ab	-0.014288346
117	0x3bdb40c8	0.006691072
118	0xbd1cd689	-0.038290534
119	0x3d15144c	0.03639631
120	0x3c4d4284	0.012528066
121	0xbc1559cd	-0.009115648
122	0x3c9dbfa3	0.019256419
123	0x3ca36bfb	0.01994895
124	0xbd032948	-0.03202179
125	0x3d3754ce	0.04475861
126	0xbca669cc	-0.02031412
127	0xbb729847	-0.0037017034
128	0x3bdb5e89	0.006694619
129	0x3cbea008	0.023269668
130	0xbd0c2527	-0.03421512
131	0x3cfdb032	0.030967806
132	0x3cbcbe2e	0.023039903
133	0xbd0c942c	-0.034320995
134	0xbcf6aae5	-0.030110786
135	0x3bdf812b	0.006820818
136	0x3c27eeac	0.010249775
137	0x3ca1312c	0.019676767
138	0xbb302206	-0.0026875748
139	0x3a638ca4	0.000868032
140	0xbb383ff5	-0.0028114293
141	0xbb6d929f	-0.0036250723
142	0x3c2ea68d	0.010659826
143	0xbc9802b7	-0.018555982
144	0xbcbe4f81	-0.02323127
145	0x3cd1236b	0.025529584
146	0xbb82138c	-0.0039696153
147	0x3d451289	0.04811338
148	0x3cb44e1c	0.022009902
149	0x3c3432eb	0.010998468
150	0xbb953af3	-0.0045541464
151	0xbb297915	-0.0025859524
152	0xbb4ddce2	-0.0031412174
153	0x3b6f4f9e	0.0036515961
154	0x3c209a92	0.009802477
155	0xbb436986	-0.0029817536
156	0xbc10db69	-0.008841374
157	0x3be51c56	0.0069919033
158	0xbc9b5e1b	-0.018965771
159	0xbab12d5e	-0.0013517549
160	0x3b78b33d	0.0037948631
161	0x3ca9e3f8	0.020738587
162	0x3c2beea1	0.010493905
163	0x3bfa9401	0.007647038
164	0x3d168f13	0.03675754
165	0xbbf1d091	-0.0073795994
166	0xbcd339d5	-0.025784412
167	0x3c328586	0.010896092
168	0xbd386b6b	-0.045024317
169	0x3d0ebaba	0.034846045
170	0x3cbc6b68	0.023000434
171	0x3c8e3e0b	0.017363569
172	0x3b03a2f8	0.002008615
173	0x3b4b401b	0.0031013552
174	0xbb8373fc	-0.004011629
175	0xbb7b8888	-0.003838094
176	0xbc9fdb14	-0.019513644
177	0xba9acd68	-0.0011810483
178	0xbb99e855	-0.0046968856
179	0x3d2855fb	0.041097622
180	0xbc82015f	-0.015869794
181	0xbcc3999b	-0.023876956
182	0x3c42dc47	0.0118933385
183	0xbb3d6e59	-0.0028904884
184	0xbd1d53ae	-0.03840988
185	0x3c7b0239	0.015320354
186	0xbcadcb90	-0.02121523
187	0xbcb14526	-0.021639418
188	0x3be3402d	0.0069351406
189	0x3c042b3c	0.0080669485
190	0xbcfbe5fc	-0.030749314
191	0xbd05a38e	-0.03262668
192	0x3c02f12c	0.00799207
193	0xbc89deef	-0.016829936
194	0x3cff83b8	0.031190738
195	0xbc9ab2ad	-0.018884027
196	0x3cd9e62a	0.026599009
197	0x3c519bae	0.012793465
198	0xbd3f37ac	-0.046683952
199	0x3ca7d1f4	0.020485856
200	0x36eec9b4	7.116434e-06
201	0xba1402a2	-0.0005646144
202	0x3c9606c8	0.01831378
203	0xbc7a26a9	-0.015268006
204	0x3d780768	0.06055394
205	0xbcb8b132	-0.02254543
206	0x3bf76b92	0.007550665
207	0xbc4d5792	-0.012533085
208	0xbbb095dc	-0.0053889584
209	0x3c8ef919	0.017452763
210	0x3c93c76a	0.018039424
211	0xbbf69cca	-0.007526015
212	0x3d0fdce4	0.035122767
213	0xbbcd4024	-0.0062637497
214	0xbc626ddc	-0.013820138
215	0x3c87eba4	0.016591854
216	0x3d18610e	0.037201934
217	0xbc997683	-0.018733269
218	0x3c86c519	0.016451405
219	0x3d37ff50	0.04492122
220	0x3ad6db41	0.0016392247
221	0xbd106594	-0.035253122
222	0x3bfc5074	0.0077000204
223	0x3a896efa	0.0010485344
224	0x3c078eaa	0.00827376
225	0xbc16167d	-0.009160635
226	0x3d253b6c	0.040339872
227	0xbc59f6c9	-0.013303467
228	0x3c41ccf7	0.011828653
229	0x3c10dc6b	0.008841614
230	0x3b12f0cb	0.0022421356
231	0xbcc44fae	-0.023963775
232	0x3c6145df	0.013749569
233	0xbbbd927d	-0.005785285
234	0x3c755bf1	0.014975534
235	0x3c876674	0.016528346
236	0x3ce3b20e	0.027794864
237	0x3cdc0892	0.026859555
238	0xbd5ac512	-0.053410597
239	0x3a640e3b	0.000869963
240	0xbb15c3a0	-0.0022852197
241	0x3d1e6919	0.038674448
242	0xbd41644d	-0.047214795
243	0x3d138611	0.036016528
244	0x3c9bfa86	0.019040357
245	0x3cb0d506	0.021585952
246	0xbc57903d	-0.013156948
247	0x3d1e98e4	0.038720027
248	0x39d8a2cc	0.00041320024
249	0x3c9a4711	0.018832715
250	0x3c35353f	0.011060058
251	0x3c478045	0.012176578
252	0x3c2d931e	0.0105941575
253	0xbcd40eec	-0.025886022
254	0xbc88193f	-0.0166136
255	0xbca513a7	-0.020150973

patch_embed.0.weight f4 [64, 16]
0	0xbd22bce8	-0.039730936
1	0x3e224312	0.15845898
2	0x3e05b6a2	0.1305795
3	0xbd5bae08	-0.053632766
4	0xbd7b8c40	-0.06141305
5	0x3df18d6c	0.11794552
6	0x3d063de8	0.032773882
7	0xbe3664b2	-0.1781185
8	0x3ad73f98	0.0016422151
9	0xbe71abf4	-0.23600751
10	0xbdb9db64	-0.090750486
11	0x3d801108	0.062532485
12	0x3d848548	0.06470734
13	0xbd8a403c	-0.06750533
14	0x3dc26544	0.09491971
15	0x3bd45e58	0.006480973
16	0xbe719bce	-0.23594591
17	0xbd711b60	-0.058863997
18	0x3e568c3e	0.20951936
19	0xbdd6f160	-0.104952574
20	0xbe7b347e	-0.24531743
21	0x3e557150	0.20844007
22	0x3c2dcff8	0.010608666
23	0x3e1823be	0.14857385
24	0x3e526f16	0.20550188
25	0xbdd6370c	-0.10459718
26	0x3e673f4c	0.2258274
27	0xbbf61a18	-0.007510435
28	0x3e1d43bc	0.1535787
29	0x3dd03348	0.10166031
30	0x3e4de9a8	0.20108664
31	0xbcfe93c8	-0.031076327
32	0xbdebacd4	-0.11507574
33	0x3db7dd0c	0.08977708
34	0xbd429118	-0.047501653
35	0x3e30188a	0.17196861
36	0xbd762e38	-0.06010267
37	0x3e77c468	0.24196017
38	0xbe1a49a6	-0.15067157
39	0x3b788918	0.003792351
40	0xbe70eda2	-0.2352815
41	0xbd5f20c0	-0.054474592
42	0xbe596c9a	-0.21232834
43	0x3e52a9f4	0.20572644
44	0xbc95acd8	-0.018270895
45	0x3e133aca	0.14377895
46	0xbdc4c420	-0.096077204
47	0x3e60c6a8	0.21950781
48	0x3d820788	0.06349093
49	0xbe1580ca	-0.1459991
50	0x3da2d05c	0.07949898
51	0x3cc41a78	0.023938403
52	0xbd14b698	-0.036306947
53	0x3e1cf80e	0.15329
54	0x3b1fda98	0.0024391767
55	0xbe39c79a	-0.18142548
56	0x3e0811b4	0.13288003
57	0x3e7214ea	0.2364079
58	0x3e173722	0.14767125
59	0x3d79c620	0.060979962
60	0xbe3a4912	-0.18191937
61	0xbdf43078	-0.11923307
62	0x3e08d216	0.13361391
63	0x3e3bc794	0.18337852
64	0x3c8e5de8	0.017378762
65	0xbe518c74	-0.20463735
66	0xbb9de498	-0.0048185103
67	0xbe6125a0	-0.21987009
68	0x3e205fa0	0.15661478
69	0xbe58a62c	-0.2115714
70	0xbe644a52	-0.22293976
71	0x3e10d12a	0.1414229
72	0x3d4b7830	0.049675167
73	0x3e3b41a0	0.18286753
74	0xbd3c13b0	-0.045917213
75	0x3d62e480	0.055393696
76	0x3c3cdf18	0.011527799
77	0xbe44a702	-0.19204333
78	0x3daa9f9c	0.08331224
79	0x3e62007a	0.22070494
80	0xbddf87fc	-0.10914609
81	0x3e0cbee0	0.13744688
82	0xbdca5abc	-0.098805875
83	0x3d5ca6e8	0.05387011
84	0xbe50e428	-0.20399535
85	0xbe4721e2	-0.19446519
86	0x3e2b07a8	0.1670214
87	0xbd3b83f8	-0.045780152
88	0x3d117998	0.03551635
89	0xbdfe7370	-0.12424362
90	0xbe3d113a	-0.18463603
91	0x3c9ce628	0.019152716
92	0x3e277110	0.16351724
93	0x3dacd064	0.08438185
94	0x3de8331c	0.11337873
95	0x3e232ac6	0.15934286
96	0x3d92da84	0.07170585
97	0xbe1d99ac	-0.15390652
98	0x3e6748d6	0.22586378
99	0x3e5ef11c	0.21771663
100	0xbe190eae	-0.14947006
101	0x3e37b094	0.17938453
102	0xbe3717dc	-0.17880195
103	0x3d05dc78	0.03268096
104	0xbe118768	-0.1421181
105	0x3e4472c6	0.19184408
106	0xbe665750	-0.22494245
107	0xbd0cbd88	-0.03436044
108	0xbd73ba68	-0.059503943
109	0x3e11b13e	0.14227769
110	0xbe6ceacc	-0.23136443
111	0x3ded6c14	0.1159288
112	0xbe0f3fb4	-0.13989145
113	0xbe619100	-0.2202797
114	0xbe57a744	-0.210599
115	0xbd080178	-0.033204526
116	0x3dd9615c	0.10614273
117	0xbdba2d04	-0.09090617
118	0xbe33f2b2	-0.1757305
119	0xbe41d210	-0.18927789
120	0xbd9bfd2c	-0.07616648
121	0xbcff7088	-0.031181589
122	0x3d9df978	0.07713598
123	0xbba88258	-0.0051424913
124	0x3e50c8b0	0.20389056
125	0x3e3ab516	0.18233141
126	0xbd97f83c	-0.07420394
127	0xbba49358	-0.0050224476
128	0xbd0fced8	-0.03510937
129	0x3e554fa4	0.20831162
130	0x3dc6c490	0.0970546
131	0x3d731408	0.059345275
132	0xbe6b8700	-0.23000717
133	0x3d819078	0.06326383
134	0x3d91b0b8	0.071137846
135	0xbda0d34c	-0.07852802
136	0x3e0abb70	0.13548064
137	0x3dbb9a7c	0.09160325
138	0x3d8a1eb0	0.067441344
139	0xbe210dc2	-0.15727904
140	0x3e2a054e	0.16603586
141	0xbe51e842	-0.20498756
142	0xbdc59ad4	-0.09648672
143	0x3e4df1a4	0.2011171
144	0x3e56caa6	0.20975742
145	0x3e7fbfbe	0.24975488
146	0x3e66617e	0.22498128
147	0xbe21e3d4	-0.15809566
148	0x3e405af0	0.1878469
149	0x3d5877c8	0.052848607
150	0x3e75bb9a	0.23997346
151	0x3e01e0b4	0.12683374
152	0xbe5f4914	-0.21805221
153	0x3e279596	0.16365656
154	0x3e434b56	0.19071707
155	0xbe5e5540	-0.21712208
156	0x3df7423c	0.1207318
157	0xbe2d9f86	-0.16955385
158	0xbc4c1a18	-0.012457393
159	0x3c0266f8	0.00795912
160	0x3e3786f6	0.17922577
161	0xbdfa94f0	-0.12235439
162	0xbdc087c4	-0.09400895
163	0x3a2e9b98	0.00066607585
164	0xbe1c20aa	-0.15246835
165	0xbb9cae98	-0.0047815554
166	0x3e704820	0.23465014
167	0xbde61008	-0.112335265
168	0xbda66d30	-0.081262946
169	0xbe0e93a8	-0.13923514
170	0xbe7a61ce	-0.24451372
171	0xbe09e742	-0.13467124
172	0xbd52d0a8	-0.05146852
173	0x3e1d07ee	0.15335056
174	0x3c662b78	0.01404845
175	0x3e010944	0.12601191
176	0xbc6f0178	-0.0145877525
177	0xbe592068	-0.21203768
178	0x3d7aae58	0.061201423
179	0xbe66d20a	-0.22541061
180	0xbdcc1d8c	-0.09966573
181	0xbe1087bc	-0.14114279
182	0xbdf54c30	-0.11977422
183	0x3b8b3f58	0.0042494945
184	0xbe3b57c0	-0.18295193
185	0xbe5c28fe	-0.21500012
186	0xbe77bb4a	-0.24192539
187	0xbdcdcb48	-0.100485384
188	0xbe2be6ae	-0.16787216
189	0x3e30f110	0.17279458
190	0xbd9a5f4c	-0.07537708
191	0x3bfb6958	0.00767247
192	0x3e268cac	0.162646
193	0x3df0ebdc	0.117637366
194	0xbe730e2c	-0.23735875
195	0x3de8d4fc	0.113687485
196	0x3d5c1d50	0.053738892
197	0x3df109d4	0.11769453
198	0xbe26cf80	-0.16290092
199	0x3e7ab604	0.24483496
200	0xbe44d9fa	-0.19223776
201	0xbc50b4d8	-0.012738429
202	0x3e243138	0.160344
203	0x3e154b76	0.14579567
204	0x3ca21438	0.019785032
205	0x3e1f7bfc	0.1557464
206	0xbe217916	-0.15768847
207	0xbe251710	-0.16122079
208	0xbe207616	-0.15670046
209	0x3e7cba0a	0.24680343
210	0x3e0233be	0.1271505
211	0x3d722bf8	0.059123963
212	0x3e4a604c	0.19763297
213	0xbd806954	-0.0627009
214	0x3e1c6a7a	0.15274993
215	0xbcf35c68	-0.029707149
216	0xbdda5094	-0.106599
217	0xbde5d610	-0.1122247
218	0x3d770518	0.060307592
219	0x3db14a64	0.08656767
220	0xbdfa5024	-0.12222317
221	0xbe1ace22	-0.15117696
222	0xbe21c97a	-0.15799513
223	0x3e33c3ea	0.17555204
224	0x3d816acc	0.06319198
225	0x3e420e38	0.18950737
226	0xbd5f96c0	-0.054587126
227	0x3e14498c	0.14481181
228	0x3e15db8a	0.14634529
229	0x3dce5a6c	0.1007584
230	0x3e5faab4	0.21842462
231	0xbd43ac70	-0.04777187
232	0xbd43c368	-0.047793776
233	0x3e70d1a2	0.23517469
234	0x3e1b0478	0.15138423
235	0x3e303bb2	0.17210272
236	0x3e4c1488	0.19929707
237	0xbe58060c	-0.21096057
238	0x3da588dc	0.080827445
239	0x3dde8714	0.10865608
240	0xbda9d25c	-0.08292076
241	0xbe23cbe8	-0.15995753
242	0xbdd5f1a4	-0.1044648
243	0xbde4a554	-0.11164346
244	0xbcd04778	-0.025424704
245	0xbdbc455c	-0.09192917
246	0xbdc360c0	-0.09539938
247	0xbda1fad0	-0.07909167
248	0x3df1b22c	0.11801562
249	0x3e3b7ac8	0.18308556
250	0xbe21e828	-0.15811217
251	0xbda1065c	-0.07862541
252	0xbc3e3818	-0.0116100535
253	0xbcb69a88	-0.022290483
254	0x3ddc8b64	0.10768774
255	0x3df22318	0.118231

patch_embed.0.bias f4 [64]
0	0xbdddceab	-0.108304344
1	0x3e51871e	0.204617
2	0xbd208562	-0.039189704
3	0x3cd7baf6	0.026334267
4	0xbce21de6	-0.027602147
5	0x3e473a98	0.19455945
6	0x3e487304	0.19575125
7	0x3e2eaaad	0.17057295
8	0xbe800a2c	-0.2500776
9	0x3e5f70b9	0.21820344
10	0x3e5ed08d	0.21759243
11	0x3dfef0ed	0.12448297
12	0xbd833bb1	-0.064078696
13	0x3e3db907	0.18527614
14	0xbdd4bdc5	-0.10387758
15	0xbb164d4f	-0.0022934263
16	0x3e06186c	0.13095254
17	0x3da85754	0.082197815
18	0x3de341ac	0.1109651
19	0xbde935bc	-0.11387202
20	0xbd77256f	-0.060338434
21	0xbe2fa1ef	-0.17151617
22	0x3e63a911	0.22232462
23	0x3da2121c	0.0791361
24	0x3dc92a0c	0.09822473
25	0x3df59d27	0.11992865
26	0xbb73ee60	-0.003722094
27	0x3e21ac40	0.15788364
28	0xbe112367	-0.14173661
29	0x3dab2899	0.08357353
30	0x3dba3939	0.090929456
31	0xbe760412	-0.2402499
32	0xbdc5910a	-0.09646805
33	0xbd1062cb	-0.035250466
34	0xbd8368ef	-0.06416499
35	0xbe07abef	-0.13249181
36	0xbe27a794	-0.1637252
37	0xbd82688e	-0.063675985
38	0xbdf92563	-0.12165334
39	0x3d0573b4	0.032581046
40	0x3d4a77d6	0.04943069
41	0x3d960d77	0.07326787
42	0x3e2c7909	0.16843046
43	0x3dcc5249	0.09976632
44	0x3deb9613	0.11503234
45	0x3c89bc0b	0.016813299
46	0x3d15c8c2	0.03656841
47	0x3e25adb5	0.16179545
48	0x3e7af959	0.24509181
49	0x3e2bd1ce	0.16779253
50	0x3e6d6f63	0.23187022
51	0x3ba16aab	0.004926046
52	0xbdc0d6f8	-0.09416002
53	0x3e2c440c	0.16822833
54	0x3e345e11	0.17614008
55	0x3e5f4b6f	0.2180612
56	0x3d9a63ab	0.075385414
57	0x3e0d4147	0.13794433
58	0x3e249bb9	0.16075028
59	0x3e167dd5	0.14696439
60	0xbe6a07cb	-0.22854535
61	0xbd25e621	-0.04050267
62	0xbb8930a6	-0.0041867075
63	0xbcb45dd7	-0.022017403

patch_embed.1.weight f4 [64, 16]
0	0xbe35ea0c	-0.17765063
1	0x3e5836ec	0.21114701
2	0x3d615fe0	0.055023074
3	0xbe777cce	-0.24168703
4	0x3c144358	0.009049259
5	0x3db27718	0.087141216
6	0xbc7385b8	-0.014863424
7	0x3e097622	0.1342397
8	0x3e142096	0.14465556
9	0xbc9e4be8	-0.019323304
10	0x3e010d5a	0.1260275
11	0xbbd87318	-0.006605517
12	0x3df187e0	0.11793494
13	0xbdb79ff8	-0.089660585
14	0xbe2fe932	-0.171788
15	0x3e0a6266	0.13514099
16	0x3cc7e5d8	0.02440159
17	0xbe4e0fde	-0.2012324
18	0xbe7fa336	-0.24964604
19	0x3e0c894c	0.1372425
20	0xbc8a29c8	-0.016865626
21	0x3e53c56e	0.20680782
22	0xbe77d236	-0.24201283
23	0xbe0f6aac	-0.14005536
24	0xbe60b0a0	-0.21942377
25	0x3d982f48	0.07430893
26	0x3cd6d248	0.026223317
27	0x3dce6520	0.10077882
28	0x3d463600	0.048391342
29	0xbdc3c09c	-0.09558222
30	0x3d318da8	0.043347985
31	0xbe6e597c	-0.23276323
32	0x3e1d797e	0.15378377
33	0xbdb47e74	-0.088131815
34	0x3e45a126	0.19299755
35	0xbde0319c	-0.10946962
36	0x3e1dae04	0.15398413
37	0xbc8ca5a8	-0.017168835
38	0x3c025cb8	0.007956676
39	0x3d953eb0	0.07287347
40	0x3ce86cb8	0.028372154
41	0x3cd466c8	0.025927916
42	0xbe750474	-0.2392748
43	0x3e4466f0	0.19179893
44	0x3da8b6e8	0.082380116
45	0x3db206c4	0.08692697
46	0xbe506d32	-0.20354155
47	0x3dfa16a8	0.122113526
48	0xbde2366c	-0.110455364
49	0x3d2a22a0	0.041536927
50	0x3e747334	0.23872072
51	0x3d1b9350	0.037982285
52	0x3e1cd7fe	0.1531677
53	0xbdb62794	-0.08894268
54	0xbc7564b8	-0.0149776265
55	0x3e033796	0.12814173
56	0xbe027582	-0.12740138
57	0x3de9fdec	0.11425385
58	0x3e3c2e8a	0.18377128
59	0x3d6c0e48	0.057630807
60	0xbe6aba48	-0.22922623
61	0xbd594768	-0.053046614
62	0x3e14dcd8	0.1453737
63	0x3e1076ec	0.14107865
64	0x3de1229c	0.10992929
65	0x3e17006c	0.14746255
66	0xbd6eaad0	-0.05826837
67	0x3e07a080	0.1324482
68	0xbdc52668	-0.09626466
69	0xbe3dea08	-0.18546307
70	0xbc1e7d98	-0.009673499
71	0xbda11244	-0.07864812
72	0xbe73f348	-0.23823273
73	0xbd778100	-0.06042576
74	0x3ddb5038	0.1070866
75	0x3dee94e4	0.116494924
76	0x3d5775a0	0.05260241
77	0x3e4fc9aa	0.20291772
78	0xbddefcc0	-0.10888052
79	0x3d181048	0.037124902
80	0xbdde6150	-0.10858405
81	0x3e704bac	0.23466367
82	0xbd55eb60	-0.052226424
83	0xbca170f8	-0.019707188
84	0xbc5a2df8	-0.013316624
85	0x3db3a650	0.08771956
86	0xbe79cae0	-0.24393797
87	0x3e52a222	0.20569661
88	0x3e2e6fd2	0.17034844
89	0xbe363b0e	-0.17795965
90	0x3c2173d8	0.009854279
91	0xbdf26cf0	-0.118371844
92	0x3e22a3f0	0.1588285
93	0x3df184e4	0.11792925
94	0xbda6b3a8	-0.081397355
95	0xbc5e72d8	-0.013577186
96	0x3e3d1454	0.18464786
97	0xbd5c98d8	-0.0538567
98	0x3d8065ac	0.06269392
99	0xbe7a5dee	-0.24449894
100	0xbd9bde20	-0.07610726
101	0xbe46d8f8	-0.19418705
102	0xbe3b0c12	-0.18266323
103	0xbde41420	-0.11136651
104	0x3e68dfca	0.22741619
105	0xbcedd4e8	-0.029032186
106	0x3e045686	0.12923631
107	0x3c5f9438	0.013646178
108	0x3e61c766	0.2204872
109	0x3c001d78	0.007819526
110	0xbe158ea4	-0.14605194
111	0x3e014dca	0.1262733
112	0xbd6d7388	-0.057971507
113	0x3d14f668	0.036367804
114	0x3dd16810	0.102249265
115	0x3e29ea20	0.16593218
116	0x3d7d9c10	0.06191641
117	0xbe230614	-0.15920287
118	0x3d175af8	0.03695199
119	0x3d822d84	0.06356338
120	0x3dccc874	0.09999171
121	0x3dddfb44	0.10838941
122	0x3e7954e0	0.24348783
123	0x3d89c028	0.06726104
124	0x3e7a744c	0.24458426
125	0xbe134dfc	-0.14385217
126	0xbd86493c	-0.06556937
127	0x3c872348	0.016496316
128	0x3e63619a	0.22205201
129	0x3e235634	0.15950853
130	0xbd62f908	-0.055413276
131	0xbd684ab0	-0.056711853
132	0x3e0e4c46	0.13896284
133	0x3de28718	0.11060923
134	0x3e510f48	0.20415986
135	0x3e58dc3c	0.21177763
136	0x3e656082	0.22400096
137	0xbd9452b4	-0.07242337
138	0x3e7bf790	0.24606156
139	0xbe6f2ce6	-0.23356971
140	0xbe0bb200	-0.1364212
141	0xbd745458	-0.05965075
142	0xbd7cafa0	-0.061690927
143	0xbe19cf68	-0.15020525
144	0x3db389ac	0.08766493
145	0xbe68eccc	-0.22746581
146	0xbe267638	-0.16256034
147	0xbe49a8f2	-0.19693354
148	0xbe0682fe	-0.13135907
149	0xbd71baf0	-0.059016168
150	0xbe56276a	-0.20913473
151	0x3e3923c0	0.18080044
152	0xbe217a6e	-0.1576936
153	0x3e56c114	0.20972091
154	0x3d74a620	0.05972874
155	0xbe494834	-0.1965645
156	0x3dae4ab8	0.08510345
157	0xbe4177aa	-0.18893304
158	0x3e3385ba	0.17531481
159	0xbe2cfa74	-0.16892415
160	0x3e29b054	0.1657117
161	0x3d5bbbe8	0.053646
162	0xbde10218	-0.109867275
163	0x3be16858	0.006878894
164	0xbe124cd4	-0.1428712
165	0x3d373510	0.04472834
166	0xbe5aac64	-0.21354824
167	0x3d83e348	0.06439835
168	0x3dee47c4	0.11634782
169	0xbe507bbe	-0.20359704
170	0x3e74e100	0.23913956
171	0xbe46c03c	-0.19409269
172	0x3dc4bd50	0.09606421
173	0x3dd9abd0	0.10628474
174	0xbe505ab8	-0.20347106
175	0xbdf7bd98	-0.12096709
176	0xbc2e3858	-0.010633551
177	0x3e1d9230	0.15387797
178	0xbd0940e8	-0.033509165
179	0x3dfde2b8	0.12396759
180	0x3ca1e928	0.019764498
181	0xbe387408	-0.18013012
182	0xbe6d0e40	-0.23149967
183	0xbe049c64	-0.12950283
184	0xbd5a8288	-0.05334714
185	0x3d5c2d98	0.05375442
186	0xbdfa43f4	-0.12219992
187	0x3e1328d4	0.14371043
188	0xbe306f56	-0.17229971
189	0x3e48f8b4	0.19626123
190	0x3de09628	0.1096614
191	0xbd9da3ac	-0.076972336
192	0x3e7a6962	0.24454263
193	0x3e50e53c	0.20399946
194	0x3da6ad58	0.081385314
195	0xbe1fe73e	-0.15615556
196	0xbc73a4b8	-0.014870815
197	0x3d407b78	0.04699275
198	0xbe5f1cda	-0.2178835
199	0xbe62e48c	-0.22157496
200	0x3dbf4ce8	0.093408406
201	0x3cad6598	0.021166608
202	0x3ca8da48	0.020611897
203	0x3c95b158	0.01827304
204	0xbda29b94	-0.079398304
205	0xbe3b7c7c	-0.18309206
206	0x3e3cee2e	0.18450233
207	0xbc143398	-0.009045504
208	0xbcf1e5d8	-0.029528543
209	0x3e52999c	0.2056641
210	0xbdda5a4c	-0.10661754
211	0x3d0d6348	0.03451851
212	0xbac4c098	-0.0015011011
213	0x3e3381aa	0.17529932
214	0xbd8b168c	-0.0679141
215	0xbd9d0030	-0.076660514
216	0xbe0db0c4	-0.13836962
217	0xbd67cd60	-0.056592345
218	0xbe3ca5b0	-0.1842258
219	0x3da34f90	0.0797416
220	0xbd8d2150	-0.068911195
221	0xbdf55020	-0.11978173
222	0xbe035eca	-0.12829128
223	0xbe2ed4c6	-0.17073354
224	0xbe45ab8a	-0.19303718
225	0xbdf74cd4	-0.12075201
226	0x3ab65f98	0.0013913987
227	0x3de281ec	0.11059937
228	0xbe3587ee	-0.17727634
229	0x3e4ce47e	0.20009038
230	0xbe1233e6	-0.1427761
231	0xbe4b884a	-0.19876209
232	0xbe2b4f72	-0.16729525
233	0x3e5292dc	0.20563835
234	0x3e785b6e	0.24253628
235	0xbe73616a	-0.2376763
236	0x3de6fdec	0.112789005
237	0x3d767a68	0.06017533
238	0xbe3d37e8	-0.18478358
239	0x3b8f5658	0.0043743066
240	0xbd209c78	-0.03921172
241	0xbd694790	-0.056953013
242	0xbe1343c4	-0.1438132
243	0xbd818d38	-0.063257635
244	0xbdc5f02c	-0.0966495
245	0xbd8e52a4	-0.06949356
246	0x3e58b22c	0.21161717
247	0xbe5665d6	-0.20937285
248	0x3d8ae95c	0.06782791
249	0x3c64f998	0.013975523
250	0xbde49898	-0.111619174
251	0xbdf58b5c	-0.11989471
252	0xbdde4f1c	-0.10854933
253	0xbe281aa0	-0.16416407
254	0x3e267264	0.16254574
255	0x3e419d0c	0.18907565

patch_embed.1.bias f4 [64]
0	0xbe0ba7d3	-0.13638239
1	0xbe69fbda	-0.2284998
2	0xbb8d35f5	-0.0043094107
3	0xbb07b439	-0.0020706786
4	0x3e2b736a	0.16743246
5	0xbd3c2e23	-0.045942437
6	0xbe235dff	-0.15953825
7	0x3e4dcb0b	0.20096986
8	0xbd9daeeb	-0.076993786
9	0xbdd9efb4	-0.10641423
10	0x3dfa458b	0.122202955
11	0xbd2d30c4	-0.042282835
12	0xbe054212	-0.13013485
13	0xbe3fb4c1	-0.18721296
14	0x3e0c48e2	0.13699678
15	0x3e3d6c57	0.1849836
16	0x3df853f2	0.12125386
17	0x3d264f66	0.040603064
18	0xbde49e0c	-0.111629575
19	0xbd68ec26	-0.056865834
20	0xbc5c0a47	-0.013430185
21	0x3d7f0feb	0.06227104
22	0xbe78256e	-0.24233028
23	0x3c2c660c	0.010522377
24	0xbe6c004b	-0.23046987
25	0xbe4e3c90	-0.2014029
26	0x3dac515b	0.08413955
27	0xbdfd859d	-0.12379
28	0xbd46fffa	-0.048583962
29	0x3d615a17	0.055017557
30	0x3e2f2e3a	0.17107478
31	0xbe03577e	-0.12826344
32	0x3d3c0ef2	0.04591269
33	0xbe3e63cd	-0.18592758
34	0x3bca94ed	0.006182304
35	0x3d8c0050	0.06835997
36	0xbe209ca7	-0.15684758
37	0x3e5fd842	0.2185984
38	0xbe7da02e	-0.24768135
39	0x3d5704f7	0.05249497
40	0xbe3cc761	-0.18435432
41	0x3cd0bf89	0.025481956
42	0x3d9bff9f	0.07617115
43	0xbd4a85e0	-0.04944408
44	0x3e114fc0	0.14190578
45	0x3e54397c	0.20725054
46	0x3e31811d	0.17334409
47	0x3e641ee6	0.22277412
48	0xbe0e529f	-0.13898705
49	0x3e02e282	0.12781718
50	0xbdd953d7	-0.10611694
51	0xbe7a6e1b	-0.24456064
52	0xbe3220a4	-0.17395264
53	0xbcfb515e	-0.030678447
54	0x3d38c7b9	0.045112345
55	0xbe145c59	-0.14488353
56	0xbd4151a3	-0.047196995
57	0x3e68ae22	0.22722676
58	0xbdfe2049	-0.12408502
59	0xbe2f6e38	-0.17131889
60	0xbe572a3f	-0.2101221
61	0xbd657d7f	-0.056027886
62	0xbe3ba994	-0.18326408
63	0xbd07369f	-0.033011075

patch_embed.2.weight f4 [64, 16]
0	0x3e3cc9fe	0.18436429
1	0xbc3787f8	-0.011201851
2	0xba92c498	-0.0011197506
3	0xbd012918	-0.03153333
4	0x3de10f9c	0.109893054
5	0x3e1c6cde	0.15275905
6	0xbe4480aa	-0.19189706
7	0xbda96f38	-0.082731664
8	0x3dca98b8	0.0989241
9	0xbdab1a74	-0.08354655
10	0x3e5ae45a	0.21376172
11	0xbdb24b30	-0.08705747
12	0xbe065628	-0.13118804
13	0x3e7e73bc	0.24848837
14	0x3cfa8658	0.030581638
15	0xbe4691b6	-0.19391522
16	0x3c96e6e8	0.018420652
17	0xbe13e2be	-0.14441964
18	0xbdc71e20	-0.09722543
19	0xbe7c7f7a	-0.24658003
20	0x3c31b3b8	0.010846071
21	0xbe035dfa	-0.12828818
22	0x3d71c0e8	0.05902186
23	0x3e101370	0.14069915
24	0xbd7a20d8	-0.06106648
25	0x3d83ced8	0.06435937
26	0xbe399e8c	-0.18126887
27	0xbe48440e	-0.19557211
28	0xbe5e39ca	-0.21701732
29	0xbe1eec10	-0.15519738
30	0x3ddb8820	0.10719323
31	0xbe4daea8	-0.20086157
32	0x3df6063c	0.12012908
33	0x3d8ff3cc	0.070289224
34	0x3a8a4998	0.0010550497
35	0x3debdfb4	0.11517277
36	0xbd021c90	-0.03176552
37	0xbe3c124c	-0.18366355
38	0xbb6b4618	-0.0035899933
39	0x3c9d1708	0.019176021
40	0xbd746340	-0.059664965
41	0xbe5968c6	-0.21231374
42	0xbe3c2532	-0.18373564
43	0x3ca2f4d8	0.019892141
44	0xbe5c6958	-0.2152456
45	0xbe646698	-0.22304761
46	0x3e1ab6d4	0.15108806
47	0x3e28226a	0.16419378
48	0x3e4877b8	0.19576919
49	0x3e06fb66	0.13181838
50	0xbd21e140	-0.039521456
51	0x3b725118	0.0036974605
52	0xbe5ff8aa	-0.21872202
53	0x3e45e170	0.19324279
54	0x3df49874	0.119431406
55	0x3cf33b08	0.029691234
56	0x3e7d6d58	0.24748743
57	0xbd988cd0	-0.07448733
58	0xbe324c40	-0.174119
59	0x3e4173fa	0.18891898
60	0x3e0434ae	0.1291072
61	0xbe2f54cc	-0.17122191
62	0xbc549818	-0.012975715
63	0xbe52feaa	-0.20604959
64	0xbe4838e0	-0.19552946
65	0xbe7c6c86	-0.24650773
66	0xbdaba4b4	-0.08381024
67	0xbd1ede38	-0.038786143
68	0x3dee5458	0.11637181
69	0xbd610310	-0.05493456
70	0x3e02bc28	0.12767088
71	0x3de9d950	0.11418402
72	0xbe1d121a	-0.15338936
73	0xbe72ddda	-0.23717442
74	0xbe6ffc56	-0.23436102
75	0x3da7ce3c	0.08193633
76	0xbdb0ce0c	-0.0863305
77	0x3e37b378	0.17939556
78	0x3e6608a2	0.2246423
79	0xbe5a3f14	-0.21313125
80	0xbe30a12c	-0.17248982
81	0x3e6d1eda	0.231563
82	0xbe4c983c	-0.19979948
83	0x3e780f52	0.24224594
84	0xbe74b1e4	-0.23895985
85	0x3d73b048	0.059494287
86	0x3e045908	0.12924588
87	0xbe6dc5ca	-0.23219982
88	0xbd5dd668	-0.05415955
89	0x3e78b4d4	0.2428773
90	0xbe4302d4	-0.19044048
91	0x3e60ffda	0.219726
92	0xbdb85b0c	-0.09001741
93	0x3dd22754	0.102614075
94	0x3d9e2364	0.07721594
95	0x3da4c088	0.08044535
96	0xbe2bfbb2	-0.16795233
97	0x3e30207e	0.17199895
98	0xbd0cdd58	-0.034390777
99	0xbe5f4488	-0.21803486
100	0xbe4ea000	-0.20178223
101	0x3da34b04	0.079732925
102	0xbe298c3e	-0.16557404
103	0xbd76f938	-0.060296267
104	0xbdf81df0	-0.12115085
105	0x3bb39798	0.005480718
106	0xbe40a7ce	-0.18814012
107	0xbcb27098	-0.021782205
108	0x3c9b53f8	0.018960938
109	0xbe6dfaac	-0.23240155
110	0xbdcdd498	-0.10050315
111	0xbe11773c	-0.1420564
112	0xbcd72278	-0.026261553
113	0x3e169c90	0.14708161
114	0xbe7492da	-0.23884144
115	0x3dda4034	0.10656777
116	0xbe56987a	-0.20956603
117	0x3db0ea58	0.086384475
118	0xbe2ed4f2	-0.1707342
119	0x3df6c184	0.12048629
120	0x3e09300a	0.13397232
121	0xbe593bda	-0.21214238
122	0xbe684234	-0.22681504
123	0xbe5fb7e6	-0.21847495
124	0xbe0d5b04	-0.13804251
125	0xbcf41ca8	-0.02979882
126	0x3e5e6880	0.21719551
127	0xbd1c0c80	-0.03809786
128	0xbe3c8b2c	-0.18412465
129	0x3de7fc44	0.11327413
130	0xbd52d328	-0.051470906
131	0xbe47dd3a	-0.19517985
132	0x3d3c72e0	0.04600799
133	0x3bde0458	0.00677542
134	0xbdca8c74	-0.098900706
135	0xbd850764	-0.0649555
136	0xbdc085e4	-0.094005376
137	0xbcac2cd8	-0.021017477
138	0xbe3cc2ae	-0.1843364
139	0xbe33dc16	-0.17564425
140	0x3d051348	0.03248909
141	0xbe2a7234	-0.16645128
142	0x3d273378	0.04082057
143	0xbe331002	-0.17486575
144	0xbe36e48e	-0.17860624
145	0x3da53970	0.08067596
146	0xbe51c42e	-0.20484993
147	0xbe4b03b8	-0.19825637
148	0xbd5ca940	-0.053872347
149	0x3e4e70f6	0.20160279
150	0x3dc6caf4	0.09706679
151	0x3dcf8dcc	0.101344675
152	0x3e530638	0.20607841
153	0x3d8f8a28	0.07008773
154	0x3d971f44	0.0737901
155	0x3d3e2d38	0.046429843
156	0xbdf01968	-0.11723596
157	0x3e175682	0.14779094
158	0x3e491a6c	0.19638985
159	0xbde0f054	-0.10983339
160	0x3e1a438a	0.15064827
161	0xbd6c02e8	-0.05761996
162	0x3cd58108	0.026062503
163	0xbe58cd6a	-0.21172109
164	0x3dcce204	0.100040466
165	0x3e1704ac	0.14747876
166	0x3e3a41fc	0.18189234
167	0x3d78d648	0.06075123
168	0x3e1cf8c2	0.15329269
169	0xbdb64c1c	-0.089012355
170	0x3c585518	0.013203882
171	0x3d9ebeb0	0.077512145
172	0x3d6b6e98	0.057478517
173	0x3e6ac500	0.22926712
174	0xbe5de4ea	-0.21669355
175	0x3e067d12	0.13133648
176	0x3dc478b8	0.09593338
177	0x3e6476e2	0.22310975
178	0xbcbf6a88	-0.023366228
179	0x3d9af694	0.07566562
180	0x3e32cdc6	0.17461309
181	0x3df3b260	0.11899257
182	0x3abbd498	0.0014330326
183	0xbe4a85e4	-0.19777638
184	0x3cb0e798	0.021594808
185	0x3e3a2a0a	0.18180099
186	0x3d4e86e0	0.050421596
187	0xbe6e496a	-0.23270193
188	0x3d1877b8	0.037223548
189	0xbe68265c	-0.22670883
190	0xbe1ec93e	-0.15506455
191	0xbe7b81d8	-0.2456125
192	0x3e72cdee	0.23711368
193	0xbdf2329c	-0.11826059
194	0xbc836788	-0.016040578
195	0x3e2cc29a	0.1687111
196	0xbe036f00	-0.12835312
197	0x3dd7decc	0.10540542
198	0xbe79bae6	-0.24387702
199	0xbdd18b58	-0.10231656
200	0xbd1824a0	-0.037144303
201	0x3d2c16a8	0.042013794
202	0x3e149784	0.14510924
203	0x3de05848	0.10954338
204	0x3e29ec06	0.16593942
205	0x3d047ff8	0.032348603
206	0x3d5f7298	0.054552644
207	0x3e724878	0.23660457
208	0x3c50b398	0.012738131
209	0xbdcee5f8	-0.10102457
210	0xbe60e2cc	-0.21961516
211	0xbe64b5c2	-0.2233496
212	0x3a6dbb98	0.0009068786
213	0xbe6a95ec	-0.22908753
214	0x3e504784	0.20339781
215	0x3e2b72ba	0.16742983
216	0xbe76bbba	-0.2409505
217	0xbce4fc78	-0.027952418
218	0xbe3f1730	-0.18661189
219	0xbe4be6d4	-0.19912273
220	0x3e4d7c5c	0.2006697
221	0x3e47bb54	0.19505054
222	0xbe6e8dd4	-0.2329629
223	0x3ca77328	0.020440653
224	0x3dfeb9a8	0.12437755
225	0x3d5fbbf0	0.05462259
226	0x3e510026	0.20410213
227	0xbe1af404	-0.15132147
228	0xbe552f94	-0.20818931
229	0xbd65bf40	-0.056090593
230	0x3dc88084	0.097901374
231	0x3d1a1a28	0.0376226
232	0xbd843a38	-0.06456417
233	0xbe32552a	-0.174153
234	0xbe4782d6	-0.19483504
235	0xbe1c84c6	-0.15285024
236	0xbe641492	-0.22273472
237	0x3d0d3a40	0.03447938
238	0x3e313c88	0.17308247
239	0xbdd272d0	-0.10275805
240	0xbe52e744	-0.20596033
241	0x3e71c4ec	0.23610276
242	0x3e2d17a0	0.16903543
243	0xbe1102cc	-0.14161223
244	0x3e2d929e	0.16950461
245	0x3e1e2dfa	0.15447226
246	0x3e190e1a	0.14946786
247	0xbc8bc7d8	-0.017063066
248	0xbe203990	-0.15646958
249	0xbd8a7e94	-0.06762424
250	0x3e096b3c	0.13419813
251	0xbe2d5258	-0.16925943
252	0x3de4a1c4	0.11163667
253	0xbd77d940	-0.06050992
254	0xbd2824a8	-0.041050583
255	0xbc197958	-0.0093673095

patch_embed.2.bias f4 [64]
0	0x3dbb734e	0.09152852
1	0x3c523ae7	0.012831426
2	0x3e3efb26	0.18650493
3	0xbde3983e	-0.11113022
4	0x3e1d1de7	0.15343438
5	0x3d50184a	0.050804414
6	0x3e46d573	0.19417362
7	0x3d1fe291	0.03903443
8	0x3e29cdb3	0.16582374
9	0xbe69e9df	-0.22843121
10	0xbe588b91	-0.2114699
11	0x3d22fc2a	0.039791264
12	0xbe578d22	-0.21049932
13	0x3e1e408b	0.15454309
14	0xbc73684d	-0.01485641
15	0x3e7182c5	0.23585041
16	0x3df65c33	0.12029304
17	0xbdc214f9	-0.094766565
18	0x3e4ebc10	0.20188928
19	0x3e696c71	0.22795273
20	0xbe314d1c	-0.17314571
21	0xbe074866	-0.13211212
22	0xbe0fef4d	-0.1405613
23	0xbcc78687	-0.02435614
24	0x3e1816f7	0.1485251
25	0x3dbd4991	0.09242547
26	0xbe5dfe50	-0.21679044
27	0xbcdedde9	-0.027205424
28	0xbd51df99	-0.05123863
29	0x3dcc9863	0.09990003
30	0xbe7f0caa	-0.24907175
31	0xbe44b8bd	-0.19211097
32	0x3e44e9bd	0.19229789
33	0x3e0e2f11	0.13885142
34	0x3e530737	0.20608221
35	0x3e43839c	0.19093174
36	0xbdb6f993	-0.08934321
37	0xbc85f9d4	-0.016354479
38	0x3d7127c9	0.058875833
39	0x3dd840ee	0.10559259
40	0x3dd3cf72	0.103423014
41	0xbd8d6d6c	-0.06905636
42	0x3e2c2dda	0.16814366
43	0x3e01456d	0.1262414
44	0x3e76f841	0.24118139
45	0xbdace44a	-0.0844198
46	0x3e662edb	0.22478811
47	0xbd8903f4	-0.06690207
48	0x3ddb6814	0.10713211
49	0xbe3f34f8	-0.1867255
50	0xbde66d8e	-0.11251365
51	0xbe20016a	-0.1562554
52	0xbcbfa79d	-0.023395354
53	0x3d987404	0.07444003
54	0xbc0c8f12	-0.0085790325
55	0x3d3cb015	0.046066362
56	0xbbcf00b3	-0.006317222
57	0x3e22a326	0.15882549
58	0xbe07d40c	-0.13264483
59	0x3d29fc51	0.041500393
60	0x3dc7cb66	0.09755592
61	0x3e79fd8c	0.24413127
62	0xbdbb9817	-0.09159868
63	0xbe7c1b99	-0.24619903

patch_embed.3.weight f4 [64, 16]
0	0x3dc09180	0.09402752
1	0xbe511f96	-0.20422205
2	0x3e52d32a	0.20588365
3	0x3b21b498	0.0024674293
4	0x3e50c8b2	0.20389059
5	0xbe401a6c	-0.18760079
6	0x3bd81e98	0.006595444
7	0x3e2c93f2	0.16853312
8	0xbe499286	-0.196848
9	0x3dcaf794	0.09910503
10	0x3e478e40	0.19487858
11	0xbe6ecc8c	-0.23320216
12	0x3e0851a0	0.13312387
13	0xbe0d2b14	-0.13785964
14	0x3deea1e0	0.11651969
15	0xbe1ed592	-0.15511158
16	0x3e47a26a	0.1949555
17	0xbd94c7f8	-0.072647035
18	0x3e17189e	0.14755484
19	0xbdb4f56c	-0.08835873
20	0xbcc754c8	-0.024332419
21	0xbe307128	-0.17230666
22	0xbdd8f594	-0.10593715
23	0xbe5eff4e	-0.21777079
24	0x3e223680	0.15841103
25	0xbe60719c	-0.21918339
26	0xbdb06384	-0.08612731
27	0xbc289558	-0.010289513
28	0xbe7c549a	-0.24641648
29	0xbe0cf28c	-0.137644
30	0x3dd1dc94	0.1024715
31	0x3e43d904	0.19125754
32	0xbe758ae8	-0.2397877
33	0xbcc91d88	-0.024550214
34	0x3e54da62	0.20786431
35	0x3db6f65c	0.08933708
36	0xbe003024	-0.12518364
37	0xbdeaa65c	-0.11457512
38	0x3e3d7de6	0.18505058
39	0x3e3e68be	0.18594643
40	0xbe732f30	-0.2374847
41	0x3e64127c	0.22272676
42	0x3ddafb8c	0.1069251
43	0x3e000f70	0.12505889
44	0x3e463cd2	0.19359139
45	0xbe45bf08	-0.19311154
46	0xbcd5faa8	-0.026120499
47	0x3e0e946e	0.13923809
48	0xbd897818	-0.06712359
49	0x3c4eb1b8	0.012615614
50	0xbe059480	-0.1304493
51	0x3e0c2740	0.13686848
52	0xbdcb0798	-0.09913558
53	0xbe0c396a	-0.13693777
54	0x3de76ac0	0.11299658
55	0xbd1877b8	-0.037223548
56	0xbd8088f4	-0.06276122
57	0xbe66b926	-0.22531566
58	0x3e7f11be	0.24909112
59	0x3df978c8	0.1218124
60	0xbbbbf898	-0.005736422
61	0x3e1bf580	0.1523037
62	0x3e3f6808	0.18692029
63	0xbe543bdc	-0.2072596
64	0x3dfe7c00	0.12425995
65	0x3d2b2bc8	0.0417898
66	0xbe10dc00	-0.14146423
67	0xbe6cf85e	-0.2314162
68	0xbe6bf068	-0.23040926
69	0x3dcb24f4	0.099191576
70	0xbe45b17a	-0.19305983
71	0xbdd27de0	-0.10277915
72	0xbe52bf40	-0.20580769
73	0xbdee7c4c	-0.116448015
74	0x3d815f1c	0.06316969
75	0xbe509c90	-0.20372224
76	0xbd722790	-0.05911976
77	0xbd7bb980	-0.061456203
78	0xbe712e14	-0.23552734
79	0xbe05f5a6	-0.13081989
80	0x3e53ae2a	0.20671907
81	0xbda4c9f0	-0.08046329
82	0xbe119706	-0.14217767
83	0xbddce258	-0.10785359
84	0xbe60e9f4	-0.21964246
85	0xbd1bc888	-0.03803304
86	0xbbcdd258	-0.0062811784
87	0x3c39e898	0.011346959
88	0xbdcd496c	-0.1002377
89	0xbcb02318	-0.021501109
90	0xbb9a7598	-0.0047137253
91	0x3e7c7cde	0.24657008
92	0xbb41a398	-0.0029546972
93	0xbe39995a	-0.18124905
94	0x3dd06564	0.10175589
95	0xbcaeb648	-0.021327153
96	0x3e73e40a	0.23817459
97	0xbe420d78	-0.1895045
98	0x3e3ff250	0.18744779
99	0x3d3ebbe8	0.04656592
100	0x3e40e206	0.18836221
101	0xbe2f055a	-0.17091885
102	0xbe274a78	-0.16337001
103	0xbb97a498	-0.0046277754
104	0x3e51159a	0.20418397
105	0xbd94711c	-0.072481364
106	0xbce13ae8	-0.027493909
107	0x3e2c3ade	0.16819331
108	0x3cc5e288	0.02415587
109	0x3e7a7674	0.24459249
110	0xbe788046	-0.24267682
111	0xbe122f34	-0.14275819
112	0xbc764978	-0.015032165
113	0x3e41588a	0.18881431
114	0x3e6f6c5e	0.23381183
115	0x3daefc10	0.08544171
116	0x3d43eb08	0.047831565
117	0x3e23dd0c	0.16002291
118	0x3d70c128	0.05877796
119	0xbd533348	-0.051562577
120	0x3e195d10	0.14976907
121	0x3e59152e	0.21199486
122	0x3c8ac828	0.016941145
123	0xbd9e9c64	-0.07744673
124	0x3d1619e8	0.0366458
125	0xbc82db58	-0.015973732
126	0xbe34ad3e	-0.17644212
127	0xbdfb9f70	-0.1228627
128	0x3dba0b10	0.09084141
129	0x3d705df0	0.058683336
130	0x3c81c738	0.015842065
131	0x3e3e6dec	0.1859662
132	0xbdefd4ac	-0.11710486
133	0x3e6d6432	0.23182753
134	0xbdaba7a8	-0.08381587
135	0x3e06d1be	0.13165948
136	0xbdcd3aa4	-0.100209504
137	0x3e3d5d60	0.18492651
138	0x3e6caa1a	0.23111764
139	0xbdf18780	-0.11793423
140	0x3e7d6eea	0.24749342
141	0xbe758608	-0.2397691
142	0xbb0fd998	-0.0021949764
143	0xbde05198	-0.10953063
144	0x3da12a04	0.07869342
145	0x3db4a190	0.08819878
146	0xbafb6498	-0.001917976
147	0x3e44529e	0.19172141
148	0x3e79d604	0.24398047
149	0xbe014fc6	-0.12628087
150	0x3e1de212	0.1541827
151	0xbe3ad5a8	-0.18245566
152	0x3d88e718	0.06684703
153	0x3db71c5c	0.08940956
154	0x3d9bf180	0.07614422
155	0x3e3e4b48	0.18583405
156	0xbe0e63a2	-0.13905194
157	0x3e281738	0.16415107
158	0x3e36e93e	0.17862412
159	0xbe0e880c	-0.13919085
160	0xbe026928	-0.12735426
161	0xbe3f3ae0	-0.18674803
162	0x3e00f5ea	0.12593809
163	0xbe31d10a	-0.17364898
164	0x3dbf48bc	0.09340045
165	0x3d84fe18	0.06493777
166	0xbe20a3f0	-0.15687537
167	0x3e13370a	0.14376464
168	0xbe608a88	-0.21927845
169	0xbd0cbe90	-0.034361422
170	0xbd9925e4	-0.0747793
171	0xbd353a48	-0.044245034
172	0x3d9c6a7c	0.07637498
173	0x3e3ea20a	0.186165
174	0xbe163228	-0.1466757
175	0x3d29adf0	0.041425645
176	0x3e29b636	0.16573414
177	0x3e434254	0.19068271
178	0x3da0c7bc	0.07850596
179	0xbd94834c	-0.072516054
180	0x3d5e1f40	0.05422902
181	0x3d453208	0.048143417
182	0xbdb47778	-0.08811849
183	0x3d88bfcc	0.06677207
184	0x3d651388	0.05592683
185	0x3d4d6d60	0.050153136
186	0xbe3fa24a	-0.18714252
187	0xbdb3cc68	-0.08779222
188	0x3e0b1a8c	0.13584346
189	0x3d0573b8	0.03258106
190	0x3de1c594	0.11024013
191	0x3d8ee01c	0.06976339
192	0xbdf1e594	-0.11811367
193	0x3c161c38	0.009162001
194	0xbdf16f24	-0.117887765
195	0x3cb9bc48	0.022672787
196	0xbcb403b8	-0.02197443
197	0xbe67e650	-0.22646451
198	0xbe4ba71a	-0.19887963
199	0xbdc851dc	-0.097812384
200	0xbdcc3ae0	-0.09972167
201	0x3e2a4b08	0.16630185
202	0xbe6e206a	-0.23254552
203	0x3e10e9a2	0.14151624
204	0xbd9cc94c	-0.07655582
205	0xbd88adcc	-0.06673774
206	0x3e065920	0.13119936
207	0x3e5bc594	0.21462089
208	0xbce8ffe8	-0.028442338
209	0x3ddfc320	0.10925889
210	0x3e160250	0.1464932
211	0xbdb46f88	-0.088103354
212	0x3dea5d18	0.114435375
213	0xbe03b120	-0.12860537
214	0x3dcfbd08	0.10143477
215	0xbd55ae58	-0.05216822
216	0x3d3b2188	0.045686275
217	0x3b684d18	0.0035446342
218	0x3e3ec7b2	0.18630865
219	0x3c895ac8	0.01676692
220	0xbe33cd24	-0.17558724
221	0x3e5a0554	0.21291095
222	0xbe0e4f50	-0.13897443
223	0x3dae4248	0.08508736
224	0x3cff11c8	0.031136408
225	0xbe677c8a	-0.22606102
226	0xbe6ddcb6	-0.23228726
227	0x3e09857c	0.13429826
228	0xbdb4e428	-0.0883258
229	0xbe4ba566	-0.19887313
230	0x3df4e540	0.119577885
231	0x3e2cd1b4	0.1687687
232	0x3e3eebf2	0.18644693
233	0x3db622ec	0.088933796
234	0xbd946948	-0.07246643
235	0xbe219d02	-0.1578255
236	0xbe3a2c0e	-0.18180868
237	0xbe3627a4	-0.17788559
238	0x3de65f94	0.11248699
239	0x3da78930	0.08180463
240	0x3e7c756a	0.24654165
241	0xbd39d250	-0.045366585
242	0xbdf070a0	-0.117402315
243	0x3ddbee90	0.107388616
244	0x3daff254	0.08591142
245	0xbe42fed2	-0.19042519
246	0x3e52fd2e	0.20604393
247	0xbe646876	-0.22305474
248	0x3e26d7da	0.16293278
249	0x3dd39000	0.103302
250	0x3df7fffc	0.12109372
251	0x3e29f2bc	0.16596502
252	0x3e55d026	0.20880184
253	0xbe0cd612	-0.13753536
254	0x3e05349e	0.13008353
255	0x3e091a20	0.13388872

patch_embed.3.bias f4 [64]
0	0xbe058662	-0.13039544
1	0xbd5670c6	-0.052353643
2	0xbe405976	-0.18784127
3	0xbd9d4237	-0.07678645
4	0x3e274d27	0.16338025
5	0xbe6248f2	-0.22098139
6	0xbd5d97c1	-0.054099802
7	0xbda2a003	-0.07940676
8	0xbe0f46bd	-0.13991828
9	0x3d97044f	0.07373869
10	0xbe36006d	-0.177736
11	0xbd8bd3c5	-0.06827501
12	0x3de5e550	0.112253785
13	0x3df7f546	0.12107329
14	0xbe3393ae	-0.17536804
15	0xbcc04f88	-0.023475423
16	0x3d9f5e49	0.07781655
17	0x3e640589	0.22267736
18	0xbe6a284d	-0.22866936
19	0x3e42f758	0.19039667
20	0xbd491953	-0.049096417
21	0x3d609d0b	0.054837268
22	0x3e01746e	0.1264207
23	0x3e3d2347	0.18470488
24	0xbb8f9026	-0.0043811975
25	0x3dd7459d	0.105113246
26	0xbdd733f4	-0.10507956
27	0xbdea6b74	-0.11446276
28	0x3dee4be7	0.11635571
29	0x3e5ec5ce	0.21755144
30	0x3e76b540	0.24092579
31	0x3e7ff003	0.24993901
32	0x3dd73ebb	0.10510012
33	0x3e1bfe36	0.15233693
34	0xbe455cc1	-0.19273664
35	0x3e60c821	0.21951343
36	0x3e56f754	0.20992786
37	0x3e0061a0	0.12537241
38	0xbe33f84f	-0.17575191
39	0x3e0fc098	0.14038312
40	0x3e46a875	0.19400199
41	0x3dd2473f	0.10267495
42	0x3d1131b2	0.035447784
43	0x3dfc5281	0.12320424
44	0x3d6406f1	0.055670682
45	0xbe7026ae	-0.23452255
46	0xbdfdee82	-0.123990074
47	0xba950a5e	-0.0011370888
48	0xbdf38a7d	-0.11891649
49	0xbe4b2817	-0.19839512
50	0xbe5540fd	-0.20825572
51	0x3e70af03	0.23504262
52	0xbe0106d6	-0.12600264
53	0x3e3f4674	0.1867922
54	0xbe50ec01	-0.20402528
55	0xbdd81749	-0.10551316
56	0xbdb33d79	-0.08751959
57	0x3d1e674a	0.038672723
58	0x3e1918e2	0.14950898
59	0x3e2df459	0.16987742
60	0x3cf7718e	0.030205514
61	0x3a916498	0.0011092601
62	0x3dfaa5d8	0.122386634
63	0xbe13c4eb	-0.14430587

patch_embed.4.weight f4 [64, 16]
0	0x3e198538	0.14992225
1	0xbe7bfefa	-0.24608985
2	0x3dad45b0	0.084605575
3	0xbd8ae5c0	-0.067821026
4	0x3e23a824	0.1598211
5	0x3dcf9eec	0.10137734
6	0xbd712f98	-0.05888328
7	0x3bd1cf58	0.006402891
8	0x3e6afb08	0.22947323
9	0x3d96522c	0.07339892
10	0x3e7209b4	0.23636514
11	0xbd7454a0	-0.059651017
12	0xbe682c42	-0.22673133
13	0xbd7cc0f8	-0.061707467
14	0x3e269f48	0.16271698
15	0x3e260226	0.16211757
16	0x3df75778	0.1207723
17	0xbd976e44	-0.073940784
18	0xbce60e58	-0.028083012
19	0x3d4aa178	0.049470395
20	0xbcbf2838	-0.023334607
21	0x3bc43f58	0.0059889965
22	0xbd345cc0	-0.044033766
23	0x3dfda504	0.1238499
24	0x3e135994	0.1438964
25	0x3e371302	0.17878345
26	0xbc93e8f8	-0.018055424
27	0xbbd9e218	-0.006649267
28	0x3e3543b8	0.17701614
29	0xbe566060	-0.20935202
30	0xbe3355d2	-0.17513207
31	0x3e0cee98	0.13762891
32	0xbe26277a	-0.16225997
33	0xbd0e1218	-0.034685224
34	0x3e6da460	0.23207235
35	0x3cc860e8	0.024460271
36	0x3c4cd918	0.012502931
37	0xbdb089fc	-0.086200684
38	0x3d4c5560	0.049886107
39	0xbe7283be	-0.23683068
40	0xbe583d6c	-0.2111718
41	0xbe77047a	-0.24122801
42	0x3e6a6e62	0.2289367
43	0x3e7ffbfe	0.24998471
44	0x3c60a038	0.013710074
45	0x3cd13988	0.025540128
46	0x3e42ff16	0.1904262
47	0x3e452d5c	0.19255584
48	0xbe46ffd6	-0.19433531
49	0x3e24b09e	0.16082999
50	0x3e0050c2	0.12530807
51	0x3dd82218	0.10553378
52	0xbe75f170	-0.24017882
53	0xbd9555bc	-0.07291743
54	0xbe51c5e6	-0.20485649
55	0xbdf9faa0	-0.12206006
56	0x3dde10ac	0.10843024
57	0x3e3eb77a	0.18624678
58	0x3d567398	0.052356333
59	0xbe1638f8	-0.1467017
60	0x3e0ae9b2	0.1356571
61	0xbe28a61a	-0.16469613
62	0xbc854388	-0.016267553
63	0xbe425100	-0.18976212
64	0x3e782d72	0.24236086
65	0x3e79d3fa	0.24397269
66	0x3de22054	0.11041322
67	0xbdf2cf18	-0.11855906
68	0x3e6ae96e	0.22940609
69	0xbcec3798	-0.028835103
70	0x3d996098	0.07489127
71	0xbe712044	-0.23547465
72	0x3c7ac658	0.015306078
73	0xbe532e54	-0.20623142
74	0xbe7d6ae4	-0.24747807
75	0x3d52d4e8	0.051472574
76	0xbe406b1c	-0.18790859
77	0x3d9654dc	0.073404044
78	0xbb92a2d8	-0.004474979
79	0xbe541238	-0.20710075
80	0x3e731bf8	0.23741138
81	0x3d61bca8	0.055111557
82	0xbe477cfc	-0.19481272
83	0x3e3a0740	0.18166828
84	0xbd7d7a40	-0.061884165
85	0xbdc6ed60	-0.097132444
86	0x3e0ec08e	0.13940641
87	0x3dc2368c	0.0948306
88	0x3e2162f8	0.1576041
89	0x3e1170b8	0.14203155
90	0xbe12b76c	-0.14327782
91	0x3dba4ec0	0.090970516
92	0x3d9d9c70	0.07695854
93	0xbe68de9e	-0.22741172
94	0x3c551658	0.013005815
95	0xbe060374	-0.13087255
96	0xbd822880	-0.06355381
97	0x3e2905a0	0.16506052
98	0x3c63cc18	0.01390364
99	0xbcf3c6c8	-0.029757872
100	0xbdaafbbc	-0.08348796
101	0xbe12c504	-0.14332968
102	0xbe286f00	-0.16448593
103	0x3e604ba6	0.21903858
104	0xbd414cc8	-0.047192365
105	0xbe7bd51a	-0.2459301
106	0xbdcd5a70	-0.10027015
107	0x3d6187b0	0.055061042
108	0x3e5a7dec	0.21337098
109	0xbe689660	-0.22713614
110	0x3e6c298c	0.23062724
111	0xbd88fa70	-0.06688392
112	0x3e40dab0	0.18833423
113	0x3e3bca62	0.18338922
114	0xbd24ed00	-0.040265083
115	0x3d83e948	0.06440979
116	0x3e583de6	0.21117362
117	0xbd456610	-0.048193038
118	0x3d409248	0.047014505
119	0x3d5d7920	0.054070592
120	0x3e526412	0.20545986
121	0xbe15b060	-0.14618063
122	0xbdfbdadc	-0.122976035
123	0x3e7da2b0	0.24769092
124	0xbd824c38	-0.06362194
125	0x3e3b1c38	0.18272483
126	0x3df9e838	0.12202495
127	0xbdf547a4	-0.11976555
128	0xbd316e60	-0.043318152
129	0x3e06ca32	0.13163069
130	0x3dc8b944	0.098009616
131	0xbe55f062	-0.2089248
132	0xbe54487c	-0.20730776
133	0x3dc50050	0.096192
134	0x3d8f0b10	0.06984532
135	0x3de59b10	0.112112164
136	0x3e1fc8e4	0.15603977
137	0xbe29ed30	-0.16594386
138	0xbe53c704	-0.20681387
139	0x3d89379c	0.0670006
140	0x3e7712ea	0.24128309
141	0xbcbb5a88	-0.022870317
142	0xbdd0760c	-0.10178766
143	0xbd7ee5a0	-0.062230706
144	0xbd05ff90	-0.032714427
145	0x3e1e3f5e	0.1545386
146	0x3e7c24d6	0.24623427
147	0x3ce93008	0.028465286
148	0xbe6661a6	-0.22498187
149	0xbb1b3798	-0.002368426
150	0xbdc14330	-0.09436643
151	0xbe7caa9c	-0.24674457
152	0x3de69940	0.11259699
153	0xbc9faa58	-0.019490406
154	0xbe11d08a	-0.14239708
155	0x3e69d3c8	0.22834694
156	0xbe579198	-0.21051633
157	0xbe5e909c	-0.21734852
158	0x3daa6128	0.08319312
159	0x3c04e1d8	0.008110486
160	0x3d7e0f38	0.062026232
161	0xbe7f24cc	-0.2491638
162	0xbe7e12a4	-0.24811798
163	0xbe499116	-0.19684252
164	0x3d7b9ef0	0.06143087
165	0xbcf77018	-0.030204818
166	0x3e50718a	0.20355812
167	0x3e46526a	0.19367376
168	0x3e49350c	0.19649142
169	0x3e64acca	0.22331539
170	0xbe5a51de	-0.21320292
171	0x3d4d5650	0.050131142
172	0x3e3e0b9c	0.18559116
173	0xbdf22f88	-0.11825472
174	0x3da666ec	0.081250995
175	0x3df42f1c	0.11923048
176	0x3e6f0bba	0.23344317
177	0xbe27a362	-0.1637092
178	0x3e670d78	0.22563732
179	0xbe42ffea	-0.19042936
180	0x3ca7c0f8	0.020477757
181	0xbe7d6582	-0.24745753
182	0x3d0a4cc0	0.0337646
183	0xbe5700dc	-0.20996422
184	0x3dc26520	0.09491944
185	0x3e500666	0.20314941
186	0x3cf4b588	0.029871717
187	0xbdc5354c	-0.09629306
188	0x3e54ab06	0.20768365
189	0x3d4d9b58	0.050196975
190	0xbe531948	-0.20615113
191	0x3c495db8	0.012290411
192	0xbe7df462	-0.24800256
193	0xbe359242	-0.17731574
194	0xbe3641c0	-0.17798519
195	0xbdb87478	-0.0900659
196	0xbe1f8b54	-0.15580493
197	0x3e6a941a	0.22908059
198	0x3dc697d8	0.09696931
199	0x3e6be220	0.23035479
200	0x3de2e7a0	0.11079335
201	0xbe27b79a	-0.16378632
202	0xbe608696	-0.2192634
203	0x3da3fa84	0.080067664
204	0x3ca97ba8	0.020688847
205	0xbcba96d8	-0.022777006
206	0xbde20018	-0.11035174
207	0x3e49ee5c	0.19719833
208	0x3cc88f68	0.024482444
209	0xbe64abea	-0.22331205
210	0xbcc2a008	-0.02375795
211	0x3dbf8584	0.09351638
212	0xbe55e512	-0.20888165
213	0x3e4979c4	0.19675356
214	0x3cbfe888	0.02342631
215	0x3c78faf8	0.015196554
216	0xbe13c976	-0.1443232
217	0x3dec61f0	0.115421176
218	0x3c8e08b8	0.017338142
219	0x3e01f10a	0.12689605
220	0x3ddc605c	0.107605666
221	0x3d23ead8	0.040018886
222	0xbbff8b18	-0.0077985637
223	0x3e76ec74	0.24113637
224	0x3e371ede	0.17882869
225	0xbe5c1902	-0.21493915
226	0xbd700278	-0.058596104
227	0x3d128310	0.035769522
228	0xbde8cf04	-0.1136761
229	0xbe5a9c62	-0.21348718
230	0x3b981598	0.004641246
231	0x3e7ddd64	0.24791485
232	0x3d3d4f58	0.046218246
233	0xbd983554	-0.074320465
234	0x3e107e84	0.14110762
235	0xbcff0708	-0.031131282
236	0x3e301be0	0.17198133
237	0xbe162996	-0.14664301
238	0x3d875e94	0.06609836
239	0x3e635caa	0.22203317
240	0xbdaac468	-0.08338243
241	0xbe25bc04	-0.16185004
242	0x3e1d6fe2	0.15374711
243	0x3e2f8a50	0.17142606
244	0x3e6d63ea	0.23182645
245	0x3cd4b1c8	0.025963679
246	0xbe2e83ce	-0.17042467
247	0x3db4b5bc	0.088237256
248	0x3d933718	0.07188243
249	0xbe52704a	-0.20550647
250	0xbe75b5be	-0.2399511
251	0xbd2dbe38	-0.042417735
252	0x3ccaf228	0.024773672
253	0x3e746790	0.23867631
254	0xbd8baac4	-0.0681968
255	0x3e1ff414	0.15620452

patch_embed.4.bias f4 [64]
0	0x3d9ced69	0.0766247
1	0xbd066b28	-0.032817036
2	0xbe2c40fe	-0.16821668
3	0xbe6013f9	-0.21882619
4	0xbe068a87	-0.13138781
5	0x3db2ffde	0.08740209
6	0xbe1eb110	-0.15497231
7	0x3c48387b	0.012220497
8	0x3e686ad3	0.22697
9	0x3e10258c	0.14076823
10	0x3d8cfd15	0.06884209
11	0x3d938a85	0.07204155
12	0xbe13f8ff	-0.14450453
13	0xbc8ee76a	-0.017444331
14	0x3e0d2ac2	0.13785842
15	0xbdc01151	-0.09378303
16	0x3e808c15	0.25106874
17	0x3d7fcdf3	0.062452268
18	0xbcf3901d	-0.029731805
19	0xbd88e539	-0.06684346
20	0xbe716c30	-0.23576427
21	0x3d5559dd	0.052087653
22	0xbe559718	-0.20858419
23	0x3e63fea7	0.22265111
24	0xbc5830aa	-0.013195196
25	0xbe535ddc	-0.20641273
26	0xbe4f0f45	-0.20220669
27	0x3e812308	0.2522204
28	0xbe367bfe	-0.17820737
29	0x3d62153f	0.055196043
30	0xbe2ce4a1	-0.1688409
31	0x3d7fadd0	0.06242162
32	0xbda3c308	-0.07996184
33	0x3e7500ed	0.23926134
34	0x3e837949	0.2567847
35	0x3dd5f563	0.104471944
36	0xbe08904d	-0.13336296
37	0xbbefa06e	-0.007312826
38	0xbe424ded	-0.18975039
39	0xbe323fc3	-0.17407136
40	0xbd645e0f	-0.055753764
41	0x3d4f55e2	0.050619014
42	0x3db19fa0	0.08673024
43	0xbe4ba193	-0.19885854
44	0xbe23737a	-0.1596202
45	0x3d80c257	0.062870674
46	0x3e1dc5af	0.15407442
47	0x3d5f5482	0.054523952
48	0xbdc1267b	-0.09431168
49	0x3d94fa32	0.072742835
50	0x3cd89cbf	0.02644193
51	0x3b8c99f0	0.0042908117
52	0xbd550194	-0.05200346
53	0xbd51583d	-0.05110954
54	0xbd12be2d	-0.035825897
55	0x3e4c1f48	0.19933808
56	0xbe503cda	-0.20335713
57	0x3de15a39	0.11003537
58	0x3e25a24e	0.16175196
59	0x3ce09a68	0.027417377
60	0xbdfc9744	-0.12333539
61	0x3de79366	0.11307411
62	0x3d84a896	0.06477468
63	0x3e618b43	0.2202578
