checkpoints/patchtst_1769065953.pth (torch, 444672 bytes, 45 tensors)

positional f4 [1, 7, 64]
000000 f9 87 98 3c a0 bd 26 3c 19 45 db bc c1 9a f1 3b
       0.018619524 0.010177046 -0.026766347 0.0073731844
000010 04 84 8c bb 39 92 04 3a 76 d6 0d bd de f8 78 3c
       -0.0042881984 0.0005057189 -0.034628354 0.015196053
000020 aa 9a 10 bd 9c 8f c7 bb 9d ea ee 3b 27 3a 50 3c
       -0.03530375 -0.0060901176 0.0072911517 0.012709177
000030 be 8b 40 bb 32 6a 12 bc a9 a5 ea 3b 63 8d 9d 3a
       -0.0029380168 -0.008936452 0.0071608615 0.0012020286
000040 02 ec de 3c 5f 67 40 3c e7 4f 57 bc e4 b5 d1 3c
       0.027212147 0.011743396 -0.013141609 0.025599428
000050 34 3f 3b 3d ff 7a 20 3c df a1 9a 3b dc d9 c4 3c
       0.045714572 0.00979495 0.0047190036 0.024029665
000060 84 ca 10 3c c1 18 cd bc f8 9f f6 3c 31 26 4f bc
       0.008837346 -0.025036218 0.030105576 -0.012643383
000070 77 02 8b 3c 2e 0a 27 bd 1d 7b c1 bc 04 2a c6 bc
       0.016968949 -0.040781192 -0.023618275 -0.024189956
000080 93 f7 e4 bb 68 8d 91 3c c6 cb 60 3c 94 6c 74 39
       -0.006987521 0.017767623 0.013720458 0.00023310102
000090 55 08 c2 3c f8 9f 33 bb df ae 9d bb 1e b3 06 bd
       0.023685614 -0.0027408581 -0.004812106 -0.032885663
0000a0 54 52 86 3c 3c 45 cb 3b 1e c3 dd 3c ec 58 91 3c
       0.016396679 0.0062033217 0.027070578 0.017742597
0000b0 b2 6a 31 bd 68 60 17 3c 6e 83 92 bc 72 0a 82 3a
       -0.043314643 0.009239294 -0.017884936 0.0009921326
0000c0 1e 2e b1 3c ce 8e 6a 3c 43 b4 05 bc e0 3f ae bc
       0.021628436 0.014316274 -0.0081606535 -0.021270692
0000d0 b9 08 26 3c fe 65 23 3c c4 e7 ab bb 7c 17 dc ba
       0.010133916 0.009973047 -0.0052461345 -0.0016791667
0000e0 cd a0 f4 3c 25 f4 11 3b d2 00 3b bc 64 05 3b bb
       0.029861832 0.0022270766 -0.01141377 -0.0028537149
0000f0 05 20 95 3b 54 7f ed bc 43 09 7f bc 82 b8 57 3c
       0.004550936 -0.028991379 -0.015566173 0.013166549
000100 ea c7 0c bd 33 cc 62 3d cd ab bf 3b af 37 88 3c
       -0.03437034 0.05537052 0.0058493377 0.016628115
000110 07 c7 0b 3d 84 d4 02 3c ce e3 73 3b 38 c8 3d bc
       0.034125354 0.007985238 0.003721464 -0.01158338
000120 93 06 40 bd 57 d1 f3 bc ed 08 6a 3c 7a be e5 3c
       -0.04688127 -0.029762907 0.014284355 0.028044928
000130 4d 5b 31 3d 45 0c 42 3c 4a 6c 03 bd 3f c1 80 bc
       0.04329996 0.011843746 -0.032085694 -0.015717147
000140 03 48 ff bb 5f d0 03 3a 3c 95 45 bc 18 f4 15 bd
       -0.007790567 0.0005028303 -0.012059506 -0.03660974
000150 83 76 33 3c 7e 2e 8e bc ed 1b 21 3d a8 a9 2f bd
       0.010953548 -0.017356154 0.039333273 -0.042886406
000160 a8 be ad bc 12 b9 2a bd d1 c9 29 3d 25 36 c0 3b
       -0.021209076 -0.041680403 0.041452233 0.0058658295
000170 62 d0 b4 bb c3 f6 31 bb 75 24 9c bb 19 e4 67 3c
       -0.005518005 -0.0027155138 -0.004765088 0.014153504
000180 5f 2e b3 3c 5b 38 40 3d f1 95 10 bc 98 07 94 bb
       0.021872697 0.046928745 -0.008824811 -0.004517507
000190 d7 88 0e 3b 85 07 00 bd 68 1e 6e bc dd e8 72 3c
       0.0021749043 -0.03125717 -0.014533617 0.014826027
0001a0 ca 47 aa bb 97 f4 a5 3c ca 76 00 3a ee 53 61 3c
       -0.005196546 0.020258231 0.00049005134 0.013752921
0001b0 da 56 ee bc c6 cf 83 3c 59 fa 1e 3b 93 91 02 3d
       -0.029094148 0.016090285 0.0024258106 0.03187711
0001c0 c9 22 3f bc b2 af a4 bc 8f 4a 45 3c 26 d7 2f bc
       -0.011666008 -0.02010331 0.012041702 -0.010732448
0001d0 3b a4 65 3a 98 b0 96 3c 8a 80 67 bc 3e 8c 2f bd
       0.0008760129 0.018394753 -0.014129767 -0.042858355
0001e0 47 29 20 ba c1 8b d9 bb cc 33 be 3c e3 9a cd bb
       -0.00061096664 -0.0066389744 0.023218058 -0.0062745675
0001f0 ee c0 d8 3b 41 77 0a bc 65 e9 bf 3b 08 e4 a4 bc
       0.006614796 -0.008451284 0.00585668 -0.020128265
000200 66 9a 7b 3b f3 d8 4b bc 71 41 fd 3b 8a e9 06 bb
       0.003839159 -0.012441861 0.0077287485 -0.0020585977
000210 c9 82 35 3c eb 0c 30 bc df 73 84 3c 52 73 d6 bc
       0.011078545 -0.010745267 0.016168533 -0.026178036
000220 1e 4d e9 bc ca 82 f6 bc a3 b0 04 bd b7 bb 47 bd
       -0.028479155 -0.030091662 -0.032395016 -0.048763003
000230 11 6d 9a 3b 6b 8e b5 3c 35 8b 2d bd f7 2f 2b bb
       0.0047127088 0.022162637 -0.042369086 -0.0026121119
000240 53 fb 35 3d 8c ed 44 3c 33 a3 04 3c 41 b5 8a bc
       0.044429135 0.012019526 0.00809555 -0.016932132
000250 78 4d ac 3c 6b ce 05 bd 63 92 6e 3c 66 47 a8 3c
       0.021033034 -0.03266756 0.0145612685 0.020541858
000260 7a b9 fb 3c 7a b0 bb bc 65 64 8b 3c b1 e1 32 bd
       0.03072809 -0.022911299 0.017015645 -0.043672267
000270 a9 33 5b 3c ff 57 2d 3d be b4 b7 3c ac f3 5f 3c
       0.013379016 0.042320248 0.022425052 0.013668936
000280 66 74 29 3c 8d 30 29 3d 39 0f 49 bc 37 c1 c5 3b
       0.010342693 0.041306067 -0.012271696 0.006034996
000290 45 90 81 bc 42 2e bd bc 3c c8 94 3c c7 9d 8b bc
       -0.015815863 -0.023093347 0.018161885 -0.017043008
0002a0 3d be e5 bc a0 f0 69 bb 21 cd f3 3c 0e 78 05 bc
       -0.028044814 -0.0035696402 0.029760899 -0.008146299
0002b0 ae 06 96 bc 65 cb e7 bb e4 7f 2b 3c e8 e7 c5 3c
       -0.018313732 -0.007073807 0.010467503 0.024158433
0002c0 41 1e 4e 3d 87 ee 06 3d 92 97 93 bc 18 2c 9e 39
       0.05032182 0.03294232 -0.01801661 0.0003016896
0002d0 8c 3d 49 bc f1 58 96 bb 27 30 bd bc d6 c0 24 3d
       -0.01228274 -0.0045882394 -0.02309425 0.040222965
0002e0 82 df 92 3a 33 1c f9 bc 21 96 07 3d b4 50 07 bd
       0.0011205527 -0.030408954 0.03310216 -0.03303595
0002f0 2e 9c c9 bb ff 86 32 3d d9 fc bf bc 84 d7 e1 38
       -0.0061526513 0.043585774 -0.023435997 0.00010768979
000300 9d cf a7 bc b8 86 af bc 89 1c 2a bc db fa cd bc
       -0.02048474 -0.021426544 -0.01038278 -0.025144031
000310 1c e4 6a bb 16 c6 8f 3b ed 6a 0f bc 67 e8 89 3b
       -0.003584153 0.0043876274 -0.00875352 0.0042086127
000320 be d0 c3 bc 19 c8 27 bb 54 27 01 3d ca 37 36 3a
       -0.023903247 -0.0025601445 0.031531647 0.0006951062
000330 88 15 15 ba 23 9a 77 bc 25 09 ff bc 46 08 5f ba
       -0.00056871073 -0.015112433 -0.03113229 -0.0008508008
000340 a1 15 62 3a 59 4f 07 bc c9 80 d6 bc 54 e7 a6 3c
       0.0008624439 -0.008258664 -0.026184456 0.020373978
000350 9a 99 ac 3c ec 16 b6 bc 11 8e a3 bc 0a a8 db bc
       0.021069337 -0.022227727 -0.019965203 -0.026813526
000360 60 ee 8e 3d cd aa f7 bc d8 02 08 bc 6f 54 06 bc
       0.0697906 -0.030232811 -0.008301459 -0.0081988415
000370 00 60 24 3d 1d 16 fe 3c 97 9c ce 3b 4a ed 66 3b
       0.040130615 0.031016404 0.006305288 0.003523665
000380 1c 62 33 bc 08 5e d3 3c 12 f6 9d bb 22 2b 5e 3c
       -0.010948684 0.025801674 -0.0048205936 0.013560088
000390 d5 79 c0 39 76 06 35 bc 8a 77 0b bc f4 85 54 bd
       0.00036711866 -0.011048904 -0.008512387 -0.05188556
0003a0 6f e7 fa 3c 59 34 f6 bc c9 5f 93 bc df 35 ba 3c
       0.030627934 -0.030054258 -0.01799001 0.022730766
0003b0 c0 a2 8f bc ce 55 8f 3c 61 6c 2f bc 0d 24 22 3d
       -0.01753366 0.01749697 -0.010706992 0.039585162
0003c0 cf e3 ed 3a 2f bb 86 3b 88 3d 6b 3c 9e 1a 88 3b
       0.0018149557 0.0041116695 0.014357932 0.0041535636
0003d0 a5 3d 50 bc 71 0b e8 bb 83 9a 83 3c fc 07 2b ba
       -0.01271001 -0.007081442 0.016064888 -0.0006524322
0003e0 3d 62 c3 3b 5c 03 d1 3a ce dd d6 39 68 48 b1 3c
       0.0059626387 0.0015946436 0.00040982518 0.021640971
0003f0 a9 db 06 3d 78 30 c2 bc 75 23 71 3c aa 8d d7 3c
       0.032924328 -0.023704752 0.014717926 0.026312668

patch_embed.0.weight f4 [64, 16]
000000 74 c4 3a 3e 58 92 88 3d 67 c6 12 be 88 f0 40 3e
       0.18239003 0.06668538 -0.14333497 0.18841755
000010 18 20 fa bd 3e 17 37 be c6 33 5d be 1f d0 37 3e
       -0.12213153 -0.1787996 -0.21601781 0.17950486
000020 fa 1c 20 3e e3 d7 a1 3c 97 73 4a 3d 8f c5 d5 3c
       0.15636054 0.019756263 0.04942664 0.02609518
000030 4d b3 5d 3e 15 0c 76 3e ba 69 03 be 65 58 90 3d
       0.21650429 0.24028046 -0.128333 0.0704811
000040 fd d5 21 bd be ab ca bc 77 5c 5e 3d c7 8e a6 bd
       -0.039510716 -0.024740096 0.0542874 -0.08132701
000050 c5 d1 cf bd 1a b7 1c 3e a9 e1 05 be 3f c6 90 3c
       -0.10147432 0.15304223 -0.13074364 0.017672656
000060 2b 3d 59 39 38 cb f3 bd e7 7a b2 3c b7 bb f0 3d
       0.0002071752 -0.11903995 0.02178712 0.11754554
000070 54 42 ea bd 94 c8 d2 bd 8e ac 68 bd 88 06 cf bd
       -0.11438432 -0.102921635 -0.056805186 -0.101086676
000080 91 4d 03 be 8b a5 6a 3e 8f 7b 09 3d 78 8e 22 be
       -0.12822558 0.22914712 0.0335651 -0.1587466
000090 44 4a 14 3e c3 36 01 be e0 a3 9a 3d bd 67 53 be
       0.14481455 -0.12618546 0.07550788 -0.20645042
0000a0 ac 65 24 3e 6f e6 a3 3c 49 5c 61 3d 56 ee 5d ba
       0.1605441 0.02000734 0.05501965 -0.0008465996
0000b0 88 a6 21 3e fe 32 09 be 15 5f 2a be d9 14 6b bd
       0.15786183 -0.13398358 -0.16637833 -0.05739293
0000c0 a5 b8 a2 bd 24 2b 1b be 1f 15 d3 bd 10 16 0f bd
       -0.079453744 -0.15153176 -0.10306763 -0.03493315
0000d0 ae 3a 57 be 47 d3 4a 3e 45 04 62 3e 6b 0f 77 be
       -0.21018478 0.19807158 0.22071941 -0.24126975
0000e0 3f ed 6a be 56 72 99 3c 91 b2 d1 3d 0a 84 60 bd
       -0.22942065 0.018731277 0.10239137 -0.054813422
0000f0 a6 5a 03 be a9 e3 3b be bf 43 15 3e ee fc 8c 3d
       -0.12827548 -0.18348564 0.14576624 0.0688418
000100 e2 ac 46 bd 07 7e aa 3d 90 ce 97 3b 8e a9 d1 3d
       -0.048504718 0.08324819 0.0046327785 0.10237418
000110 21 46 72 bc 41 db 5a 3e 4c ae 61 3e d9 68 21 3e
       -0.014787228 0.21372701 0.22039145 0.15762652
000120 41 d6 68 be a9 00 82 3c 7e 1b e0 3d 1d ae 3c be
       -0.22737981 0.015869455 0.10942744 -0.18425794
000130 6a 62 b0 bd bb 0c fa 3c 5a 8f 42 be 43 0f 6d 3e
       -0.08612521 0.030523648 -0.18999997 0.23150353
000140 48 bd d1 3a 65 94 9e bd d2 39 01 bd 0d 59 3a be
       0.0016001845 -0.07743148 -0.031549282 -0.18198033
000150 af 78 b3 3d 7d 46 ad 3d 11 2c 1b be 0e d5 0d be
       0.08763253 0.0846071 -0.15153529 -0.13850805
000160 19 ca 70 be 52 09 11 3e b6 c8 d6 3d ba 65 6d be
       -0.23514594 0.14163712 0.10487501 -0.23183337
000170 e0 59 e4 bd 50 2c 70 be c1 25 6a 3e a6 43 59 3e
       -0.11149955 -0.23454404 0.22865964 0.21217212
000180 50 9d 37 bd 29 0f 48 be 8c ba 58 3d b6 8e 87 3d
       -0.04482776 -0.19537033 0.05291228 0.06619017
000190 94 92 2e be df cd 22 be ff 81 75 be 5f 96 23 be
       -0.17048103 -0.15898846 -0.23975371 -0.15975331
0001a0 ad b3 76 bd 03 5f 0e bd f2 67 86 3d 45 28 75 3e
       -0.060229946 -0.03475858 0.06562795 0.23941143
0001b0 d9 41 b0 3b 2e 45 59 3e b9 ed d8 3d 05 70 2a be
       0.0053789434 0.21217796 0.10592217 -0.16644295
0001c0 87 78 fb bd 76 fd f5 3d f1 23 4a bc 28 56 81 bc
       -0.12278848 0.120112345 -0.012337671 -0.015788153
0001d0 cf 9e 35 be 6a e6 ac 3d 8f 67 6e 3e d4 dd 41 3e
       -0.17736362 0.084423855 0.23281692 0.18932277
0001e0 c3 bf 00 3e 28 f8 1b 3e 7b 61 d1 bd b5 b6 40 be
       0.12573151 0.15231383 -0.10223671 -0.18819697
0001f0 86 83 69 bd 0d 81 9b bd 79 7f 7f be 82 27 2e 3e
       -0.057010196 -0.07592974 -0.2495097 0.17007259
000200 35 d5 52 be 9a 2c 17 3e 30 2f ff 3c c5 8b a8 bc
       -0.20589145 0.14763108 0.03115043 -0.02057446
000210 53 d4 14 bd ba 00 5e 3e a4 8a b2 3c 9d 98 76 3d
       -0.0363353 0.21679965 0.021794625 0.060204137
000220 c5 5b 2b 3e 44 c6 cc bb 8d fc b7 3d 79 92 63 3e
       0.16734226 -0.006249221 0.08983717 0.22223844
000230 ad c9 2b 3e e3 85 79 3e 15 12 97 3d bc 2c 01 3e
       0.16776152 0.2436748 0.07376496 0.12614721
000240 cc 10 34 be 6b 8d 5c 3e ff a6 bc 3c 2c 60 bc 3d
       -0.17584532 0.21538322 0.023028849 0.09198031
000250 79 a6 97 3d 83 22 32 be 75 59 6e 3e 7a 46 27 3e
       0.07404799 -0.17395978 0.23276313 0.16335478
000260 1e cf 4a be 6b aa 6f be a0 3c 4c 3e f1 b8 4e be
       -0.19805571 -0.23404853 0.19945002 -0.20187737
000270 74 a6 0c be 4e ff d3 bb 43 c6 72 3d 55 c4 0d bd
       -0.13735372 -0.0064696437 0.05927111 -0.034611065
000280 79 a1 1b 3e 7a 2e a4 bc 1a aa 37 bd 19 38 78 bc
       0.15198316 -0.020041693 -0.044839956 -0.0151500935
000290 60 9e 49 be 19 bd 14 be 4a ac 76 be 1c 26 81 3c
       -0.19689322 -0.1452526 -0.2408916 0.015765242
0002a0 63 15 39 3e 64 01 d5 3d eb e9 5f 3e 4f 86 00 3e
       0.18074565 0.10400656 0.21866576 0.12551235
0002b0 1a 61 23 bc 44 5f 39 3e 19 05 64 3e 20 da 5b 3e
       -0.009971881 0.18102747 0.2226757 0.21469927
0002c0 e3 14 f7 bd 71 87 52 be c5 96 30 3e 2a 55 07 be
       -0.12064531 -0.2055948 0.17245014 -0.13216081
0002d0 c6 ab 52 3e 5d a7 e3 bd 4b 27 11 be 0a 94 7e be
       0.20573339 -0.111159064 -0.14175145 -0.2486116
0002e0 8b db 87 3c be 9c 37 be 7d 7f e2 bc 3f 35 20 be
       0.016584178 -0.17930886 -0.027648682 -0.15645312
0002f0 18 70 8b bd 0a 4f 29 be ce 38 17 3e 64 51 18 3e
       -0.068084896 -0.16534057 0.14767763 0.14874798
000300 c1 b1 4b be 6c df 54 3e d8 b5 2e be 49 8a bc bd
       -0.19892026 0.20788354 -0.17061555 -0.09206063
000310 00 59 ec 3d 35 75 1f 3e 6e 82 a0 bd eb 78 72 be
       0.11540413 0.15572055 -0.078373775 -0.23678939
000320 a9 28 a6 3c 6b e8 19 3e 2a f4 a9 bd 35 73 91 3d
       0.02028306 0.15030067 -0.08298524 0.07102052
000330 dc 43 78 be 33 32 59 3e 20 6e 21 3d 65 1f 16 3e
       -0.24244636 0.21210556 0.039411664 0.14660414
000340 66 47 dd 3c 8f 83 81 3e a0 2f 4e 3d ac 04 4b be
       0.027011584 0.25295684 0.050338387 -0.19826001
000350 35 e8 f8 bd 07 30 31 3d 9b 94 7c 3e 85 93 43 3e
       -0.12153665 0.043258693 0.24666063 0.19099243
000360 f1 9a 2a 3e c8 fd b7 bd ce 59 a9 bd f1 c7 30 3e
       0.16660668 -0.08983952 -0.08269082 0.17263772
000370 e2 0a bf bc af 06 3e be 36 de 96 bd 6c 68 29 3c
       -0.023320619 -0.18557237 -0.07366602 0.0103398375
000380 14 54 31 be 56 49 58 bc 22 31 cc 3d be ce 1c 3e
       -0.1731723 -0.013201078 0.09970309 0.15313241
000390 23 f6 24 3e 19 26 68 bc 7d 8c 04 3e d8 ab cc 3c
       0.16109519 -0.014169239 0.12944217 0.024984285
0003a0 77 d2 a2 3d 5e 09 16 be b0 ba 91 3d 1f 17 cd 3d
       0.07950299 -0.14652011 0.07115686 0.100141756
0003b0 16 47 67 bd 97 45 fe bd bf 2e 13 3d db 1d de bd
       -0.056464277 -0.12415617 0.035933252 -0.10845538
0003c0 3a aa 3d be 33 03 f3 3d 28 f1 ec bd f8 f8 f9 bd
       -0.18521968 0.118658446 -0.115694344 -0.1220569
0003d0 34 1a 32 be 70 af 77 bd 19 41 67 3e 73 40 0b 3d
       -0.17392808 -0.060470045 0.22583427 0.03399701
0003e0 48 f8 46 be 00 7d ee bd ba 97 0e bd d2 1d ac bc
       -0.1943065 -0.116449356 -0.034812666 -0.021010313
0003f0 8f a1 23 3d a4 f0 07 3e d8 1f 8e bd 99 82 17 be
       0.039948996 0.13275391 -0.069396675 -0.14795913

patch_embed.0.bias f4 [64]
000000 dc 07 60 be 44 84 98 bc d7 55 dd 3d 4c 8b 1a 3e
       -0.21877998 -0.018617757 0.10807388 0.150922
000010 02 d5 64 3d 32 c9 19 be 08 37 7b 3d 80 df 7e 3d
       0.055867203 -0.15018156 0.06133178 0.062224865
000020 16 46 09 be a0 6f 04 be 8d 97 6e be 83 ad 4b 3c
       -0.13405642 -0.12933207 -0.233 0.012431505
000030 aa 79 29 be c6 e2 5a be 3c e1 cf bd 95 2a e0 3d
       -0.16550317 -0.2137557 -0.10150382 0.10945622
000040 21 b7 bb 3c 41 ca 58 be 28 e1 55 3e 85 d9 68 be
       0.022914471 -0.21170904 0.20886672 -0.22739227
000050 5e 97 b1 bd fc b7 64 3e 41 da c1 bc 63 e8 5a 3d
       -0.08671449 0.2233581 -0.023663642 0.053444277
000060 31 2f c9 3d d2 40 ce 3d e7 70 8f 3d 7e b5 f1 3d
       0.09823454 0.10070957 0.07003956 0.11802195
000070 92 50 e7 3d 5a 7d 98 bd 92 db 55 bc 20 1c 36 be
       0.112946644 -0.07445784 -0.013052838 -0.17784166
000080 38 d5 4b 3e 24 9b 91 bd 38 18 99 bd 5a 69 0d 3e
       0.19905555 -0.07109669 -0.074753225 0.1380972
000090 27 2b eb 3d 6f af 18 be e3 f9 60 3e ac ae b7 bd
       0.1148284 -0.14910673 0.21970324 -0.08968863
0000a0 b4 82 72 3d 85 85 f6 bd 54 00 1f 3d 24 15 d8 3d
       0.05920668 -0.120371856 0.038818672 0.10550907
0000b0 f4 fc ef 3c 08 fe e8 3c 7c 8d 17 be 64 87 4b be
       0.029295422 0.028441444 -0.14800066 -0.19875866
0000c0 e2 7a c8 bd 24 16 30 3e 35 a7 fb bd 2d ed 5d 3e
       -0.09789063 0.17195946 -0.122877516 0.21672507
0000d0 a8 13 a5 bc f2 66 4b 3e ce 3b 82 bc 06 df 86 bd
       -0.020150974 0.1986349 -0.015897658 -0.06585507
0000e0 bd 70 3a bd 1e 0d 65 3e 75 db 88 bd fc a4 13 3b
       -0.04551767 0.22368285 -0.06682483 0.0022528758
0000f0 9f ba 8b 3d 33 ba 6c 3e 0f 33 68 3d 69 20 27 bd
       0.068227045 0.23117904 0.05668932 -0.040802393

patch_embed.1.weight f4 [64, 16]
000000 0a 8e 29 3e 46 c7 d5 bd 50 2a f2 3d c9 56 e7 3d
       0.1655809 -0.10438399 0.11824477 0.1129585
000010 13 c8 18 3e c5 47 d0 ba f8 80 02 3e 11 38 2c 3d
       0.14920072 -0.001589053 0.1274451 0.042045657
000020 78 a4 18 3e cc d7 8f bd b5 00 10 3e b9 57 04 bd
       0.1490649 -0.07023582 0.1406277 -0.03231022
000030 15 3d 0b be c7 84 1c 3e 4d e8 41 be 9f 88 c3 bd
       -0.1359752 0.15285026 -0.18936272 -0.09547543
000040 c7 7c a0 3d 97 ce 2a be 06 a5 7a be 6d 8b 02 3d
       0.078362994 -0.1668037 -0.24477014 0.031871248
000050 a9 7c 0d 3e dd be 9e bd bc 73 b7 bd 75 4b 16 bd
       0.13817085 -0.07751248 -0.089576215 -0.036693055
000060 1d e5 10 be 24 2d 74 be 13 e0 23 be ef 87 c4 3d
       -0.141499 -0.23845345 -0.16003446 0.0959624
000070 7a ee a5 bd 5c 61 14 3e 03 2e 95 3d 93 80 d9 bd
       -0.081021264 0.14490265 0.07284167 -0.10620227
000080 6f 05 da bd 73 f9 60 3e 02 6a de bd e3 03 61 be
       -0.106455676 0.21970157 -0.10860063 -0.21974139
000090 b7 67 11 be 08 45 52 be df 29 c0 3d 84 79 e1 3c
       -0.1419972 -0.20534146 0.09382986 0.027523763
0000a0 ce e3 77 bd a0 7d d3 bd f4 a4 16 be 86 1e 96 3d
       -0.060519986 -0.103266954 -0.14711362 0.07330041
0000b0 e8 b2 c9 bd dc 2a 14 3e 6f cf 20 be 3a 98 c3 3c
       -0.09848577 0.14469475 -0.1570413 0.023876298
0000c0 e8 0d 71 be d1 74 28 3e 02 96 e7 3c ff 3c 0e be
       -0.23540461 0.16450812 0.028269771 -0.13890456
0000d0 49 02 d6 bd 2c 38 39 3e c9 89 cb bd 06 e7 6d 3e
       -0.104496546 0.18087834 -0.0993839 0.2323266
0000e0 80 9d 48 be c5 bf 46 3e 1e eb 5d 3d 6d e3 e0 3d
       -0.19591331 0.19409092 0.054179303 0.10980878
0000f0 63 22 fb bd 7c 40 f0 bd da db 29 3d 55 62 0a be
       -0.12262418 -0.117310494 0.041469432 -0.13514073
000100 7a 20 78 3c 58 06 19 3e e8 00 83 be 44 18 82 be
       0.015144462 0.14943826 -0.2558663 -0.25409138
000110 2b 25 52 3e 41 b0 14 3e 82 a6 1b be 49 7b 31 be
       0.20521991 0.1452036 -0.15200236 -0.17332186
000120 a3 a8 17 3e b3 ba d3 3d b8 e1 7b be 87 fc cf 3d
       0.14810424 0.103383444 -0.24597824 0.10155588
000130 e6 c8 2f 3e e8 e0 62 3e 65 ee cf 3d c0 07 8a 3b
       0.1716648 0.22156107 0.10152892 0.0042123497
000140 00 c9 17 3c 10 bc 47 3e 01 f1 16 3e 6c e3 07 be
       0.009264231 0.19505334 0.14740373 -0.13270348
000150 38 9d 55 3e a5 9d 20 be 6e 11 43 be 10 e5 57 3c
       0.20860755 -0.15685137 -0.19049618 0.013177171
000160 39 93 ad bd c2 b2 c2 bc 3c 61 cd 3d b4 50 fc 3c
       -0.08475346 -0.023766879 0.100283116 0.030800201
000170 78 31 2f be 52 e2 f2 3d d5 2d 46 be 94 87 21 3d
       -0.17108715 0.118595734 -0.19353421 0.039435938
000180 62 db 07 bd b1 11 a9 bd 4a 1b 49 3d 02 53 5a 3e
       -0.033168204 -0.082553275 0.04909829 0.21320727
000190 4b b6 75 be 4e d9 3f 3e 16 f1 07 3e 5a 62 3d 3e
       -0.2399532 0.18735239 0.1327556 0.1849455
0001a0 70 9f 9c 3d d9 70 5c be 89 d9 28 3e 15 27 8d 3d
       0.07647598 -0.21527423 0.16489233 0.0689222
0001b0 3f c7 31 be 28 85 61 be 03 ab fd 3d 17 77 1a be
       -0.17361163 -0.22023451 0.123861335 -0.15084492
0001c0 40 6f 51 3d 6c 6a 37 3e 7c a0 24 be 52 0b 85 3d
       0.051131487 0.1791169 -0.16076845 0.064963
0001d0 60 43 0f be e6 4d 94 bd 4e 40 8b bb 1c 9b 51 be
       -0.13990545 -0.072414204 -0.004249609 -0.20469326
0001e0 1b 6c a5 3d 5b 88 3f 3b b2 dd 6a 3e dd 48 34 3e
       0.0807726 0.0029225561 0.22936133 0.1760592
0001f0 8f 67 28 3e c6 53 1f 3e 5f 8e 12 3e 23 15 8c bc
       0.16445754 0.15559301 0.14312123 -0.017099923
000200 6f 69 ae bc 9a 38 f4 bb 31 22 22 be 1f f0 3c 3d
       -0.021290509 -0.0074530365 -0.15833355 0.046127435
000210 f1 40 db bc 80 06 3e be e4 66 35 3e cd d7 2d 3e
       -0.026764365 -0.18557167 0.17715031 0.16976853
000220 6f 3c 27 be 74 8c 3c be 4f ff aa bd 2f 52 64 3e
       -0.16331647 -0.18412954 -0.083494775 0.22296976
000230 df 74 74 3c 0f 0c 1f be a2 73 31 be c3 73 47 3e
       0.014920442 -0.15531944 -0.17329267 0.19477753
000240 4a f8 65 3e e0 2e 5c 3e f6 6a c3 bd f8 61 04 3e
       0.22457996 0.21502256 -0.095418856 0.12927997
000250 05 02 a3 3d c6 26 cf 3d 23 9a 14 3d 38 a3 27 bd
       0.079593696 0.10114817 0.03627981 -0.040927142
000260 e1 01 18 3d 3c f8 12 be 15 27 07 be e2 40 56 3e
       0.037111167 -0.14352506 -0.13198502 0.20923188
000270 ac 23 45 be e2 3c 40 be bc 41 3d be 22 02 8f bd
       -0.19251889 -0.18773225 -0.18482107 -0.06982829
000280 2b 3d 71 be da cb ea bd 9c da 02 3e 9e b6 bb 3d
       -0.2355849 -0.11464663 0.12778705 0.09165691
000290 ac c4 f2 bd 0e 09 13 3e 7b 9c 73 be 36 53 ee bd
       -0.118539184 0.14358923 -0.23790161 -0.11636965
0002a0 ca 49 eb bb 87 e9 24 3e e0 94 cd bc 51 6b 6e 3d
       -0.007180427 0.16104709 -0.025095403 0.058207814
0002b0 ae 71 35 3e 60 34 c4 bd f4 a5 23 3e 05 d5 19 3e
       0.17719147 -0.09580302 0.15981275 0.15022667
0002c0 15 fd 61 3e 2b 28 bb 3d c4 be 7f bc f6 97 e3 bd
       0.220692 0.09138521 -0.015609447 -0.111129686
0002d0 ea cd ba bd ce de e6 3d d1 9f 36 be 93 9e 15 bd
       -0.09121306 0.11272965 -0.17834403 -0.03652818
0002e0 b1 34 05 3e 84 ba ff bd 3b e2 3f bd 3d 6c fb 3d
       0.13008381 -0.12486747 -0.04684661 0.12276504
0002f0 e5 6c b0 bd e3 75 09 be 0e 9f a3 bb a8 18 a9 3d
       -0.0861452 -0.13423876 -0.004993326 0.08256656
000300 f1 3f 6d be 03 37 7e be a5 74 75 be 8c de 08 bc
       -0.23168923 -0.24825673 -0.23970278 -0.008353841
000310 95 b0 5d be 4b 8d 13 be f0 c6 51 be 10 cf 8d 3d
       -0.21649392 -0.14409368 -0.20486045 0.0692426
000320 ea 02 fe 3d 5e 2f 2f be 25 87 00 be 2c 8e 3f 3e
       0.124028996 -0.17107913 -0.12551554 0.18706578
000330 eb 62 1b 3e a5 60 e2 3d 06 79 11 3e 49 7b 1d 3e
       0.15174453 0.1105359 0.14206323 0.15379061
000340 f0 3f 06 be 29 7f a6 3b 69 40 7f 3e cc 6e ce 3d
       -0.13110328 0.0050810766 0.24926914 0.100797266
000350 83 47 79 be 16 00 ea 3b e1 33 b8 bb 0e 47 37 3e
       -0.24343686 0.0071411235 -0.005621419 0.17898199
000360 ef 14 0a bd 24 7e c2 bd 2e 54 fc bd 0e 51 a5 bb
       -0.03371137 -0.09496716 -0.123207435 -0.005045063
000370 8c 81 32 bd ca 93 c0 3d f5 fd 32 bc a8 32 88 bd
       -0.043580577 0.094031885 -0.010924806 -0.06650287
000380 3a 90 55 3e 7d 4b b3 3d 87 2b 1f be d4 d2 3b 3e
       0.208558 0.087546326 -0.15543948 0.18342143
000390 a8 d1 4f 3d df b3 11 3e 2e 5f fa bd ad e6 1f be
       0.050737053 0.14228772 -0.12225185 -0.1561534
0003a0 7f a1 27 3e b5 69 53 be 0a f2 77 3e 16 eb 1e 3e
       0.163702 -0.20645793 0.24213424 0.15519366
0003b0 82 4f 1c 3e 9e 9b 48 3c 56 c4 0f 3e f6 36 97 3d
       0.15264705 0.012244133 0.1403974 0.0738353
0003c0 d1 99 3f 3e 0a 5b 95 bc 09 d3 d0 bc 4f 60 10 3e
       0.1871102 -0.018231887 -0.025491254 0.14099239
0003d0 ed 6d ca 3c b8 74 d6 bd 38 85 dd bc 7b 22 6f bd
       0.02471062 -0.10471481 -0.027041063 -0.058382493
0003e0 e6 69 07 be de 40 b4 3d f5 8a 59 3d e6 0b bf 3d
       -0.13223991 0.08801435 0.053111035 0.09328441
0003f0 5b 8d 8c 3d 56 be 6b 3b ae 6c 3a be ce da 39 be
       0.06862899 0.0035971603 -0.1820552 -0.18149874

patch_embed.1.bias f4 [64]
000000 3b 9c fc bd 64 fa b7 3d 7b 96 97 bc 9f 13 88 bd
       -0.12334486 0.08983305 -0.018504372 -0.066443674
000010 44 ea 6a be ea ac a8 3d 48 07 b8 3d 08 0d 28 3e
       -0.22940928 0.08236106 0.08985764 0.16411221
000020 22 db 15 be e7 31 84 bd 98 1e 20 be 2f a4 c6 3d
       -0.14634374 -0.064548306 -0.1563667 0.09699284
000030 48 c7 3f 3d 10 0b 09 be 5b ec 00 3e d7 d6 41 be
       0.04682091 -0.13383126 0.12590162 -0.18929611
000040 23 bc eb bd 62 71 51 3d 9b fe 92 3c 46 25 61 3b
       -0.115104936 0.05113352 0.017943671 0.0034354492
000050 ed 79 65 3e 9a 83 4a bb 8f ab 0b be de 96 06 3d
       0.22409792 -0.0030901195 -0.13639663 0.032858722
000060 84 27 46 bd 84 fe 6f be 8c 1d 52 3e 9f e6 5a be
       -0.04837753 -0.23436934 0.20519084 -0.21377037
000070 78 30 cd 3c 83 39 29 3e 61 05 b8 3d 78 67 58 3e
       0.025047526 0.16525845 0.08985401 0.2113322
000080 b8 b6 5e bd 80 67 57 3e 3b 0b 8f bd e5 14 36 3d
       -0.054373473 0.21035576 -0.06984564 0.04445352
000090 27 f0 d2 3d ad 69 f7 bd ef f5 b1 bd 9b cb 68 3d
       0.10299712 -0.12080703 -0.08689486 0.0568348
0000a0 a7 aa 09 3d 9f 12 80 3e 87 bf 11 3e 21 70 09 be
       0.033610012 0.25014207 0.14233218 -0.1342168
0000b0 b5 e8 d8 bd 8d a3 48 be b7 72 7b be 54 68 cf 3d
       -0.1059126 -0.1959364 -0.24555479 0.10127321
0000c0 f7 a3 9e bd 3b 81 f1 3d 09 fe 0b 3e b2 9b 85 3e
       -0.077461176 0.11792227 0.13671125 0.2609535
0000d0 bf c2 af 3d 91 f7 78 be 27 32 1c 3e 36 d5 05 be
       0.08582067 -0.24313189 0.15253507 -0.13069615
0000e0 49 1a 6b bd 3b 20 60 be b8 6b d8 3d ba 98 c3 3d
       -0.057398114 -0.21887295 0.10567421 0.09550615
0000f0 0a c1 52 bd 57 4d 3e be 84 4e da 3d 91 b1 2f be
       -0.051453628 -0.1858419 0.10659507 -0.1715758

patch_embed.2.weight f4 [64, 16]
000000 9b b3 7b bd b5 e0 f4 3d 86 fc 2d be 27 20 a9 3d
       -0.061450582 0.11956922 -0.16990861 0.08258086
000010 ad 8e 1d be 68 8b e0 bd c4 55 d3 bd a0 3f 40 3d
       -0.15386458 -0.1096409 -0.10319093 0.046935678
000020 c2 d3 14 bd 0e 45 4d 3d dd e8 02 be 94 04 1c 3e
       -0.03633476 0.050114684 -0.12784143 0.15236121
000030 60 d9 86 3d 56 f2 39 bd 5b 22 0f 3e f0 86 0c be
       0.0658443 -0.045397125 0.1397795 -0.1372335
000040 11 d8 7a bc 34 37 80 be 5c 5d bf 3d 0e 5c 46 be
       -0.015310303 -0.25042117 0.09343979 -0.19371054
000050 f9 e0 6e 3e f6 06 67 3e b8 48 67 3e 68 2c 11 3e
       0.23328008 0.22561249 0.22586334 0.14177096
000060 ef 32 71 be 40 94 18 3e 26 55 39 be d9 a8 55 be
       -0.23554586 0.14900303 -0.18098888 -0.20865192
000070 ca f9 82 be 09 46 14 3d 6a 61 86 bd 81 e4 48 bd
       -0.255812 0.036199603 -0.06561549 -0.049046043
000080 d9 89 82 3c c0 46 a7 bd 8d 7c e1 bd 64 65 b8 bd
       0.015934872 -0.08167791 -0.11010084 -0.09003714
000090 d8 ac 84 be 8f 88 2f 3e a4 48 85 bd f1 b7 81 be
       -0.2591312 0.17141937 -0.06507996 -0.2533565
0000a0 a4 f6 ac bd 6d f0 29 3d f0 b3 b8 3b 35 50 99 3c
       -0.084454805 0.041489054 0.0056366846 0.018715004
0000b0 70 0b 43 3e 9d 0c be bb 74 9f 00 be a8 e3 d4 bd
       0.19047332 -0.0057998435 -0.12560827 -0.103949845
0000c0 9e 3f 99 bd c0 34 b2 3d f9 9a 97 bd e1 59 87 3d
       -0.07482837 0.087014675 -0.074026056 0.0660894
0000d0 c8 64 23 3d 62 41 df 3c f9 42 c6 3d ab a0 73 3e
       0.039891034 0.027252857 0.09680743 0.23791759
0000e0 8d 26 ea bc de a7 d2 ba 69 c4 3b 3e df 5b ba 3d
       -0.028582836 -0.0016071757 0.18336643 0.09099554
0000f0 10 f5 40 bd 3b 12 2a bd 0a 96 62 3c 37 e8 6f 3e
       -0.04710871 -0.041521292 0.013829717 0.23428427
000100 9e 43 44 3e 18 97 b9 3d 47 5d 19 be bc 8b 6e be
       0.19166419 0.09062022 -0.14976989 -0.23295492
000110 76 48 4b 3e ab 1c ce 3d 3f 73 41 3e ed d9 57 3e
       0.1985186 0.10064062 0.18891619 0.21079226
000120 24 ba e3 bd 3b d2 94 bc 1d 29 a9 bd e8 49 b3 3b
       -0.11119488 -0.018166652 -0.08259795 0.005471457
000130 1c 2c 39 3e 59 fd 25 3d 7f 35 03 bd a1 36 3a be
       0.18083233 0.040524814 -0.03203344 -0.18184902
000140 91 21 43 be 47 24 ad bc 95 0a 05 be 77 8c 32 3e
       -0.19055773 -0.021135462 -0.12992318 0.17436396
000150 ed d8 08 3c dc 85 01 3e bd 9a 27 be 18 45 38 be
       0.0083525 0.1264872 -0.16367622 -0.17995107
000160 7c a8 02 3d 1e 89 29 bd d3 26 de bb f2 93 cd bd
       0.03189896 -0.04139053 -0.0067795306 -0.10037984
000170 18 97 5a 3e ec 6d 54 3e 48 33 5b 3e 01 be dd bc
       0.213467 0.20745057 0.21406281 -0.02706814
000180 fa c8 37 3e ea 6b 23 bc c4 7b 4b be 12 78 81 bd
       0.1794776 -0.009974459 -0.19871432 -0.0632173
000190 bc c2 69 be bf 14 9b bd a4 55 14 be 8f cf 0e be
       -0.22828192 -0.075723164 -0.14485794 -0.13946365
0001a0 58 f8 8a 3d a5 91 fc bd 97 82 91 bc 93 cc 41 be
       0.06785649 -0.12332467 -0.017762465 -0.18925695
0001b0 ea bf 33 3e 83 35 4f 3e b9 b9 24 be 06 f0 92 3d
       0.17553678 0.20235257 -0.16086473 0.07174687
0001c0 56 93 d5 3d 0b 71 d6 3b 56 d0 bf bd 56 6f 15 bd
       0.10428493 0.0065442375 -0.09365909 -0.03648313
0001d0 74 ce 8c 3d 63 36 54 be 34 4e c6 bb 09 1d 24 3e
       0.06875315 -0.20723872 -0.006051803 0.16026701
0001e0 b6 e3 e6 bc 41 9b 3d be ae f1 bc 3d e5 a0 f5 bc
       -0.028184753 -0.18516256 0.09225784 -0.029983947
0001f0 92 15 45 be 8e 04 12 be 59 ab ae bd 5a d1 94 3d
       -0.1924651 -0.1425955 -0.08528776 0.07266493
000200 4d 46 29 3d 84 e3 28 3e 94 97 21 3e 04 32 79 be
       0.04132681 0.1649304 0.15780479 -0.24335486
000210 f4 c5 54 3e dd a4 3b 3d 50 87 07 3e b0 01 2f be
       0.20778638 0.045811523 0.13235211 -0.17090487
000220 16 ca ab bb ef c6 b0 bc f5 b2 db 3d be dd a9 bd
       -0.0052425964 -0.021579234 0.10727493 -0.08294247
000230 a2 73 49 3c 2d ff 9c 3d 0d c1 3b 3d 99 22 34 bd
       0.012295635 0.076658584 0.045838404 -0.043978307
000240 c3 56 93 3d 6e 82 61 be a4 0f 36 3d 54 c2 3a be
       0.07194283 -0.22022411 0.04444851 -0.18238193
000250 2c 0d 4a 3e a6 bf af 3d f6 7d 8b bd 1c fe a6 3d
       0.19731587 0.08581476 -0.068111345 0.08153936
000260 f6 e6 1c be 65 3d 35 3e d7 65 7f be f0 33 37 be
       -0.1532248 0.17699201 -0.24941193 -0.17890906
000270 d2 f8 51 be f2 be 37 bd fa 2d 60 3e 52 76 6d bb
       -0.20505074 -0.044859834 0.21892539 -0.0036233854
000280 d9 2b b0 bc bb ff 80 3e 2c 45 4d 3e 72 b0 3c bd
       -0.021505283 0.25195107 0.20045918 -0.04606671
000290 bc ca 5c 3e 96 1e 08 3e 33 34 40 3d c1 9a 92 3d
       0.21561712 0.13292918 0.04692478 0.07158423
0002a0 7a fb ba 3d 01 70 51 3d 21 a8 52 3d fb f2 5c 3c
       0.091299966 0.051132206 0.05142987 0.013485665
0002b0 25 1a cb 3d 18 f5 2c 3e 29 5f 70 3e 8a a8 8d bc
       0.09917096 0.16890371 0.234738 -0.01729228
0002c0 8e 95 06 be fa 52 7f be ad 24 61 be eb 61 88 bd
       -0.13142988 -0.24933997 -0.21986647 -0.06659301
0002d0 b3 61 a4 3d 7c 83 1d 3d 15 ad bd 3d ad 4d 47 3e
       0.08026447 0.03845547 0.092615284 0.19463225
0002e0 8b 31 a6 bd 12 8f a6 3c 35 d8 24 3e c6 1e a8 3d
       -0.08114918 0.020331893 0.16098101 0.082089946
0002f0 59 ae 79 bb f9 2e f6 3d 8c f6 d1 3d d7 59 31 3e
       -0.0038098304 0.12020678 0.10252103 0.17319427
000300 f4 b6 74 3e 2b 69 4f 3e 1b 8b d2 3d 9b 70 44 3e
       0.23897916 0.20254962 0.102804385 0.1918358
000310 a1 b0 20 3d 8f 68 c6 3d 02 0c 4a 3c 16 fd 1e 3e
       0.039230946 0.09687912 0.012331964 0.15526232
000320 d1 12 e7 3d ac c7 3e bc 42 fc 99 bd 00 ff ba bd
       0.11282886 -0.011644285 -0.075188175 -0.09130669
000330 17 e5 dc 3d 73 b9 f3 bd 96 69 c0 3d e5 62 cf 3d
       0.10785883 -0.11900606 0.09395139 0.101262845
000340 7b bc 28 3d e2 2b 70 be 00 05 ef bc 6b 25 50 3e
       0.041195374 -0.2345424 -0.029177189 0.20326774
000350 7c ab 61 3e ae e0 6a 3e 50 b5 5d 3e 5d 9b 02 3d
       0.22038072 0.22937271 0.21651196 0.031886447
000360 ad b0 a7 bd 61 6b f5 3c d9 30 91 bd 32 cc 98 bd
       -0.08187995 0.029958429 -0.07089395 -0.07460822
000370 b8 42 17 3e 7a 97 78 be a8 fb ef 3d 89 da 56 be
       0.14771545 -0.24276534 0.117179215 -0.20981802
000380 f2 a9 41 be a2 50 b2 3d e9 28 e7 3d 0c 08 6b be
       -0.18912485 0.08706786 0.112871 -0.22952288
000390 c5 52 d4 bd 5f 33 42 3d cb 07 06 bd fe 5c 68 bd
       -0.103673495 0.047412273 -0.032722276 -0.05672931
0003a0 fd 92 a9 3d 52 f9 b8 bc b8 f3 6c bc 1f d9 85 bd
       0.08279989 -0.022579823 -0.014462404 -0.06535553
0003b0 7c 42 03 bd 36 ee 15 3e 37 7a 0e be e8 08 60 be
       -0.032045826 0.14641652 -0.13913809 -0.21878397
0003c0 08 30 43 be ff 28 73 3e 4f dc 53 bd cc 29 3a bd
       -0.19061291 0.23746108 -0.051723775 -0.045450017
0003d0 20 27 5e bb ac b9 e4 bd 63 24 ed bc 71 2b 59 be
       -0.0033897832 -0.111682266 -0.028948015 -0.21207978
0003e0 8a 06 42 be 65 bb 17 3e c6 f3 cf 3d dc 1b 47 be
       -0.18947807 0.14817579 0.10153918 -0.19444221
0003f0 62 1f 40 3d 12 c9 17 bd b3 a2 39 3c dd c2 55 3d
       0.04690493 -0.03705699 0.011330294 0.05218779

patch_embed.2.bias f4 [64]
000000 da b2 ea 3c a3 0b f1 bd 1d 2d b4 bd 54 4b 6f be
       0.028649736 -0.11769798 -0.08797667 -0.23368579
000010 f5 83 18 3e 0e e2 14 bd 06 86 cf bd ab b2 5e be
       0.14894088 -0.036348395 -0.10132985 -0.21747844
000020 84 ba 79 3e 56 fe b9 bd 71 18 a5 3d a9 67 03 be
       0.24387556 -0.09081714 0.080613025 -0.12832512
000030 a7 74 5c bd ea 4b 32 be e5 12 17 be 4b 47 b1 bc
       -0.053822186 -0.17411771 -0.14753301 -0.02164044
000040 ce 0a 4b be 18 1a 00 3e 78 6f ed bd 61 dc f2 bd
       -0.1982834 0.12509954 -0.115935266 -0.1185844
000050 12 1d 63 be ad 8d 75 3e 14 a7 a8 3d 66 4f d3 3d
       -0.22179058 0.23979826 0.082349926 0.103178784
000060 67 b2 3f bd 69 6b 90 bd 3e cf a0 3c ff d4 d5 bd
       -0.046800997 -0.07051737 0.01963007 -0.104410164
000070 73 5a d9 3d 27 5d 75 3c dc f1 25 bc 6d ca 48 3e
       0.10612955 0.0149758225 -0.010128465 0.1960847
000080 bc fb 80 be 6b 2f 3e be d6 d0 65 be e4 88 40 be
       -0.25192058 -0.18572776 -0.22442946 -0.1880222
000090 da e0 9f 3d 16 75 1e be 70 dc c6 bd 28 8e 96 3c
       0.07806559 -0.15474352 -0.09710014 0.018378332
0000a0 52 95 b5 3d 8e 01 d2 bc 26 62 6f 3e 41 12 20 3d
       0.08866371 -0.025635507 0.23377284 0.03907991
0000b0 2b 1a 4b 3e 66 50 17 be d4 bb 46 3e c3 88 09 3e
       0.19834201 -0.14776763 0.19407588 0.13431077
0000c0 63 67 1c be 43 3c 07 bd 84 7e 81 3d 33 55 3c be
       -0.15273814 -0.033016454 0.06322959 -0.18391876
0000d0 65 f3 92 3d 5c 03 48 be a9 37 d1 bd 84 e2 08 3e
       0.0717533 -0.19532531 -0.102156945 0.13367659
0000e0 a0 d3 d3 3d a6 9a 47 be b5 7c 6b 3e 38 6a 91 bd
       0.10343099 -0.19492587 0.2299679 -0.07100338
0000f0 59 a4 7c be 45 c2 c0 bd ae 15 e0 3d fd 3d 5c be
       -0.24672069 -0.09412054 0.10941635 -0.21508022

patch_embed.3.weight f4 [64, 16]
000000 c4 a3 4d be 99 93 c1 bd da 6f 65 be 6f 35 2c 3e
       -0.20082003 -0.0945198 -0.22405949 0.16817258
000010 1e 1d dd bd 41 bc 5a be 4f 76 7d 3e 31 14 72 be
       -0.10796569 -0.21360876 0.24752162 -0.23640515
000020 3a e2 15 be cf fe 59 3e 08 51 85 bd 33 31 6d bd
       -0.1463708 0.21288608 -0.06509596 -0.05790825
000030 74 4e 39 3e 5f 35 75 be e1 4b 5f be e4 25 4f 3d
       0.18096334 -0.2394614 -0.2180629 0.050573245
000040 af e4 78 be 6c ec b1 bd 9b b0 04 be 0b 69 67 be
       -0.24305986 -0.08687672 -0.12957995 -0.22598664
000050 7c 56 5f 3d da be 88 bc 1f 9d 28 be 0c 89 21 bd
       0.054525837 -0.016692568 -0.16466187 -0.03943734
000060 a1 4a 4d bd e3 fb 68 be 0f e2 c2 bc e5 6d 9e 3d
       -0.05012 -0.22752337 -0.023789434 0.077358045
000070 1d 42 02 3e 47 54 e9 3d 72 b0 bf 3c 0e 53 48 3e
       0.12720533 0.11393028 0.023399565 0.19562933
000080 eb d3 7d 3d d3 97 5f 3e f4 50 29 3e e2 78 09 3e
       0.06196968 0.2183526 0.16534787 0.1342502
000090 f7 85 35 3e 1c 52 5c 3e 83 c5 da bd dc 90 d0 3d
       0.17726885 0.21515697 -0.106822036 0.1018388
0000a0 b4 b6 67 be ea ae 40 bc 02 c7 44 3e 40 cf 69 be
       -0.2262829 -0.011760453 0.1921654 -0.22832966
0000b0 33 50 41 3e 28 f3 3c 3c 76 df 10 be 04 b9 9b 3d
       0.1887825 0.011532582 -0.14147744 0.07603648
0000c0 cb a0 58 bd c8 cb 09 3d 69 99 52 3d 0c 3f 61 be
       -0.05288772 0.033641607 0.051415835 -0.21996707
0000d0 f3 1d b2 3d 66 40 00 be 78 72 5c 3e 7b 28 20 be
       0.086971186 -0.12524566 0.21528041 -0.15640442
0000e0 7d 3a f0 3d cf b0 cc 3d 2e db 4d be 42 ff 01 3e
       0.11729906 0.09994661 -0.20103142 0.1269503
0000f0 f5 2a 15 be e4 d7 3a 3e c4 fa 3c be a7 3e b3 bc
       -0.14567168 0.18246418 -0.18455034 -0.02188046
000100 00 5e 9a 3d 10 2d af bd 8e a5 63 bd 48 58 f8 3d
       0.0753746 -0.08553517 -0.055577807 0.12126213
000110 bf f1 54 3d ae 37 77 be ea f5 4e be 8a de 64 be
       0.05198836 -0.24142334 -0.20210996 -0.22350517
000120 cb fa 23 3e e5 2f 39 3e 88 cb f0 bd 58 c3 78 be
       0.16013639 0.18084677 -0.117575705 -0.24293268
000130 8f 8d 05 3d 0e d6 44 bd 99 61 21 3e 4d 72 b9 3d
       0.032605704 -0.0480557 0.15759887 0.09055004
000140 0e 9a 29 3e 29 0f 65 3e 4d 21 e9 bd b4 ba c1 bd
       0.16562673 0.22369064 -0.11383305 -0.09459439
000150 19 12 2d 3e 4f 15 79 3e b7 72 10 be ef 29 63 3e
       0.16901435 0.24324535 -0.1410626 0.22183965
000160 e1 1d c6 bd e6 f1 06 be d4 02 e8 bd b6 c4 98 bd
       -0.09673668 -0.13178214 -0.113286644 -0.07459395
000170 95 2c 7c be af b0 71 bd 39 1b 63 be 47 e5 3a 3e
       -0.24626382 -0.05900639 -0.22178353 0.18251525
000180 e2 c5 47 be 61 51 ba bc b4 24 d8 3d 70 6c 1f 3d
       -0.1950908 -0.022743883 0.105538756 0.038921773
000190 fc 93 64 3e a3 41 23 be 16 49 4d 3e 3e 72 e1 3d
       0.22322077 -0.15943007 0.20047411 0.11008118
0001a0 36 8a 7f 3e 58 54 6f 3d 9c 20 95 3c 10 7d 35 be
       0.24955067 0.058430046 0.018204026 -0.17723489
0001b0 35 ae f9 bd ef 2b 0b be 12 d6 7a 3e 0f 65 21 3e
       -0.121914305 -0.13590978 0.24495724 0.15761207
0001c0 eb ce 7b 3e c6 2c e3 3d a4 24 eb 3b 95 ec 2c be
       0.24590652 0.11092524 0.0071759988 -0.16887124
0001d0 f6 72 73 3d d7 e8 54 bd 27 b5 cc 3c a5 28 29 3e
       0.059435807 -0.051979866 0.024988724 0.16519411
0001e0 57 3a 20 3e 53 79 db 3d c4 64 dd bd f8 82 d6 3b
       0.15647255 0.107165 -0.10810235 0.0065463744
0001f0 67 30 73 3c 48 86 e0 3d a7 e3 57 bd 53 37 df bd
       0.014843083 0.10963112 -0.05270734 -0.10899224
000200 03 19 65 bd fc 7a 74 be 36 2c c2 3d 6b 03 74 3e
       -0.055932056 -0.2387504 0.09481089 0.23829429
000210 25 9b 2d 3e 3c b5 4e be a3 72 bf 3d 97 2d 75 3e
       0.16953714 -0.20186323 0.09348037 0.23943172
000220 0c 41 53 be c1 1c 2c 3e 89 85 bb 3d e4 bb 2b 3c
       -0.20630282 0.16807844 0.09156329 0.010481808
000230 f3 3a 6a 3c 55 10 77 3e 30 3f 45 be 2e 19 94 bd
       0.014296281 0.24127324 -0.19262385 -0.07231365
000240 3f 84 7d 3e ec dc fd bd df f1 55 be 00 e6 41 3e
       0.24757479 -0.12395653 -0.20893048 0.18935394
000250 a4 b9 17 be f6 4c 45 3e 21 3b ab bd 61 e0 5e 3d
       -0.1481691 0.1926764 -0.08360887 0.054413203
000260 d3 c7 03 be 49 10 b0 3d 5f ee 23 bd ca 89 66 bd
       -0.12869196 0.08596856 -0.04002225 -0.05628375
000270 3c 96 34 bd 32 68 db 3b 24 a8 30 3e d6 cf 6d 3e
       -0.044088587 0.0066957707 0.1725164 0.23223814
000280 47 a2 59 be 61 44 d6 bc f4 e1 57 3e 9a 00 a8 bd
       -0.2125331 -0.026155652 0.21082288 -0.0820324
000290 3c 2f 5d 3d 61 b7 67 3e ca 1a 53 be a0 ce 57 3e
       0.054000124 0.22628547 -0.20615688 0.21074915
0002a0 89 01 13 3e 85 e4 b3 bd 26 30 a3 bd 4f 8a 78 3e
       0.14356054 -0.08783821 -0.07968168 0.2427151
0002b0 6a b9 79 3d 4e 62 73 bd 82 20 fe 3d bb 90 58 3e
       0.06096784 -0.059419923 0.12408544 0.2114896
0002c0 1e 72 ad bc 73 1b 87 3d 47 46 bd bd 33 32 cc 3d
       -0.02117258 0.065970324 -0.0924192 0.09970512
0002d0 10 2c d3 bd 6a 77 75 be 32 93 ba 3c bb dd 2e 3e
       -0.10311139 -0.23971334 0.022775266 0.17076771
0002e0 84 3d ed 3c 50 31 17 3e 0f 7c 36 3e cb 4e 8f 3d
       0.028959997 0.14764905 0.17820762 0.069974504
0002f0 b6 b9 19 be f6 a1 40 be 53 76 e7 3d cb 24 02 3c
       -0.1501225 -0.18811783 0.113018654 0.007943342
000300 74 e8 45 3b 0f fc 02 3e 88 17 76 bd 50 0b 7d 3e
       0.0030198367 0.12791465 -0.060081035 0.24711347
000310 40 d1 28 3e be 7b 6c 3e 5d c6 0c 3e 3f a5 40 3e
       0.16486073 0.23094079 0.13747545 0.18813036
000320 f8 aa 40 bd f7 d8 1e 3e 9a a9 4b 3e 1f 43 ed bd
       -0.04703805 0.15512453 0.19888917 -0.11585068
000330 57 d2 e9 3d f1 5c a5 bd 11 bd 1e 3c 67 e2 36 3e
       0.11417072 -0.08074368 0.009688632 0.17859803
000340 be 51 4b be 1d f3 00 3e bf 8b 06 be 02 a2 3c 3e
       -0.19855401 0.1259274 -0.13139246 0.18421176
000350 75 8c 77 3e 78 e1 b2 bb 37 59 a8 3c 23 aa c0 bd
       0.24174674 -0.005459007 0.020550353 -0.09407451
000360 4b 32 85 bd 18 f0 0a 3e c3 dd 0c 3e f6 6f 62 bd
       -0.06503733 0.13568151 0.1375647 -0.055282556
000370 a3 b0 91 3d 82 6d c0 3d 38 ef c1 3c 01 29 48 bd
       0.07113769 0.09395887 0.023673639 -0.04886723
000380 a8 77 27 3e 91 46 9c bd f5 53 b3 3c 98 fa 6c 3e
       0.16354239 -0.07630647 0.02189062 0.23142469
000390 c5 d9 7a bd 50 46 16 be 68 54 87 3d 2e 67 6e 3e
       -0.061242837 -0.1467526 0.06607896 0.23281547
0003a0 33 ee 4b be 3a 04 b4 3d a1 5c 5a be c6 cc 66 bd
       -0.19915085 0.08789869 -0.21324398 -0.05634763
0003b0 66 09 f6 3d a6 14 d0 bd 9c 8f 82 3e 26 61 8f bb
       0.12013511 -0.101601884 0.2550019 -0.0043755947
0003c0 85 59 89 bd 06 f8 2f be 35 44 c2 bd bb 4c dc bd
       -0.067065276 -0.17184457 -0.09485666 -0.10756823
0003d0 38 4a 28 bd 71 83 8e 3c 9d b7 06 bd 99 b3 b5 bd
       -0.041086406 0.01739666 -0.03288995 -0.08872146
0003e0 7a 5a 83 3d 47 83 5c 3e 40 d7 5e bd 87 64 79 3e
       0.064137414 0.21534453 -0.054404497 0.24354754
0003f0 85 1e b8 bd 65 89 44 be d1 8c 2f be 90 2d bc 3d
       -0.08990196 -0.19193037 -0.17143561 0.09188378

patch_embed.3.bias f4 [64]
000000 07 f3 1a be 4a d0 b2 3d e0 ad 3d 3d db 77 85 3c
       -0.1513177 0.08731134 0.0463084 0.016292503
000010 08 18 64 be 76 aa 05 bd 03 3a e5 3d 33 2e 05 3e
       -0.22274792 -0.032633267 0.111927055 0.13005905
000020 62 aa 4d bd e7 2e a3 3d 3a 92 4b be 39 f4 72 be
       -0.050211318 0.0796793 -0.1988 -0.23725976
000030 6f 52 1d bd fd f7 4f 3e c4 66 15 bb e9 3b 2c be
       -0.038408693 0.20309444 -0.0022796849 -0.16819729
000040 d3 0d 4b 3e 71 3d ae 3d b3 1c 32 bc 4c 7b da 3d
       0.19829492 0.08507813 -0.0108711 0.10668048
000050 e3 67 0f 3e 21 49 39 3e a8 a9 22 be 36 7a 22 3e
       0.14004473 0.18094303 -0.15885031 0.15866932
000060 75 3d e2 3d 64 5a 55 be 11 6b 1b 3e f8 5b 7c 3e
       0.11046878 -0.20835263 0.15177561 0.24644458
000070 e8 4f d5 bd 75 85 cb bc bf 37 22 3e e5 1d 65 3e
       -0.104156315 -0.02484391 0.15841578 0.22374685
000080 9f f1 8e 3d 25 91 6c be 88 5e 3d 3e 93 20 d5 bd
       0.06979679 -0.23102243 0.18493092 -0.10406604
000090 a2 f1 0f be 1f 3e 23 3e e9 80 21 3e 86 f8 1d bd
       -0.1405702 0.15941666 0.15771832 -0.03856709
0000a0 38 8f 16 be 32 68 00 3e 40 7a 7e be 46 19 6f 3e
       -0.14703071 0.12539747 -0.24851322 0.23349485
0000b0 69 ad 25 3e b2 d3 2a 3e cf 7b 5d bd 18 b8 9e bd
       0.16179432 0.16682318 -0.05407315 -0.07749957
0000c0 20 9c 6a be 50 91 5d be 1d 3e 4c 3c 13 5f 27 3d
       -0.2291112 -0.21637464 0.012465981 0.040862154
0000d0 f4 c6 e5 3d 60 f5 ae 3d e7 29 f9 bc 09 7b 49 be
       0.11219588 0.08542895 -0.030415488 -0.1967584
0000e0 13 42 87 bd a5 1a 18 3e 4d 22 1d 3e ad 29 15 3d
       -0.066043995 0.14853914 0.15345116 0.0364167
0000f0 88 e0 0c 3e 30 f5 1e 3e cd b3 35 3e 38 68 9b bd
       0.13757527 0.15523219 0.1774437 -0.075882375

patch_embed.4.weight f4 [64, 16]
000000 29 35 1c 3c 89 6e 55 be 2e 55 ea 3d 44 a1 30 3c
       0.009534159 -0.20842947 0.11442028 0.010780636
000010 47 60 1a 3e 90 9d 54 be 21 71 4a 3e 81 b9 1a be
       0.1507579 -0.2076323 0.19769718 -0.15109827
000020 8c 8d d6 3d 6b 24 57 3e db fd cc 3d 66 f4 57 bd
       0.10476217 0.21009986 0.100093566 -0.05272331
000030 52 90 ef bc 76 39 8a bd c2 8f 1f be 24 63 30 bd
       -0.029243622 -0.06749241 -0.15582183 -0.043063298
000040 58 8c 78 3e 05 73 77 3c 32 5b fc 3c 1c e8 45 be
       0.24272287 0.015103106 0.030805204 -0.19326824
000050 e7 e5 3f be aa 54 e2 bb 94 bb 0f be 9e 75 25 be
       -0.18740045 -0.0069070654 -0.14036399 -0.16158149
000060 85 e7 1a be 4d 2c a7 3d 40 05 ab 3d d3 45 03 be
       -0.1512738 0.081627466 0.08350611 -0.12819605
000070 cb 6b 68 3d f9 04 fc bc 3a 1d 80 3e 58 3a 58 3d
       0.056743424 -0.03076409 0.25022298 0.052790016
000080 0f 62 6a 3e 22 d4 5c bd 3d e1 61 3e 6b c8 c0 3d
       0.22888969 -0.053913243 0.22058578 0.09413227
000090 a9 c1 0b 3e f6 de 62 3e ab 9d 33 be f6 53 62 3e
       0.13648094 0.22155365 -0.17540614 0.22102341
0000a0 55 f7 13 3e c2 2a 0b bc 40 c7 4a be 55 0b 46 3d
       0.14449818 -0.008494081 -0.1980257 0.04835065
0000b0 29 4a 2e 3e 2b 83 6c 3e 9a cd 8f 3d 55 d7 37 3e
       0.17020477 0.23096912 0.07021637 0.17953236
0000c0 45 ee 87 bd d0 e0 01 bd d0 aa d5 bd df 00 c2 3d
       -0.06637243 -0.03170854 -0.104329705 0.094728224
0000d0 a3 50 00 be 43 43 2f 3e 4d a9 f2 3d 4d a0 50 3d
       -0.1253076 0.17115502 0.11848698 0.050934125
0000e0 fe 65 a4 3d 8d 83 34 3e 61 7b dd bb 50 0d b6 3c
       0.08027266 0.17628308 -0.0067590927 0.022223145
0000f0 cc a9 1c be b8 ce 59 3e 06 b9 a2 bd ae 33 09 3e
       -0.15299147 0.21270263 -0.07945447 0.1339862
000100 a9 b3 13 3c 34 a5 23 3e 43 92 71 be 54 a0 ed bd
       0.009015002 0.15980989 -0.2359095 -0.11602846
000110 e0 4a 45 be 3b 1d 3a 3e 96 ab ab bb 72 71 47 3d
       -0.19266844 0.18175213 -0.0052389605 0.048692174
000120 b9 3b 00 3d 6d 13 6a 3e 7b c6 82 bd 32 f2 e5 3d
       0.031306956 0.22858973 -0.063855134 0.11227836
000130 08 b5 66 be b1 67 45 be fa 7e 16 3e 9a 05 b8 3c
       -0.22529995 -0.19277836 0.14696875 0.022463609
000140 b4 48 e7 3d 8b f6 c5 3d 22 59 5e 3e ed 4a 30 bc
       0.11293164 0.09666165 0.21713689 -0.010760051
000150 e5 5e 42 bd d6 c3 75 be 96 69 e6 bd 0b df 3c 3e
       -0.04745378 -0.24000487 -0.11250608 0.18444459
000160 32 a3 21 be 94 fc 6e 3e 0d ef 32 be 21 82 9e bd
       -0.1578491 0.23338538 -0.17474003 -0.07739664
000170 7a 6b fc bd 4c 38 24 be 47 96 5a 3e 18 f8 71 be
       -0.12325187 -0.160371 0.21346389 -0.23629797
000180 f9 73 3f 3d 5f 4e c7 bd 84 1a 00 be 75 67 08 be
       0.04674146 -0.09731745 -0.12510115 -0.13320716
000190 74 8e 0c be 2c d7 85 bd 93 2a 00 bd c8 1b 8d 3d
       -0.13726217 -0.065351814 -0.031290602 0.068900645
0001a0 64 b3 34 bd f4 b3 38 be af ba 76 bd 1c cf 76 3e
       -0.044116393 -0.18037397 -0.06023663 0.24102443
0001b0 ed de 6b 3e 17 11 2c 3e c2 d8 6a be 54 9b 15 bd
       0.23034258 0.16803394 -0.22934249 -0.036525086
0001c0 b2 57 09 3e e8 28 74 be dc cd 34 be 94 cb 22 3e
       0.1341236 -0.2384373 -0.17656654 0.15897971
0001d0 a9 54 16 be b4 08 5a 3e 2e c1 29 be 3c 2d f4 bd
       -0.14680733 0.21292382 -0.16577598 -0.1192269
0001e0 ad 27 06 3d 2a ad 6c bd de ce 71 be b6 0c a1 3d
       0.03275268 -0.05778233 -0.2361407 0.078637525
0001f0 80 b8 a0 3d 64 1f 16 3e 85 20 46 3e b2 8e 6b 3c
       0.078476906 0.14660412 0.19348343 0.014377283
000200 8b 88 12 3e 17 30 17 3d 38 3a 1a be 73 d7 ca bd
       0.143099 0.036911096 -0.15061271 -0.09904375
000210 13 f3 3b 3e f1 55 34 be 5f b6 7a 3e a3 c7 e3 bd
       0.18354444 -0.17610909 0.24483632 -0.11122062
000220 55 55 08 be 53 5c 10 3c 7e 15 22 3e 71 95 2e 3e
       -0.13313802 0.008811074 0.15828511 0.17049195
000230 68 0d 1e 3c fe 0c 01 be bd 60 de 3c c4 68 c3 bd
       0.009646751 -0.12602612 0.027145738 -0.09541467
000240 13 35 43 be d9 73 98 3d ce 3f 03 3e c9 f3 bb bd
       -0.19063215 0.07443971 0.12817308 -0.09177358
000250 f6 71 78 be 4b 8e 26 be ed 3b 67 bd 74 da 1d 3d
       -0.24262223 -0.16265218 -0.056453634 0.03853841
000260 48 ba 4c 3e 50 33 cc bd a2 e6 53 3e d1 12 5f 3d
       0.19992936 -0.099707246 0.20693448 0.054461304
000270 ba 6b 6a 3e 04 4e c1 3d ca 06 36 3c 10 09 c6 bd
       0.22892657 0.094387084 0.011110017 -0.09669697
000280 6f 79 5e be 94 cc 3e 3e 52 06 63 3e 3f 44 6e be
       -0.2172601 0.18632728 0.2217038 -0.23268221
000290 75 3c 95 bd b5 77 91 3d 79 48 10 be 94 f0 ce bd
       -0.07286922 0.071029104 -0.14090146 -0.101044804
0002a0 e8 73 5d be d1 8f 83 bd d3 0b 5d be 96 87 71 bc
       -0.21626246 -0.06423915 -0.21586542 -0.014741799
0002b0 7e 89 4b be e2 8c ca 3b 74 3f c9 bd 30 eb 5f be
       -0.19876668 0.0061813453 -0.09826556 -0.2186706
0002c0 18 44 18 be 5d 1c c5 bd 2c 43 c3 3d ff 35 00 be
       -0.14869726 -0.096245505 0.095342964 -0.12520598
0002d0 f3 06 17 be 56 1c 8d bc b7 26 58 3e 18 ee 70 3e
       -0.14748745 -0.017225426 0.21108519 0.23528326
0002e0 21 70 2c be 29 b3 8e 3d 75 2a 4d 3e 9e d1 d8 3d
       -0.16839649 0.06967766 0.20035727 0.10586856
0002f0 7e fc 01 bc 59 ab 55 3c 61 92 e5 3a 71 d9 46 3e
       -0.007933734 0.013041341 0.0017514938 0.19418885
000300 a2 a5 73 bd 1f 4f 15 be 2a 3c 8b bd 08 ba e7 bd
       -0.05948413 -0.14580964 -0.06798585 -0.113147795
000310 1e 9e 58 be 85 5f 2a be b8 3c 56 bb 10 17 10 3e
       -0.21154067 -0.16638 -0.003269 0.14071298
000320 cf 16 ac b8 54 82 e0 3d af b7 e0 3d b5 66 82 3d
       -8.2058476e-05 0.10962358 0.10972535 0.06367246
000330 fa 16 10 be 72 c3 20 be 01 44 8c 3c c9 26 9e 3d
       -0.14071265 -0.15699556 0.01712227 0.077222414
000340 5b 51 67 bd 70 95 e3 bd 2d b7 7d be 6b 8a 5c 3e
       -0.05647407 -0.11112487 -0.24776907 0.21537177
000350 09 4a b2 3d 91 08 6e 3e 39 dd 9b bc 79 00 bf 3d
       0.08705527 0.23245455 -0.019026386 0.09326262
000360 01 b1 3c bd e4 1e 9a 3d dd ef 00 be 8f 51 f0 bd
       -0.04606724 0.07525423 -0.125915 -0.11734306
000370 dc c1 80 3c a3 bc f9 bd 48 8f f7 bd 4d f8 39 3c
       0.01571744 -0.12194183 -0.120878756 0.011350703
000380 a4 40 74 3e b0 30 df 3c d0 aa 36 3e 13 66 80 bd
       0.23852783 0.027244896 0.17838597 -0.06269469
000390 09 9a 4a 3d a2 67 53 3e b9 a1 81 3d 21 76 e4 3d
       0.049463306 0.20645002 0.06329674 0.11155344
0003a0 35 a4 70 3e b5 cf 24 be af 2c 2d 3e 1e f1 40 3e
       0.2350014 -0.16094859 0.16911577 0.18841979
0003b0 9b 29 e4 3d 57 9d d0 bd 31 d6 76 3e 90 f5 54 3e
       0.11140748 -0.1018626 0.24105145 0.207968
0003c0 d0 55 2c be 07 9e 50 be 9f 86 7a 3e f9 7f b8 3d
       -0.1682961 -0.20372783 0.24465416 0.09008784
0003d0 51 77 44 3e ca 2e 42 be e8 a7 91 3d f7 6a 5b 3e
       0.1918614 -0.18963161 0.07112104 0.21427523
0003e0 b7 6f 4d bd 67 a7 e8 bd 3e 07 bb bd 5c 04 4c 3e
       -0.050155368 -0.113600545 -0.09132241 0.19923538
0003f0 a5 1c 08 be e1 c2 71 3e 04 cc 10 bd 35 a2 04 bd
       -0.13292177 0.23609497 -0.035350814 -0.032381255
